program(1.0)
[buildInfo = dict<tensor<string, []>, tensor<string, []>>({{"coremlc-component-MIL", "3510.2.1"}, {"coremlc-version", "3500.32.1"}})]
{
    func main<ios16>(tensor<fp32, [1, 3, 640, 640]> image) {
            tensor<fp32, []> image__scaled___y_0 = const()[name = tensor<string, []>("image__scaled___y_0"), val = tensor<fp32, []>(0x1.010102p-8)];
            tensor<fp32, [1, 3, 640, 640]> image__scaled__ = mul(x = image, y = image__scaled___y_0)[name = tensor<string, []>("image__scaled__")];
            tensor<string, []> input_1_pad_type_0 = const()[name = tensor<string, []>("input_1_pad_type_0"), val = tensor<string, []>("custom")];
            tensor<int32, [4]> input_1_pad_0 = const()[name = tensor<string, []>("input_1_pad_0"), val = tensor<int32, [4]>([1, 1, 1, 1])];
            tensor<int32, [2]> input_1_strides_0 = const()[name = tensor<string, []>("input_1_strides_0"), val = tensor<int32, [2]>([2, 2])];
            tensor<int32, [2]> input_1_dilations_0 = const()[name = tensor<string, []>("input_1_dilations_0"), val = tensor<int32, [2]>([1, 1])];
            tensor<int32, []> input_1_groups_0 = const()[name = tensor<string, []>("input_1_groups_0"), val = tensor<int32, []>(1)];
            tensor<string, []> image_to_fp16_dtype_0 = const()[name = tensor<string, []>("image_to_fp16_dtype_0"), val = tensor<string, []>("fp16")];
            tensor<fp16, [64, 3, 3, 3]> model_0_conv_weight_to_fp16_palettized = constexpr_lut_to_dense()[indices = tensor<uint8, [1728]>(BLOBFILE(path = tensor<string, []>("@model_path/weights/weight.bin"), offset = tensor<uint64, []>(64))), lut = tensor<fp16, [256]>(BLOBFILE(path = tensor<string, []>("@model_path/weights/weight.bin"), offset = tensor<uint64, []>(1856))), name = tensor<string, []>("model_0_conv_weight_to_fp16_palettized"), shape = tensor<uint32, [4]>([64, 3, 3, 3])];
            tensor<fp16, [64]> model_0_conv_bias_to_fp16 = const()[name = tensor<string, []>("model_0_conv_bias_to_fp16"), val = tensor<fp16, [64]>(BLOBFILE(path = tensor<string, []>("@model_path/weights/weight.bin"), offset = tensor<uint64, []>(2432)))];
            tensor<fp16, [1, 3, 640, 640]> image_to_fp16 = cast(dtype = image_to_fp16_dtype_0, x = image__scaled__)[name = tensor<string, []>("cast_2")];
            tensor<fp16, [1, 64, 320, 320]> input_1_cast_fp16 = conv(bias = model_0_conv_bias_to_fp16, dilations = input_1_dilations_0, groups = input_1_groups_0, pad = input_1_pad_0, pad_type = input_1_pad_type_0, strides = input_1_strides_0, weight = model_0_conv_weight_to_fp16_palettized, x = image_to_fp16)[name = tensor<string, []>("input_1_cast_fp16")];
            tensor<fp16, [1, 64, 320, 320]> input_3_cast_fp16 = silu(x = input_1_cast_fp16)[name = tensor<string, []>("input_3_cast_fp16")];
            tensor<string, []> input_5_pad_type_0 = const()[name = tensor<string, []>("input_5_pad_type_0"), val = tensor<string, []>("custom")];
            tensor<int32, [4]> input_5_pad_0 = const()[name = tensor<string, []>("input_5_pad_0"), val = tensor<int32, [4]>([1, 1, 1, 1])];
            tensor<int32, [2]> input_5_strides_0 = const()[name = tensor<string, []>("input_5_strides_0"), val = tensor<int32, [2]>([2, 2])];
            tensor<int32, [2]> input_5_dilations_0 = const()[name = tensor<string, []>("input_5_dilations_0"), val = tensor<int32, [2]>([1, 1])];
            tensor<int32, []> input_5_groups_0 = const()[name = tensor<string, []>("input_5_groups_0"), val = tensor<int32, []>(1)];
            tensor<fp16, [128, 64, 3, 3]> model_1_conv_weight_to_fp16_palettized = constexpr_lut_to_dense()[indices = tensor<uint8, [73728]>(BLOBFILE(path = tensor<string, []>("@model_path/weights/weight.bin"), offset = tensor<uint64, []>(2624))), lut = tensor<fp16, [256]>(BLOBFILE(path = tensor<string, []>("@model_path/weights/weight.bin"), offset = tensor<uint64, []>(76416))), name = tensor<string, []>("model_1_conv_weight_to_fp16_palettized"), shape = tensor<uint32, [4]>([128, 64, 3, 3])];
            tensor<fp16, [128]> model_1_conv_bias_to_fp16 = const()[name = tensor<string, []>("model_1_conv_bias_to_fp16"), val = tensor<fp16, [128]>(BLOBFILE(path = tensor<string, []>("@model_path/weights/weight.bin"), offset = tensor<uint64, []>(76992)))];
            tensor<fp16, [1, 128, 160, 160]> input_5_cast_fp16 = conv(bias = model_1_conv_bias_to_fp16, dilations = input_5_dilations_0, groups = input_5_groups_0, pad = input_5_pad_0, pad_type = input_5_pad_type_0, strides = input_5_strides_0, weight = model_1_conv_weight_to_fp16_palettized, x = input_3_cast_fp16)[name = tensor<string, []>("input_5_cast_fp16")];
            tensor<fp16, [1, 128, 160, 160]> input_7_cast_fp16 = silu(x = input_5_cast_fp16)[name = tensor<string, []>("input_7_cast_fp16")];
            tensor<int32, []> var_70 = const()[name = tensor<string, []>("op_70"), val = tensor<int32, []>(1)];
            tensor<string, []> input_9_pad_type_0 = const()[name = tensor<string, []>("input_9_pad_type_0"), val = tensor<string, []>("valid")];
            tensor<int32, [2]> input_9_strides_0 = const()[name = tensor<string, []>("input_9_strides_0"), val = tensor<int32, [2]>([1, 1])];
            tensor<int32, [4]> input_9_pad_0 = const()[name = tensor<string, []>("input_9_pad_0"), val = tensor<int32, [4]>([0, 0, 0, 0])];
            tensor<int32, [2]> input_9_dilations_0 = const()[name = tensor<string, []>("input_9_dilations_0"), val = tensor<int32, [2]>([1, 1])];
            tensor<int32, []> input_9_groups_0 = const()[name = tensor<string, []>("input_9_groups_0"), val = tensor<int32, []>(1)];
            tensor<fp16, [128, 128, 1, 1]> model_2_cv1_conv_weight_to_fp16_palettized = constexpr_lut_to_dense()[indices = tensor<uint8, [16384]>(BLOBFILE(path = tensor<string, []>("@model_path/weights/weight.bin"), offset = tensor<uint64, []>(77312))), lut = tensor<fp16, [256]>(BLOBFILE(path = tensor<string, []>("@model_path/weights/weight.bin"), offset = tensor<uint64, []>(93760))), name = tensor<string, []>("model_2_cv1_conv_weight_to_fp16_palettized"), shape = tensor<uint32, [4]>([128, 128, 1, 1])];
            tensor<fp16, [128]> model_2_cv1_conv_bias_to_fp16 = const()[name = tensor<string, []>("model_2_cv1_conv_bias_to_fp16"), val = tensor<fp16, [128]>(BLOBFILE(path = tensor<string, []>("@model_path/weights/weight.bin"), offset = tensor<uint64, []>(94336)))];
            tensor<fp16, [1, 128, 160, 160]> input_9_cast_fp16 = conv(bias = model_2_cv1_conv_bias_to_fp16, dilations = input_9_dilations_0, groups = input_9_groups_0, pad = input_9_pad_0, pad_type = input_9_pad_type_0, strides = input_9_strides_0, weight = model_2_cv1_conv_weight_to_fp16_palettized, x = input_7_cast_fp16)[name = tensor<string, []>("input_9_cast_fp16")];
            tensor<fp16, [1, 128, 160, 160]> var_83_cast_fp16 = silu(x = input_9_cast_fp16)[name = tensor<string, []>("op_83_cast_fp16")];
            tensor<int32, [2]> var_84 = const()[name = tensor<string, []>("op_84"), val = tensor<int32, [2]>([64, 64])];
            tensor<int32, []> var_85_axis_0 = const()[name = tensor<string, []>("op_85_axis_0"), val = tensor<int32, []>(1)];
            tensor<fp16, [1, 64, 160, 160]> var_85_cast_fp16_0, tensor<fp16, [1, 64, 160, 160]> var_85_cast_fp16_1 = split(axis = var_85_axis_0, split_sizes = var_84, x = var_83_cast_fp16)[name = tensor<string, []>("op_85_cast_fp16")];
            tensor<string, []> input_13_pad_type_0 = const()[name = tensor<string, []>("input_13_pad_type_0"), val = tensor<string, []>("valid")];
            tensor<int32, [2]> input_13_strides_0 = const()[name = tensor<string, []>("input_13_strides_0"), val = tensor<int32, [2]>([1, 1])];
            tensor<int32, [4]> input_13_pad_0 = const()[name = tensor<string, []>("input_13_pad_0"), val = tensor<int32, [4]>([0, 0, 0, 0])];
            tensor<int32, [2]> input_13_dilations_0 = const()[name = tensor<string, []>("input_13_dilations_0"), val = tensor<int32, [2]>([1, 1])];
            tensor<int32, []> input_13_groups_0 = const()[name = tensor<string, []>("input_13_groups_0"), val = tensor<int32, []>(1)];
            tensor<fp16, [32, 64, 1, 1]> model_2_m_0_cv1_conv_weight_to_fp16_palettized = constexpr_lut_to_dense()[indices = tensor<uint8, [2048]>(BLOBFILE(path = tensor<string, []>("@model_path/weights/weight.bin"), offset = tensor<uint64, []>(94656))), lut = tensor<fp16, [256]>(BLOBFILE(path = tensor<string, []>("@model_path/weights/weight.bin"), offset = tensor<uint64, []>(96768))), name = tensor<string, []>("model_2_m_0_cv1_conv_weight_to_fp16_palettized"), shape = tensor<uint32, [4]>([32, 64, 1, 1])];
            tensor<fp16, [32]> model_2_m_0_cv1_conv_bias_to_fp16 = const()[name = tensor<string, []>("model_2_m_0_cv1_conv_bias_to_fp16"), val = tensor<fp16, [32]>(BLOBFILE(path = tensor<string, []>("@model_path/weights/weight.bin"), offset = tensor<uint64, []>(97344)))];
            tensor<fp16, [1, 32, 160, 160]> input_13_cast_fp16 = conv(bias = model_2_m_0_cv1_conv_bias_to_fp16, dilations = input_13_dilations_0, groups = input_13_groups_0, pad = input_13_pad_0, pad_type = input_13_pad_type_0, strides = input_13_strides_0, weight = model_2_m_0_cv1_conv_weight_to_fp16_palettized, x = var_85_cast_fp16_1)[name = tensor<string, []>("input_13_cast_fp16")];
            tensor<fp16, [1, 32, 160, 160]> input_15_cast_fp16 = silu(x = input_13_cast_fp16)[name = tensor<string, []>("input_15_cast_fp16")];
            tensor<string, []> input_17_pad_type_0 = const()[name = tensor<string, []>("input_17_pad_type_0"), val = tensor<string, []>("custom")];
            tensor<int32, [4]> input_17_pad_0 = const()[name = tensor<string, []>("input_17_pad_0"), val = tensor<int32, [4]>([1, 1, 1, 1])];
            tensor<int32, [2]> input_17_strides_0 = const()[name = tensor<string, []>("input_17_strides_0"), val = tensor<int32, [2]>([1, 1])];
            tensor<int32, [2]> input_17_dilations_0 = const()[name = tensor<string, []>("input_17_dilations_0"), val = tensor<int32, [2]>([1, 1])];
            tensor<int32, []> input_17_groups_0 = const()[name = tensor<string, []>("input_17_groups_0"), val = tensor<int32, []>(1)];
            tensor<fp16, [32, 32, 3, 3]> model_2_m_0_m_0_cv1_conv_weight_to_fp16_palettized = constexpr_lut_to_dense()[indices = tensor<uint8, [9216]>(BLOBFILE(path = tensor<string, []>("@model_path/weights/weight.bin"), offset = tensor<uint64, []>(97472))), lut = tensor<fp16, [256]>(BLOBFILE(path = tensor<string, []>("@model_path/weights/weight.bin"), offset = tensor<uint64, []>(106752))), name = tensor<string, []>("model_2_m_0_m_0_cv1_conv_weight_to_fp16_palettized"), shape = tensor<uint32, [4]>([32, 32, 3, 3])];
            tensor<fp16, [32]> model_2_m_0_m_0_cv1_conv_bias_to_fp16 = const()[name = tensor<string, []>("model_2_m_0_m_0_cv1_conv_bias_to_fp16"), val = tensor<fp16, [32]>(BLOBFILE(path = tensor<string, []>("@model_path/weights/weight.bin"), offset = tensor<uint64, []>(107328)))];
            tensor<fp16, [1, 32, 160, 160]> input_17_cast_fp16 = conv(bias = model_2_m_0_m_0_cv1_conv_bias_to_fp16, dilations = input_17_dilations_0, groups = input_17_groups_0, pad = input_17_pad_0, pad_type = input_17_pad_type_0, strides = input_17_strides_0, weight = model_2_m_0_m_0_cv1_conv_weight_to_fp16_palettized, x = input_15_cast_fp16)[name = tensor<string, []>("input_17_cast_fp16")];
            tensor<fp16, [1, 32, 160, 160]> input_19_cast_fp16 = silu(x = input_17_cast_fp16)[name = tensor<string, []>("input_19_cast_fp16")];
            tensor<string, []> input_21_pad_type_0 = const()[name = tensor<string, []>("input_21_pad_type_0"), val = tensor<string, []>("custom")];
            tensor<int32, [4]> input_21_pad_0 = const()[name = tensor<string, []>("input_21_pad_0"), val = tensor<int32, [4]>([1, 1, 1, 1])];
            tensor<int32, [2]> input_21_strides_0 = const()[name = tensor<string, []>("input_21_strides_0"), val = tensor<int32, [2]>([1, 1])];
            tensor<int32, [2]> input_21_dilations_0 = const()[name = tensor<string, []>("input_21_dilations_0"), val = tensor<int32, [2]>([1, 1])];
            tensor<int32, []> input_21_groups_0 = const()[name = tensor<string, []>("input_21_groups_0"), val = tensor<int32, []>(1)];
            tensor<fp16, [32, 32, 3, 3]> model_2_m_0_m_0_cv2_conv_weight_to_fp16_palettized = constexpr_lut_to_dense()[indices = tensor<uint8, [9216]>(BLOBFILE(path = tensor<string, []>("@model_path/weights/weight.bin"), offset = tensor<uint64, []>(107456))), lut = tensor<fp16, [256]>(BLOBFILE(path = tensor<string, []>("@model_path/weights/weight.bin"), offset = tensor<uint64, []>(116736))), name = tensor<string, []>("model_2_m_0_m_0_cv2_conv_weight_to_fp16_palettized"), shape = tensor<uint32, [4]>([32, 32, 3, 3])];
            tensor<fp16, [32]> model_2_m_0_m_0_cv2_conv_bias_to_fp16 = const()[name = tensor<string, []>("model_2_m_0_m_0_cv2_conv_bias_to_fp16"), val = tensor<fp16, [32]>(BLOBFILE(path = tensor<string, []>("@model_path/weights/weight.bin"), offset = tensor<uint64, []>(117312)))];
            tensor<fp16, [1, 32, 160, 160]> input_21_cast_fp16 = conv(bias = model_2_m_0_m_0_cv2_conv_bias_to_fp16, dilations = input_21_dilations_0, groups = input_21_groups_0, pad = input_21_pad_0, pad_type = input_21_pad_type_0, strides = input_21_strides_0, weight = model_2_m_0_m_0_cv2_conv_weight_to_fp16_palettized, x = input_19_cast_fp16)[name = tensor<string, []>("input_21_cast_fp16")];
            tensor<fp16, [1, 32, 160, 160]> var_122_cast_fp16 = silu(x = input_21_cast_fp16)[name = tensor<string, []>("op_122_cast_fp16")];
            tensor<fp16, [1, 32, 160, 160]> input_23_cast_fp16 = add(x = input_15_cast_fp16, y = var_122_cast_fp16)[name = tensor<string, []>("input_23_cast_fp16")];
            tensor<string, []> input_25_pad_type_0 = const()[name = tensor<string, []>("input_25_pad_type_0"), val = tensor<string, []>("custom")];
            tensor<int32, [4]> input_25_pad_0 = const()[name = tensor<string, []>("input_25_pad_0"), val = tensor<int32, [4]>([1, 1, 1, 1])];
            tensor<int32, [2]> input_25_strides_0 = const()[name = tensor<string, []>("input_25_strides_0"), val = tensor<int32, [2]>([1, 1])];
            tensor<int32, [2]> input_25_dilations_0 = const()[name = tensor<string, []>("input_25_dilations_0"), val = tensor<int32, [2]>([1, 1])];
            tensor<int32, []> input_25_groups_0 = const()[name = tensor<string, []>("input_25_groups_0"), val = tensor<int32, []>(1)];
            tensor<fp16, [32, 32, 3, 3]> model_2_m_0_m_1_cv1_conv_weight_to_fp16_palettized = constexpr_lut_to_dense()[indices = tensor<uint8, [9216]>(BLOBFILE(path = tensor<string, []>("@model_path/weights/weight.bin"), offset = tensor<uint64, []>(117440))), lut = tensor<fp16, [256]>(BLOBFILE(path = tensor<string, []>("@model_path/weights/weight.bin"), offset = tensor<uint64, []>(126720))), name = tensor<string, []>("model_2_m_0_m_1_cv1_conv_weight_to_fp16_palettized"), shape = tensor<uint32, [4]>([32, 32, 3, 3])];
            tensor<fp16, [32]> model_2_m_0_m_1_cv1_conv_bias_to_fp16 = const()[name = tensor<string, []>("model_2_m_0_m_1_cv1_conv_bias_to_fp16"), val = tensor<fp16, [32]>(BLOBFILE(path = tensor<string, []>("@model_path/weights/weight.bin"), offset = tensor<uint64, []>(127296)))];
            tensor<fp16, [1, 32, 160, 160]> input_25_cast_fp16 = conv(bias = model_2_m_0_m_1_cv1_conv_bias_to_fp16, dilations = input_25_dilations_0, groups = input_25_groups_0, pad = input_25_pad_0, pad_type = input_25_pad_type_0, strides = input_25_strides_0, weight = model_2_m_0_m_1_cv1_conv_weight_to_fp16_palettized, x = input_23_cast_fp16)[name = tensor<string, []>("input_25_cast_fp16")];
            tensor<fp16, [1, 32, 160, 160]> input_27_cast_fp16 = silu(x = input_25_cast_fp16)[name = tensor<string, []>("input_27_cast_fp16")];
            tensor<string, []> input_29_pad_type_0 = const()[name = tensor<string, []>("input_29_pad_type_0"), val = tensor<string, []>("custom")];
            tensor<int32, [4]> input_29_pad_0 = const()[name = tensor<string, []>("input_29_pad_0"), val = tensor<int32, [4]>([1, 1, 1, 1])];
            tensor<int32, [2]> input_29_strides_0 = const()[name = tensor<string, []>("input_29_strides_0"), val = tensor<int32, [2]>([1, 1])];
            tensor<int32, [2]> input_29_dilations_0 = const()[name = tensor<string, []>("input_29_dilations_0"), val = tensor<int32, [2]>([1, 1])];
            tensor<int32, []> input_29_groups_0 = const()[name = tensor<string, []>("input_29_groups_0"), val = tensor<int32, []>(1)];
            tensor<fp16, [32, 32, 3, 3]> model_2_m_0_m_1_cv2_conv_weight_to_fp16_palettized = constexpr_lut_to_dense()[indices = tensor<uint8, [9216]>(BLOBFILE(path = tensor<string, []>("@model_path/weights/weight.bin"), offset = tensor<uint64, []>(127424))), lut = tensor<fp16, [256]>(BLOBFILE(path = tensor<string, []>("@model_path/weights/weight.bin"), offset = tensor<uint64, []>(136704))), name = tensor<string, []>("model_2_m_0_m_1_cv2_conv_weight_to_fp16_palettized"), shape = tensor<uint32, [4]>([32, 32, 3, 3])];
            tensor<fp16, [32]> model_2_m_0_m_1_cv2_conv_bias_to_fp16 = const()[name = tensor<string, []>("model_2_m_0_m_1_cv2_conv_bias_to_fp16"), val = tensor<fp16, [32]>(BLOBFILE(path = tensor<string, []>("@model_path/weights/weight.bin"), offset = tensor<uint64, []>(137280)))];
            tensor<fp16, [1, 32, 160, 160]> input_29_cast_fp16 = conv(bias = model_2_m_0_m_1_cv2_conv_bias_to_fp16, dilations = input_29_dilations_0, groups = input_29_groups_0, pad = input_29_pad_0, pad_type = input_29_pad_type_0, strides = input_29_strides_0, weight = model_2_m_0_m_1_cv2_conv_weight_to_fp16_palettized, x = input_27_cast_fp16)[name = tensor<string, []>("input_29_cast_fp16")];
            tensor<fp16, [1, 32, 160, 160]> var_143_cast_fp16 = silu(x = input_29_cast_fp16)[name = tensor<string, []>("op_143_cast_fp16")];
            tensor<fp16, [1, 32, 160, 160]> var_144_cast_fp16 = add(x = input_23_cast_fp16, y = var_143_cast_fp16)[name = tensor<string, []>("op_144_cast_fp16")];
            tensor<string, []> input_31_pad_type_0 = const()[name = tensor<string, []>("input_31_pad_type_0"), val = tensor<string, []>("valid")];
            tensor<int32, [2]> input_31_strides_0 = const()[name = tensor<string, []>("input_31_strides_0"), val = tensor<int32, [2]>([1, 1])];
            tensor<int32, [4]> input_31_pad_0 = const()[name = tensor<string, []>("input_31_pad_0"), val = tensor<int32, [4]>([0, 0, 0, 0])];
            tensor<int32, [2]> input_31_dilations_0 = const()[name = tensor<string, []>("input_31_dilations_0"), val = tensor<int32, [2]>([1, 1])];
            tensor<int32, []> input_31_groups_0 = const()[name = tensor<string, []>("input_31_groups_0"), val = tensor<int32, []>(1)];
            tensor<fp16, [32, 64, 1, 1]> model_2_m_0_cv2_conv_weight_to_fp16_palettized = constexpr_lut_to_dense()[indices = tensor<uint8, [2048]>(BLOBFILE(path = tensor<string, []>("@model_path/weights/weight.bin"), offset = tensor<uint64, []>(137408))), lut = tensor<fp16, [256]>(BLOBFILE(path = tensor<string, []>("@model_path/weights/weight.bin"), offset = tensor<uint64, []>(139520))), name = tensor<string, []>("model_2_m_0_cv2_conv_weight_to_fp16_palettized"), shape = tensor<uint32, [4]>([32, 64, 1, 1])];
            tensor<fp16, [32]> model_2_m_0_cv2_conv_bias_to_fp16 = const()[name = tensor<string, []>("model_2_m_0_cv2_conv_bias_to_fp16"), val = tensor<fp16, [32]>(BLOBFILE(path = tensor<string, []>("@model_path/weights/weight.bin"), offset = tensor<uint64, []>(140096)))];
            tensor<fp16, [1, 32, 160, 160]> input_31_cast_fp16 = conv(bias = model_2_m_0_cv2_conv_bias_to_fp16, dilations = input_31_dilations_0, groups = input_31_groups_0, pad = input_31_pad_0, pad_type = input_31_pad_type_0, strides = input_31_strides_0, weight = model_2_m_0_cv2_conv_weight_to_fp16_palettized, x = var_85_cast_fp16_1)[name = tensor<string, []>("input_31_cast_fp16")];
            tensor<fp16, [1, 32, 160, 160]> var_153_cast_fp16 = silu(x = input_31_cast_fp16)[name = tensor<string, []>("op_153_cast_fp16")];
            tensor<bool, []> input_33_interleave_0 = const()[name = tensor<string, []>("input_33_interleave_0"), val = tensor<bool, []>(false)];
            tensor<fp16, [1, 64, 160, 160]> input_33_cast_fp16 = concat(axis = var_70, interleave = input_33_interleave_0, values = (var_144_cast_fp16, var_153_cast_fp16))[name = tensor<string, []>("input_33_cast_fp16")];
            tensor<string, []> input_35_pad_type_0 = const()[name = tensor<string, []>("input_35_pad_type_0"), val = tensor<string, []>("valid")];
            tensor<int32, [2]> input_35_strides_0 = const()[name = tensor<string, []>("input_35_strides_0"), val = tensor<int32, [2]>([1, 1])];
            tensor<int32, [4]> input_35_pad_0 = const()[name = tensor<string, []>("input_35_pad_0"), val = tensor<int32, [4]>([0, 0, 0, 0])];
            tensor<int32, [2]> input_35_dilations_0 = const()[name = tensor<string, []>("input_35_dilations_0"), val = tensor<int32, [2]>([1, 1])];
            tensor<int32, []> input_35_groups_0 = const()[name = tensor<string, []>("input_35_groups_0"), val = tensor<int32, []>(1)];
            tensor<fp16, [64, 64, 1, 1]> model_2_m_0_cv3_conv_weight_to_fp16_palettized = constexpr_lut_to_dense()[indices = tensor<uint8, [4096]>(BLOBFILE(path = tensor<string, []>("@model_path/weights/weight.bin"), offset = tensor<uint64, []>(140224))), lut = tensor<fp16, [256]>(BLOBFILE(path = tensor<string, []>("@model_path/weights/weight.bin"), offset = tensor<uint64, []>(144384))), name = tensor<string, []>("model_2_m_0_cv3_conv_weight_to_fp16_palettized"), shape = tensor<uint32, [4]>([64, 64, 1, 1])];
            tensor<fp16, [64]> model_2_m_0_cv3_conv_bias_to_fp16 = const()[name = tensor<string, []>("model_2_m_0_cv3_conv_bias_to_fp16"), val = tensor<fp16, [64]>(BLOBFILE(path = tensor<string, []>("@model_path/weights/weight.bin"), offset = tensor<uint64, []>(144960)))];
            tensor<fp16, [1, 64, 160, 160]> input_35_cast_fp16 = conv(bias = model_2_m_0_cv3_conv_bias_to_fp16, dilations = input_35_dilations_0, groups = input_35_groups_0, pad = input_35_pad_0, pad_type = input_35_pad_type_0, strides = input_35_strides_0, weight = model_2_m_0_cv3_conv_weight_to_fp16_palettized, x = input_33_cast_fp16)[name = tensor<string, []>("input_35_cast_fp16")];
            tensor<fp16, [1, 64, 160, 160]> var_164_cast_fp16 = silu(x = input_35_cast_fp16)[name = tensor<string, []>("op_164_cast_fp16")];
            tensor<bool, []> input_37_interleave_0 = const()[name = tensor<string, []>("input_37_interleave_0"), val = tensor<bool, []>(false)];
            tensor<fp16, [1, 192, 160, 160]> input_37_cast_fp16 = concat(axis = var_70, interleave = input_37_interleave_0, values = (var_85_cast_fp16_0, var_85_cast_fp16_1, var_164_cast_fp16))[name = tensor<string, []>("input_37_cast_fp16")];
            tensor<string, []> input_39_pad_type_0 = const()[name = tensor<string, []>("input_39_pad_type_0"), val = tensor<string, []>("valid")];
            tensor<int32, [2]> input_39_strides_0 = const()[name = tensor<string, []>("input_39_strides_0"), val = tensor<int32, [2]>([1, 1])];
            tensor<int32, [4]> input_39_pad_0 = const()[name = tensor<string, []>("input_39_pad_0"), val = tensor<int32, [4]>([0, 0, 0, 0])];
            tensor<int32, [2]> input_39_dilations_0 = const()[name = tensor<string, []>("input_39_dilations_0"), val = tensor<int32, [2]>([1, 1])];
            tensor<int32, []> input_39_groups_0 = const()[name = tensor<string, []>("input_39_groups_0"), val = tensor<int32, []>(1)];
            tensor<fp16, [256, 192, 1, 1]> model_2_cv2_conv_weight_to_fp16_palettized = constexpr_lut_to_dense()[indices = tensor<uint8, [49152]>(BLOBFILE(path = tensor<string, []>("@model_path/weights/weight.bin"), offset = tensor<uint64, []>(145152))), lut = tensor<fp16, [256]>(BLOBFILE(path = tensor<string, []>("@model_path/weights/weight.bin"), offset = tensor<uint64, []>(194368))), name = tensor<string, []>("model_2_cv2_conv_weight_to_fp16_palettized"), shape = tensor<uint32, [4]>([256, 192, 1, 1])];
            tensor<fp16, [256]> model_2_cv2_conv_bias_to_fp16 = const()[name = tensor<string, []>("model_2_cv2_conv_bias_to_fp16"), val = tensor<fp16, [256]>(BLOBFILE(path = tensor<string, []>("@model_path/weights/weight.bin"), offset = tensor<uint64, []>(194944)))];
            tensor<fp16, [1, 256, 160, 160]> input_39_cast_fp16 = conv(bias = model_2_cv2_conv_bias_to_fp16, dilations = input_39_dilations_0, groups = input_39_groups_0, pad = input_39_pad_0, pad_type = input_39_pad_type_0, strides = input_39_strides_0, weight = model_2_cv2_conv_weight_to_fp16_palettized, x = input_37_cast_fp16)[name = tensor<string, []>("input_39_cast_fp16")];
            tensor<fp16, [1, 256, 160, 160]> input_41_cast_fp16 = silu(x = input_39_cast_fp16)[name = tensor<string, []>("input_41_cast_fp16")];
            tensor<string, []> input_43_pad_type_0 = const()[name = tensor<string, []>("input_43_pad_type_0"), val = tensor<string, []>("custom")];
            tensor<int32, [4]> input_43_pad_0 = const()[name = tensor<string, []>("input_43_pad_0"), val = tensor<int32, [4]>([1, 1, 1, 1])];
            tensor<int32, [2]> input_43_strides_0 = const()[name = tensor<string, []>("input_43_strides_0"), val = tensor<int32, [2]>([2, 2])];
            tensor<int32, [2]> input_43_dilations_0 = const()[name = tensor<string, []>("input_43_dilations_0"), val = tensor<int32, [2]>([1, 1])];
            tensor<int32, []> input_43_groups_0 = const()[name = tensor<string, []>("input_43_groups_0"), val = tensor<int32, []>(1)];
            tensor<fp16, [256, 256, 3, 3]> model_3_conv_weight_to_fp16_palettized = constexpr_lut_to_dense()[indices = tensor<uint8, [589824]>(BLOBFILE(path = tensor<string, []>("@model_path/weights/weight.bin"), offset = tensor<uint64, []>(195520))), lut = tensor<fp16, [256]>(BLOBFILE(path = tensor<string, []>("@model_path/weights/weight.bin"), offset = tensor<uint64, []>(785408))), name = tensor<string, []>("model_3_conv_weight_to_fp16_palettized"), shape = tensor<uint32, [4]>([256, 256, 3, 3])];
            tensor<fp16, [256]> model_3_conv_bias_to_fp16 = const()[name = tensor<string, []>("model_3_conv_bias_to_fp16"), val = tensor<fp16, [256]>(BLOBFILE(path = tensor<string, []>("@model_path/weights/weight.bin"), offset = tensor<uint64, []>(785984)))];
            tensor<fp16, [1, 256, 80, 80]> input_43_cast_fp16 = conv(bias = model_3_conv_bias_to_fp16, dilations = input_43_dilations_0, groups = input_43_groups_0, pad = input_43_pad_0, pad_type = input_43_pad_type_0, strides = input_43_strides_0, weight = model_3_conv_weight_to_fp16_palettized, x = input_41_cast_fp16)[name = tensor<string, []>("input_43_cast_fp16")];
            tensor<fp16, [1, 256, 80, 80]> input_45_cast_fp16 = silu(x = input_43_cast_fp16)[name = tensor<string, []>("input_45_cast_fp16")];
            tensor<int32, []> var_194 = const()[name = tensor<string, []>("op_194"), val = tensor<int32, []>(1)];
            tensor<string, []> input_47_pad_type_0 = const()[name = tensor<string, []>("input_47_pad_type_0"), val = tensor<string, []>("valid")];
            tensor<int32, [2]> input_47_strides_0 = const()[name = tensor<string, []>("input_47_strides_0"), val = tensor<int32, [2]>([1, 1])];
            tensor<int32, [4]> input_47_pad_0 = const()[name = tensor<string, []>("input_47_pad_0"), val = tensor<int32, [4]>([0, 0, 0, 0])];
            tensor<int32, [2]> input_47_dilations_0 = const()[name = tensor<string, []>("input_47_dilations_0"), val = tensor<int32, [2]>([1, 1])];
            tensor<int32, []> input_47_groups_0 = const()[name = tensor<string, []>("input_47_groups_0"), val = tensor<int32, []>(1)];
            tensor<fp16, [256, 256, 1, 1]> model_4_cv1_conv_weight_to_fp16_palettized = constexpr_lut_to_dense()[indices = tensor<uint8, [65536]>(BLOBFILE(path = tensor<string, []>("@model_path/weights/weight.bin"), offset = tensor<uint64, []>(786560))), lut = tensor<fp16, [256]>(BLOBFILE(path = tensor<string, []>("@model_path/weights/weight.bin"), offset = tensor<uint64, []>(852160))), name = tensor<string, []>("model_4_cv1_conv_weight_to_fp16_palettized"), shape = tensor<uint32, [4]>([256, 256, 1, 1])];
            tensor<fp16, [256]> model_4_cv1_conv_bias_to_fp16 = const()[name = tensor<string, []>("model_4_cv1_conv_bias_to_fp16"), val = tensor<fp16, [256]>(BLOBFILE(path = tensor<string, []>("@model_path/weights/weight.bin"), offset = tensor<uint64, []>(852736)))];
            tensor<fp16, [1, 256, 80, 80]> input_47_cast_fp16 = conv(bias = model_4_cv1_conv_bias_to_fp16, dilations = input_47_dilations_0, groups = input_47_groups_0, pad = input_47_pad_0, pad_type = input_47_pad_type_0, strides = input_47_strides_0, weight = model_4_cv1_conv_weight_to_fp16_palettized, x = input_45_cast_fp16)[name = tensor<string, []>("input_47_cast_fp16")];
            tensor<fp16, [1, 256, 80, 80]> var_207_cast_fp16 = silu(x = input_47_cast_fp16)[name = tensor<string, []>("op_207_cast_fp16")];
            tensor<int32, [2]> var_208 = const()[name = tensor<string, []>("op_208"), val = tensor<int32, [2]>([128, 128])];
            tensor<int32, []> var_209_axis_0 = const()[name = tensor<string, []>("op_209_axis_0"), val = tensor<int32, []>(1)];
            tensor<fp16, [1, 128, 80, 80]> var_209_cast_fp16_0, tensor<fp16, [1, 128, 80, 80]> var_209_cast_fp16_1 = split(axis = var_209_axis_0, split_sizes = var_208, x = var_207_cast_fp16)[name = tensor<string, []>("op_209_cast_fp16")];
            tensor<string, []> input_51_pad_type_0 = const()[name = tensor<string, []>("input_51_pad_type_0"), val = tensor<string, []>("valid")];
            tensor<int32, [2]> input_51_strides_0 = const()[name = tensor<string, []>("input_51_strides_0"), val = tensor<int32, [2]>([1, 1])];
            tensor<int32, [4]> input_51_pad_0 = const()[name = tensor<string, []>("input_51_pad_0"), val = tensor<int32, [4]>([0, 0, 0, 0])];
            tensor<int32, [2]> input_51_dilations_0 = const()[name = tensor<string, []>("input_51_dilations_0"), val = tensor<int32, [2]>([1, 1])];
            tensor<int32, []> input_51_groups_0 = const()[name = tensor<string, []>("input_51_groups_0"), val = tensor<int32, []>(1)];
            tensor<fp16, [64, 128, 1, 1]> model_4_m_0_cv1_conv_weight_to_fp16_palettized = constexpr_lut_to_dense()[indices = tensor<uint8, [8192]>(BLOBFILE(path = tensor<string, []>("@model_path/weights/weight.bin"), offset = tensor<uint64, []>(853312))), lut = tensor<fp16, [256]>(BLOBFILE(path = tensor<string, []>("@model_path/weights/weight.bin"), offset = tensor<uint64, []>(861568))), name = tensor<string, []>("model_4_m_0_cv1_conv_weight_to_fp16_palettized"), shape = tensor<uint32, [4]>([64, 128, 1, 1])];
            tensor<fp16, [64]> model_4_m_0_cv1_conv_bias_to_fp16 = const()[name = tensor<string, []>("model_4_m_0_cv1_conv_bias_to_fp16"), val = tensor<fp16, [64]>(BLOBFILE(path = tensor<string, []>("@model_path/weights/weight.bin"), offset = tensor<uint64, []>(862144)))];
            tensor<fp16, [1, 64, 80, 80]> input_51_cast_fp16 = conv(bias = model_4_m_0_cv1_conv_bias_to_fp16, dilations = input_51_dilations_0, groups = input_51_groups_0, pad = input_51_pad_0, pad_type = input_51_pad_type_0, strides = input_51_strides_0, weight = model_4_m_0_cv1_conv_weight_to_fp16_palettized, x = var_209_cast_fp16_1)[name = tensor<string, []>("input_51_cast_fp16")];
            tensor<fp16, [1, 64, 80, 80]> input_53_cast_fp16 = silu(x = input_51_cast_fp16)[name = tensor<string, []>("input_53_cast_fp16")];
            tensor<string, []> input_55_pad_type_0 = const()[name = tensor<string, []>("input_55_pad_type_0"), val = tensor<string, []>("custom")];
            tensor<int32, [4]> input_55_pad_0 = const()[name = tensor<string, []>("input_55_pad_0"), val = tensor<int32, [4]>([1, 1, 1, 1])];
            tensor<int32, [2]> input_55_strides_0 = const()[name = tensor<string, []>("input_55_strides_0"), val = tensor<int32, [2]>([1, 1])];
            tensor<int32, [2]> input_55_dilations_0 = const()[name = tensor<string, []>("input_55_dilations_0"), val = tensor<int32, [2]>([1, 1])];
            tensor<int32, []> input_55_groups_0 = const()[name = tensor<string, []>("input_55_groups_0"), val = tensor<int32, []>(1)];
            tensor<fp16, [64, 64, 3, 3]> model_4_m_0_m_0_cv1_conv_weight_to_fp16_palettized = constexpr_lut_to_dense()[indices = tensor<uint8, [36864]>(BLOBFILE(path = tensor<string, []>("@model_path/weights/weight.bin"), offset = tensor<uint64, []>(862336))), lut = tensor<fp16, [256]>(BLOBFILE(path = tensor<string, []>("@model_path/weights/weight.bin"), offset = tensor<uint64, []>(899264))), name = tensor<string, []>("model_4_m_0_m_0_cv1_conv_weight_to_fp16_palettized"), shape = tensor<uint32, [4]>([64, 64, 3, 3])];
            tensor<fp16, [64]> model_4_m_0_m_0_cv1_conv_bias_to_fp16 = const()[name = tensor<string, []>("model_4_m_0_m_0_cv1_conv_bias_to_fp16"), val = tensor<fp16, [64]>(BLOBFILE(path = tensor<string, []>("@model_path/weights/weight.bin"), offset = tensor<uint64, []>(899840)))];
            tensor<fp16, [1, 64, 80, 80]> input_55_cast_fp16 = conv(bias = model_4_m_0_m_0_cv1_conv_bias_to_fp16, dilations = input_55_dilations_0, groups = input_55_groups_0, pad = input_55_pad_0, pad_type = input_55_pad_type_0, strides = input_55_strides_0, weight = model_4_m_0_m_0_cv1_conv_weight_to_fp16_palettized, x = input_53_cast_fp16)[name = tensor<string, []>("input_55_cast_fp16")];
            tensor<fp16, [1, 64, 80, 80]> input_57_cast_fp16 = silu(x = input_55_cast_fp16)[name = tensor<string, []>("input_57_cast_fp16")];
            tensor<string, []> input_59_pad_type_0 = const()[name = tensor<string, []>("input_59_pad_type_0"), val = tensor<string, []>("custom")];
            tensor<int32, [4]> input_59_pad_0 = const()[name = tensor<string, []>("input_59_pad_0"), val = tensor<int32, [4]>([1, 1, 1, 1])];
            tensor<int32, [2]> input_59_strides_0 = const()[name = tensor<string, []>("input_59_strides_0"), val = tensor<int32, [2]>([1, 1])];
            tensor<int32, [2]> input_59_dilations_0 = const()[name = tensor<string, []>("input_59_dilations_0"), val = tensor<int32, [2]>([1, 1])];
            tensor<int32, []> input_59_groups_0 = const()[name = tensor<string, []>("input_59_groups_0"), val = tensor<int32, []>(1)];
            tensor<fp16, [64, 64, 3, 3]> model_4_m_0_m_0_cv2_conv_weight_to_fp16_palettized = constexpr_lut_to_dense()[indices = tensor<uint8, [36864]>(BLOBFILE(path = tensor<string, []>("@model_path/weights/weight.bin"), offset = tensor<uint64, []>(900032))), lut = tensor<fp16, [256]>(BLOBFILE(path = tensor<string, []>("@model_path/weights/weight.bin"), offset = tensor<uint64, []>(936960))), name = tensor<string, []>("model_4_m_0_m_0_cv2_conv_weight_to_fp16_palettized"), shape = tensor<uint32, [4]>([64, 64, 3, 3])];
            tensor<fp16, [64]> model_4_m_0_m_0_cv2_conv_bias_to_fp16 = const()[name = tensor<string, []>("model_4_m_0_m_0_cv2_conv_bias_to_fp16"), val = tensor<fp16, [64]>(BLOBFILE(path = tensor<string, []>("@model_path/weights/weight.bin"), offset = tensor<uint64, []>(937536)))];
            tensor<fp16, [1, 64, 80, 80]> input_59_cast_fp16 = conv(bias = model_4_m_0_m_0_cv2_conv_bias_to_fp16, dilations = input_59_dilations_0, groups = input_59_groups_0, pad = input_59_pad_0, pad_type = input_59_pad_type_0, strides = input_59_strides_0, weight = model_4_m_0_m_0_cv2_conv_weight_to_fp16_palettized, x = input_57_cast_fp16)[name = tensor<string, []>("input_59_cast_fp16")];
            tensor<fp16, [1, 64, 80, 80]> var_246_cast_fp16 = silu(x = input_59_cast_fp16)[name = tensor<string, []>("op_246_cast_fp16")];
            tensor<fp16, [1, 64, 80, 80]> input_61_cast_fp16 = add(x = input_53_cast_fp16, y = var_246_cast_fp16)[name = tensor<string, []>("input_61_cast_fp16")];
            tensor<string, []> input_63_pad_type_0 = const()[name = tensor<string, []>("input_63_pad_type_0"), val = tensor<string, []>("custom")];
            tensor<int32, [4]> input_63_pad_0 = const()[name = tensor<string, []>("input_63_pad_0"), val = tensor<int32, [4]>([1, 1, 1, 1])];
            tensor<int32, [2]> input_63_strides_0 = const()[name = tensor<string, []>("input_63_strides_0"), val = tensor<int32, [2]>([1, 1])];
            tensor<int32, [2]> input_63_dilations_0 = const()[name = tensor<string, []>("input_63_dilations_0"), val = tensor<int32, [2]>([1, 1])];
            tensor<int32, []> input_63_groups_0 = const()[name = tensor<string, []>("input_63_groups_0"), val = tensor<int32, []>(1)];
            tensor<fp16, [64, 64, 3, 3]> model_4_m_0_m_1_cv1_conv_weight_to_fp16_palettized = constexpr_lut_to_dense()[indices = tensor<uint8, [36864]>(BLOBFILE(path = tensor<string, []>("@model_path/weights/weight.bin"), offset = tensor<uint64, []>(937728))), lut = tensor<fp16, [256]>(BLOBFILE(path = tensor<string, []>("@model_path/weights/weight.bin"), offset = tensor<uint64, []>(974656))), name = tensor<string, []>("model_4_m_0_m_1_cv1_conv_weight_to_fp16_palettized"), shape = tensor<uint32, [4]>([64, 64, 3, 3])];
            tensor<fp16, [64]> model_4_m_0_m_1_cv1_conv_bias_to_fp16 = const()[name = tensor<string, []>("model_4_m_0_m_1_cv1_conv_bias_to_fp16"), val = tensor<fp16, [64]>(BLOBFILE(path = tensor<string, []>("@model_path/weights/weight.bin"), offset = tensor<uint64, []>(975232)))];
            tensor<fp16, [1, 64, 80, 80]> input_63_cast_fp16 = conv(bias = model_4_m_0_m_1_cv1_conv_bias_to_fp16, dilations = input_63_dilations_0, groups = input_63_groups_0, pad = input_63_pad_0, pad_type = input_63_pad_type_0, strides = input_63_strides_0, weight = model_4_m_0_m_1_cv1_conv_weight_to_fp16_palettized, x = input_61_cast_fp16)[name = tensor<string, []>("input_63_cast_fp16")];
            tensor<fp16, [1, 64, 80, 80]> input_65_cast_fp16 = silu(x = input_63_cast_fp16)[name = tensor<string, []>("input_65_cast_fp16")];
            tensor<string, []> input_67_pad_type_0 = const()[name = tensor<string, []>("input_67_pad_type_0"), val = tensor<string, []>("custom")];
            tensor<int32, [4]> input_67_pad_0 = const()[name = tensor<string, []>("input_67_pad_0"), val = tensor<int32, [4]>([1, 1, 1, 1])];
            tensor<int32, [2]> input_67_strides_0 = const()[name = tensor<string, []>("input_67_strides_0"), val = tensor<int32, [2]>([1, 1])];
            tensor<int32, [2]> input_67_dilations_0 = const()[name = tensor<string, []>("input_67_dilations_0"), val = tensor<int32, [2]>([1, 1])];
            tensor<int32, []> input_67_groups_0 = const()[name = tensor<string, []>("input_67_groups_0"), val = tensor<int32, []>(1)];
            tensor<fp16, [64, 64, 3, 3]> model_4_m_0_m_1_cv2_conv_weight_to_fp16_palettized = constexpr_lut_to_dense()[indices = tensor<uint8, [36864]>(BLOBFILE(path = tensor<string, []>("@model_path/weights/weight.bin"), offset = tensor<uint64, []>(975424))), lut = tensor<fp16, [256]>(BLOBFILE(path = tensor<string, []>("@model_path/weights/weight.bin"), offset = tensor<uint64, []>(1012352))), name = tensor<string, []>("model_4_m_0_m_1_cv2_conv_weight_to_fp16_palettized"), shape = tensor<uint32, [4]>([64, 64, 3, 3])];
            tensor<fp16, [64]> model_4_m_0_m_1_cv2_conv_bias_to_fp16 = const()[name = tensor<string, []>("model_4_m_0_m_1_cv2_conv_bias_to_fp16"), val = tensor<fp16, [64]>(BLOBFILE(path = tensor<string, []>("@model_path/weights/weight.bin"), offset = tensor<uint64, []>(1012928)))];
            tensor<fp16, [1, 64, 80, 80]> input_67_cast_fp16 = conv(bias = model_4_m_0_m_1_cv2_conv_bias_to_fp16, dilations = input_67_dilations_0, groups = input_67_groups_0, pad = input_67_pad_0, pad_type = input_67_pad_type_0, strides = input_67_strides_0, weight = model_4_m_0_m_1_cv2_conv_weight_to_fp16_palettized, x = input_65_cast_fp16)[name = tensor<string, []>("input_67_cast_fp16")];
            tensor<fp16, [1, 64, 80, 80]> var_267_cast_fp16 = silu(x = input_67_cast_fp16)[name = tensor<string, []>("op_267_cast_fp16")];
            tensor<fp16, [1, 64, 80, 80]> var_268_cast_fp16 = add(x = input_61_cast_fp16, y = var_267_cast_fp16)[name = tensor<string, []>("op_268_cast_fp16")];
            tensor<string, []> input_69_pad_type_0 = const()[name = tensor<string, []>("input_69_pad_type_0"), val = tensor<string, []>("valid")];
            tensor<int32, [2]> input_69_strides_0 = const()[name = tensor<string, []>("input_69_strides_0"), val = tensor<int32, [2]>([1, 1])];
            tensor<int32, [4]> input_69_pad_0 = const()[name = tensor<string, []>("input_69_pad_0"), val = tensor<int32, [4]>([0, 0, 0, 0])];
            tensor<int32, [2]> input_69_dilations_0 = const()[name = tensor<string, []>("input_69_dilations_0"), val = tensor<int32, [2]>([1, 1])];
            tensor<int32, []> input_69_groups_0 = const()[name = tensor<string, []>("input_69_groups_0"), val = tensor<int32, []>(1)];
            tensor<fp16, [64, 128, 1, 1]> model_4_m_0_cv2_conv_weight_to_fp16_palettized = constexpr_lut_to_dense()[indices = tensor<uint8, [8192]>(BLOBFILE(path = tensor<string, []>("@model_path/weights/weight.bin"), offset = tensor<uint64, []>(1013120))), lut = tensor<fp16, [256]>(BLOBFILE(path = tensor<string, []>("@model_path/weights/weight.bin"), offset = tensor<uint64, []>(1021376))), name = tensor<string, []>("model_4_m_0_cv2_conv_weight_to_fp16_palettized"), shape = tensor<uint32, [4]>([64, 128, 1, 1])];
            tensor<fp16, [64]> model_4_m_0_cv2_conv_bias_to_fp16 = const()[name = tensor<string, []>("model_4_m_0_cv2_conv_bias_to_fp16"), val = tensor<fp16, [64]>(BLOBFILE(path = tensor<string, []>("@model_path/weights/weight.bin"), offset = tensor<uint64, []>(1021952)))];
            tensor<fp16, [1, 64, 80, 80]> input_69_cast_fp16 = conv(bias = model_4_m_0_cv2_conv_bias_to_fp16, dilations = input_69_dilations_0, groups = input_69_groups_0, pad = input_69_pad_0, pad_type = input_69_pad_type_0, strides = input_69_strides_0, weight = model_4_m_0_cv2_conv_weight_to_fp16_palettized, x = var_209_cast_fp16_1)[name = tensor<string, []>("input_69_cast_fp16")];
            tensor<fp16, [1, 64, 80, 80]> var_277_cast_fp16 = silu(x = input_69_cast_fp16)[name = tensor<string, []>("op_277_cast_fp16")];
            tensor<bool, []> input_71_interleave_0 = const()[name = tensor<string, []>("input_71_interleave_0"), val = tensor<bool, []>(false)];
            tensor<fp16, [1, 128, 80, 80]> input_71_cast_fp16 = concat(axis = var_194, interleave = input_71_interleave_0, values = (var_268_cast_fp16, var_277_cast_fp16))[name = tensor<string, []>("input_71_cast_fp16")];
            tensor<string, []> input_73_pad_type_0 = const()[name = tensor<string, []>("input_73_pad_type_0"), val = tensor<string, []>("valid")];
            tensor<int32, [2]> input_73_strides_0 = const()[name = tensor<string, []>("input_73_strides_0"), val = tensor<int32, [2]>([1, 1])];
            tensor<int32, [4]> input_73_pad_0 = const()[name = tensor<string, []>("input_73_pad_0"), val = tensor<int32, [4]>([0, 0, 0, 0])];
            tensor<int32, [2]> input_73_dilations_0 = const()[name = tensor<string, []>("input_73_dilations_0"), val = tensor<int32, [2]>([1, 1])];
            tensor<int32, []> input_73_groups_0 = const()[name = tensor<string, []>("input_73_groups_0"), val = tensor<int32, []>(1)];
            tensor<fp16, [128, 128, 1, 1]> model_4_m_0_cv3_conv_weight_to_fp16_palettized = constexpr_lut_to_dense()[indices = tensor<uint8, [16384]>(BLOBFILE(path = tensor<string, []>("@model_path/weights/weight.bin"), offset = tensor<uint64, []>(1022144))), lut = tensor<fp16, [256]>(BLOBFILE(path = tensor<string, []>("@model_path/weights/weight.bin"), offset = tensor<uint64, []>(1038592))), name = tensor<string, []>("model_4_m_0_cv3_conv_weight_to_fp16_palettized"), shape = tensor<uint32, [4]>([128, 128, 1, 1])];
            tensor<fp16, [128]> model_4_m_0_cv3_conv_bias_to_fp16 = const()[name = tensor<string, []>("model_4_m_0_cv3_conv_bias_to_fp16"), val = tensor<fp16, [128]>(BLOBFILE(path = tensor<string, []>("@model_path/weights/weight.bin"), offset = tensor<uint64, []>(1039168)))];
            tensor<fp16, [1, 128, 80, 80]> input_73_cast_fp16 = conv(bias = model_4_m_0_cv3_conv_bias_to_fp16, dilations = input_73_dilations_0, groups = input_73_groups_0, pad = input_73_pad_0, pad_type = input_73_pad_type_0, strides = input_73_strides_0, weight = model_4_m_0_cv3_conv_weight_to_fp16_palettized, x = input_71_cast_fp16)[name = tensor<string, []>("input_73_cast_fp16")];
            tensor<fp16, [1, 128, 80, 80]> var_288_cast_fp16 = silu(x = input_73_cast_fp16)[name = tensor<string, []>("op_288_cast_fp16")];
            tensor<bool, []> input_75_interleave_0 = const()[name = tensor<string, []>("input_75_interleave_0"), val = tensor<bool, []>(false)];
            tensor<fp16, [1, 384, 80, 80]> input_75_cast_fp16 = concat(axis = var_194, interleave = input_75_interleave_0, values = (var_209_cast_fp16_0, var_209_cast_fp16_1, var_288_cast_fp16))[name = tensor<string, []>("input_75_cast_fp16")];
            tensor<string, []> input_77_pad_type_0 = const()[name = tensor<string, []>("input_77_pad_type_0"), val = tensor<string, []>("valid")];
            tensor<int32, [2]> input_77_strides_0 = const()[name = tensor<string, []>("input_77_strides_0"), val = tensor<int32, [2]>([1, 1])];
            tensor<int32, [4]> input_77_pad_0 = const()[name = tensor<string, []>("input_77_pad_0"), val = tensor<int32, [4]>([0, 0, 0, 0])];
            tensor<int32, [2]> input_77_dilations_0 = const()[name = tensor<string, []>("input_77_dilations_0"), val = tensor<int32, [2]>([1, 1])];
            tensor<int32, []> input_77_groups_0 = const()[name = tensor<string, []>("input_77_groups_0"), val = tensor<int32, []>(1)];
            tensor<fp16, [512, 384, 1, 1]> model_4_cv2_conv_weight_to_fp16_palettized = constexpr_lut_to_dense()[indices = tensor<uint8, [196608]>(BLOBFILE(path = tensor<string, []>("@model_path/weights/weight.bin"), offset = tensor<uint64, []>(1039488))), lut = tensor<fp16, [256]>(BLOBFILE(path = tensor<string, []>("@model_path/weights/weight.bin"), offset = tensor<uint64, []>(1236160))), name = tensor<string, []>("model_4_cv2_conv_weight_to_fp16_palettized"), shape = tensor<uint32, [4]>([512, 384, 1, 1])];
            tensor<fp16, [512]> model_4_cv2_conv_bias_to_fp16 = const()[name = tensor<string, []>("model_4_cv2_conv_bias_to_fp16"), val = tensor<fp16, [512]>(BLOBFILE(path = tensor<string, []>("@model_path/weights/weight.bin"), offset = tensor<uint64, []>(1236736)))];
            tensor<fp16, [1, 512, 80, 80]> input_77_cast_fp16 = conv(bias = model_4_cv2_conv_bias_to_fp16, dilations = input_77_dilations_0, groups = input_77_groups_0, pad = input_77_pad_0, pad_type = input_77_pad_type_0, strides = input_77_strides_0, weight = model_4_cv2_conv_weight_to_fp16_palettized, x = input_75_cast_fp16)[name = tensor<string, []>("input_77_cast_fp16")];
            tensor<fp16, [1, 512, 80, 80]> input_79_cast_fp16 = silu(x = input_77_cast_fp16)[name = tensor<string, []>("input_79_cast_fp16")];
            tensor<string, []> input_81_pad_type_0 = const()[name = tensor<string, []>("input_81_pad_type_0"), val = tensor<string, []>("custom")];
            tensor<int32, [4]> input_81_pad_0 = const()[name = tensor<string, []>("input_81_pad_0"), val = tensor<int32, [4]>([1, 1, 1, 1])];
            tensor<int32, [2]> input_81_strides_0 = const()[name = tensor<string, []>("input_81_strides_0"), val = tensor<int32, [2]>([2, 2])];
            tensor<int32, [2]> input_81_dilations_0 = const()[name = tensor<string, []>("input_81_dilations_0"), val = tensor<int32, [2]>([1, 1])];
            tensor<int32, []> input_81_groups_0 = const()[name = tensor<string, []>("input_81_groups_0"), val = tensor<int32, []>(1)];
            tensor<fp16, [512, 512, 3, 3]> model_5_conv_weight_to_fp16_palettized = constexpr_lut_to_dense()[indices = tensor<uint8, [2359296]>(BLOBFILE(path = tensor<string, []>("@model_path/weights/weight.bin"), offset = tensor<uint64, []>(1237824))), lut = tensor<fp16, [256]>(BLOBFILE(path = tensor<string, []>("@model_path/weights/weight.bin"), offset = tensor<uint64, []>(3597184))), name = tensor<string, []>("model_5_conv_weight_to_fp16_palettized"), shape = tensor<uint32, [4]>([512, 512, 3, 3])];
            tensor<fp16, [512]> model_5_conv_bias_to_fp16 = const()[name = tensor<string, []>("model_5_conv_bias_to_fp16"), val = tensor<fp16, [512]>(BLOBFILE(path = tensor<string, []>("@model_path/weights/weight.bin"), offset = tensor<uint64, []>(3597760)))];
            tensor<fp16, [1, 512, 40, 40]> input_81_cast_fp16 = conv(bias = model_5_conv_bias_to_fp16, dilations = input_81_dilations_0, groups = input_81_groups_0, pad = input_81_pad_0, pad_type = input_81_pad_type_0, strides = input_81_strides_0, weight = model_5_conv_weight_to_fp16_palettized, x = input_79_cast_fp16)[name = tensor<string, []>("input_81_cast_fp16")];
            tensor<fp16, [1, 512, 40, 40]> input_83_cast_fp16 = silu(x = input_81_cast_fp16)[name = tensor<string, []>("input_83_cast_fp16")];
            tensor<int32, []> var_318 = const()[name = tensor<string, []>("op_318"), val = tensor<int32, []>(1)];
            tensor<string, []> input_85_pad_type_0 = const()[name = tensor<string, []>("input_85_pad_type_0"), val = tensor<string, []>("valid")];
            tensor<int32, [2]> input_85_strides_0 = const()[name = tensor<string, []>("input_85_strides_0"), val = tensor<int32, [2]>([1, 1])];
            tensor<int32, [4]> input_85_pad_0 = const()[name = tensor<string, []>("input_85_pad_0"), val = tensor<int32, [4]>([0, 0, 0, 0])];
            tensor<int32, [2]> input_85_dilations_0 = const()[name = tensor<string, []>("input_85_dilations_0"), val = tensor<int32, [2]>([1, 1])];
            tensor<int32, []> input_85_groups_0 = const()[name = tensor<string, []>("input_85_groups_0"), val = tensor<int32, []>(1)];
            tensor<fp16, [512, 512, 1, 1]> model_6_cv1_conv_weight_to_fp16_palettized = constexpr_lut_to_dense()[indices = tensor<uint8, [262144]>(BLOBFILE(path = tensor<string, []>("@model_path/weights/weight.bin"), offset = tensor<uint64, []>(3598848))), lut = tensor<fp16, [256]>(BLOBFILE(path = tensor<string, []>("@model_path/weights/weight.bin"), offset = tensor<uint64, []>(3861056))), name = tensor<string, []>("model_6_cv1_conv_weight_to_fp16_palettized"), shape = tensor<uint32, [4]>([512, 512, 1, 1])];
            tensor<fp16, [512]> model_6_cv1_conv_bias_to_fp16 = const()[name = tensor<string, []>("model_6_cv1_conv_bias_to_fp16"), val = tensor<fp16, [512]>(BLOBFILE(path = tensor<string, []>("@model_path/weights/weight.bin"), offset = tensor<uint64, []>(3861632)))];
            tensor<fp16, [1, 512, 40, 40]> input_85_cast_fp16 = conv(bias = model_6_cv1_conv_bias_to_fp16, dilations = input_85_dilations_0, groups = input_85_groups_0, pad = input_85_pad_0, pad_type = input_85_pad_type_0, strides = input_85_strides_0, weight = model_6_cv1_conv_weight_to_fp16_palettized, x = input_83_cast_fp16)[name = tensor<string, []>("input_85_cast_fp16")];
            tensor<fp16, [1, 512, 40, 40]> var_331_cast_fp16 = silu(x = input_85_cast_fp16)[name = tensor<string, []>("op_331_cast_fp16")];
            tensor<int32, [2]> var_332 = const()[name = tensor<string, []>("op_332"), val = tensor<int32, [2]>([256, 256])];
            tensor<int32, []> var_333_axis_0 = const()[name = tensor<string, []>("op_333_axis_0"), val = tensor<int32, []>(1)];
            tensor<fp16, [1, 256, 40, 40]> var_333_cast_fp16_0, tensor<fp16, [1, 256, 40, 40]> var_333_cast_fp16_1 = split(axis = var_333_axis_0, split_sizes = var_332, x = var_331_cast_fp16)[name = tensor<string, []>("op_333_cast_fp16")];
            tensor<string, []> input_89_pad_type_0 = const()[name = tensor<string, []>("input_89_pad_type_0"), val = tensor<string, []>("valid")];
            tensor<int32, [2]> input_89_strides_0 = const()[name = tensor<string, []>("input_89_strides_0"), val = tensor<int32, [2]>([1, 1])];
            tensor<int32, [4]> input_89_pad_0 = const()[name = tensor<string, []>("input_89_pad_0"), val = tensor<int32, [4]>([0, 0, 0, 0])];
            tensor<int32, [2]> input_89_dilations_0 = const()[name = tensor<string, []>("input_89_dilations_0"), val = tensor<int32, [2]>([1, 1])];
            tensor<int32, []> input_89_groups_0 = const()[name = tensor<string, []>("input_89_groups_0"), val = tensor<int32, []>(1)];
            tensor<fp16, [128, 256, 1, 1]> model_6_m_0_cv1_conv_weight_to_fp16_palettized = constexpr_lut_to_dense()[indices = tensor<uint8, [32768]>(BLOBFILE(path = tensor<string, []>("@model_path/weights/weight.bin"), offset = tensor<uint64, []>(3862720))), lut = tensor<fp16, [256]>(BLOBFILE(path = tensor<string, []>("@model_path/weights/weight.bin"), offset = tensor<uint64, []>(3895552))), name = tensor<string, []>("model_6_m_0_cv1_conv_weight_to_fp16_palettized"), shape = tensor<uint32, [4]>([128, 256, 1, 1])];
            tensor<fp16, [128]> model_6_m_0_cv1_conv_bias_to_fp16 = const()[name = tensor<string, []>("model_6_m_0_cv1_conv_bias_to_fp16"), val = tensor<fp16, [128]>(BLOBFILE(path = tensor<string, []>("@model_path/weights/weight.bin"), offset = tensor<uint64, []>(3896128)))];
            tensor<fp16, [1, 128, 40, 40]> input_89_cast_fp16 = conv(bias = model_6_m_0_cv1_conv_bias_to_fp16, dilations = input_89_dilations_0, groups = input_89_groups_0, pad = input_89_pad_0, pad_type = input_89_pad_type_0, strides = input_89_strides_0, weight = model_6_m_0_cv1_conv_weight_to_fp16_palettized, x = var_333_cast_fp16_1)[name = tensor<string, []>("input_89_cast_fp16")];
            tensor<fp16, [1, 128, 40, 40]> input_91_cast_fp16 = silu(x = input_89_cast_fp16)[name = tensor<string, []>("input_91_cast_fp16")];
            tensor<string, []> input_93_pad_type_0 = const()[name = tensor<string, []>("input_93_pad_type_0"), val = tensor<string, []>("custom")];
            tensor<int32, [4]> input_93_pad_0 = const()[name = tensor<string, []>("input_93_pad_0"), val = tensor<int32, [4]>([1, 1, 1, 1])];
            tensor<int32, [2]> input_93_strides_0 = const()[name = tensor<string, []>("input_93_strides_0"), val = tensor<int32, [2]>([1, 1])];
            tensor<int32, [2]> input_93_dilations_0 = const()[name = tensor<string, []>("input_93_dilations_0"), val = tensor<int32, [2]>([1, 1])];
            tensor<int32, []> input_93_groups_0 = const()[name = tensor<string, []>("input_93_groups_0"), val = tensor<int32, []>(1)];
            tensor<fp16, [128, 128, 3, 3]> model_6_m_0_m_0_cv1_conv_weight_to_fp16_palettized = constexpr_lut_to_dense()[indices = tensor<uint8, [147456]>(BLOBFILE(path = tensor<string, []>("@model_path/weights/weight.bin"), offset = tensor<uint64, []>(3896448))), lut = tensor<fp16, [256]>(BLOBFILE(path = tensor<string, []>("@model_path/weights/weight.bin"), offset = tensor<uint64, []>(4043968))), name = tensor<string, []>("model_6_m_0_m_0_cv1_conv_weight_to_fp16_palettized"), shape = tensor<uint32, [4]>([128, 128, 3, 3])];
            tensor<fp16, [128]> model_6_m_0_m_0_cv1_conv_bias_to_fp16 = const()[name = tensor<string, []>("model_6_m_0_m_0_cv1_conv_bias_to_fp16"), val = tensor<fp16, [128]>(BLOBFILE(path = tensor<string, []>("@model_path/weights/weight.bin"), offset = tensor<uint64, []>(4044544)))];
            tensor<fp16, [1, 128, 40, 40]> input_93_cast_fp16 = conv(bias = model_6_m_0_m_0_cv1_conv_bias_to_fp16, dilations = input_93_dilations_0, groups = input_93_groups_0, pad = input_93_pad_0, pad_type = input_93_pad_type_0, strides = input_93_strides_0, weight = model_6_m_0_m_0_cv1_conv_weight_to_fp16_palettized, x = input_91_cast_fp16)[name = tensor<string, []>("input_93_cast_fp16")];
            tensor<fp16, [1, 128, 40, 40]> input_95_cast_fp16 = silu(x = input_93_cast_fp16)[name = tensor<string, []>("input_95_cast_fp16")];
            tensor<string, []> input_97_pad_type_0 = const()[name = tensor<string, []>("input_97_pad_type_0"), val = tensor<string, []>("custom")];
            tensor<int32, [4]> input_97_pad_0 = const()[name = tensor<string, []>("input_97_pad_0"), val = tensor<int32, [4]>([1, 1, 1, 1])];
            tensor<int32, [2]> input_97_strides_0 = const()[name = tensor<string, []>("input_97_strides_0"), val = tensor<int32, [2]>([1, 1])];
            tensor<int32, [2]> input_97_dilations_0 = const()[name = tensor<string, []>("input_97_dilations_0"), val = tensor<int32, [2]>([1, 1])];
            tensor<int32, []> input_97_groups_0 = const()[name = tensor<string, []>("input_97_groups_0"), val = tensor<int32, []>(1)];
            tensor<fp16, [128, 128, 3, 3]> model_6_m_0_m_0_cv2_conv_weight_to_fp16_palettized = constexpr_lut_to_dense()[indices = tensor<uint8, [147456]>(BLOBFILE(path = tensor<string, []>("@model_path/weights/weight.bin"), offset = tensor<uint64, []>(4044864))), lut = tensor<fp16, [256]>(BLOBFILE(path = tensor<string, []>("@model_path/weights/weight.bin"), offset = tensor<uint64, []>(4192384))), name = tensor<string, []>("model_6_m_0_m_0_cv2_conv_weight_to_fp16_palettized"), shape = tensor<uint32, [4]>([128, 128, 3, 3])];
            tensor<fp16, [128]> model_6_m_0_m_0_cv2_conv_bias_to_fp16 = const()[name = tensor<string, []>("model_6_m_0_m_0_cv2_conv_bias_to_fp16"), val = tensor<fp16, [128]>(BLOBFILE(path = tensor<string, []>("@model_path/weights/weight.bin"), offset = tensor<uint64, []>(4192960)))];
            tensor<fp16, [1, 128, 40, 40]> input_97_cast_fp16 = conv(bias = model_6_m_0_m_0_cv2_conv_bias_to_fp16, dilations = input_97_dilations_0, groups = input_97_groups_0, pad = input_97_pad_0, pad_type = input_97_pad_type_0, strides = input_97_strides_0, weight = model_6_m_0_m_0_cv2_conv_weight_to_fp16_palettized, x = input_95_cast_fp16)[name = tensor<string, []>("input_97_cast_fp16")];
            tensor<fp16, [1, 128, 40, 40]> var_370_cast_fp16 = silu(x = input_97_cast_fp16)[name = tensor<string, []>("op_370_cast_fp16")];
            tensor<fp16, [1, 128, 40, 40]> input_99_cast_fp16 = add(x = input_91_cast_fp16, y = var_370_cast_fp16)[name = tensor<string, []>("input_99_cast_fp16")];
            tensor<string, []> input_101_pad_type_0 = const()[name = tensor<string, []>("input_101_pad_type_0"), val = tensor<string, []>("custom")];
            tensor<int32, [4]> input_101_pad_0 = const()[name = tensor<string, []>("input_101_pad_0"), val = tensor<int32, [4]>([1, 1, 1, 1])];
            tensor<int32, [2]> input_101_strides_0 = const()[name = tensor<string, []>("input_101_strides_0"), val = tensor<int32, [2]>([1, 1])];
            tensor<int32, [2]> input_101_dilations_0 = const()[name = tensor<string, []>("input_101_dilations_0"), val = tensor<int32, [2]>([1, 1])];
            tensor<int32, []> input_101_groups_0 = const()[name = tensor<string, []>("input_101_groups_0"), val = tensor<int32, []>(1)];
            tensor<fp16, [128, 128, 3, 3]> model_6_m_0_m_1_cv1_conv_weight_to_fp16_palettized = constexpr_lut_to_dense()[indices = tensor<uint8, [147456]>(BLOBFILE(path = tensor<string, []>("@model_path/weights/weight.bin"), offset = tensor<uint64, []>(4193280))), lut = tensor<fp16, [256]>(BLOBFILE(path = tensor<string, []>("@model_path/weights/weight.bin"), offset = tensor<uint64, []>(4340800))), name = tensor<string, []>("model_6_m_0_m_1_cv1_conv_weight_to_fp16_palettized"), shape = tensor<uint32, [4]>([128, 128, 3, 3])];
            tensor<fp16, [128]> model_6_m_0_m_1_cv1_conv_bias_to_fp16 = const()[name = tensor<string, []>("model_6_m_0_m_1_cv1_conv_bias_to_fp16"), val = tensor<fp16, [128]>(BLOBFILE(path = tensor<string, []>("@model_path/weights/weight.bin"), offset = tensor<uint64, []>(4341376)))];
            tensor<fp16, [1, 128, 40, 40]> input_101_cast_fp16 = conv(bias = model_6_m_0_m_1_cv1_conv_bias_to_fp16, dilations = input_101_dilations_0, groups = input_101_groups_0, pad = input_101_pad_0, pad_type = input_101_pad_type_0, strides = input_101_strides_0, weight = model_6_m_0_m_1_cv1_conv_weight_to_fp16_palettized, x = input_99_cast_fp16)[name = tensor<string, []>("input_101_cast_fp16")];
            tensor<fp16, [1, 128, 40, 40]> input_103_cast_fp16 = silu(x = input_101_cast_fp16)[name = tensor<string, []>("input_103_cast_fp16")];
            tensor<string, []> input_105_pad_type_0 = const()[name = tensor<string, []>("input_105_pad_type_0"), val = tensor<string, []>("custom")];
            tensor<int32, [4]> input_105_pad_0 = const()[name = tensor<string, []>("input_105_pad_0"), val = tensor<int32, [4]>([1, 1, 1, 1])];
            tensor<int32, [2]> input_105_strides_0 = const()[name = tensor<string, []>("input_105_strides_0"), val = tensor<int32, [2]>([1, 1])];
            tensor<int32, [2]> input_105_dilations_0 = const()[name = tensor<string, []>("input_105_dilations_0"), val = tensor<int32, [2]>([1, 1])];
            tensor<int32, []> input_105_groups_0 = const()[name = tensor<string, []>("input_105_groups_0"), val = tensor<int32, []>(1)];
            tensor<fp16, [128, 128, 3, 3]> model_6_m_0_m_1_cv2_conv_weight_to_fp16_palettized = constexpr_lut_to_dense()[indices = tensor<uint8, [147456]>(BLOBFILE(path = tensor<string, []>("@model_path/weights/weight.bin"), offset = tensor<uint64, []>(4341696))), lut = tensor<fp16, [256]>(BLOBFILE(path = tensor<string, []>("@model_path/weights/weight.bin"), offset = tensor<uint64, []>(4489216))), name = tensor<string, []>("model_6_m_0_m_1_cv2_conv_weight_to_fp16_palettized"), shape = tensor<uint32, [4]>([128, 128, 3, 3])];
            tensor<fp16, [128]> model_6_m_0_m_1_cv2_conv_bias_to_fp16 = const()[name = tensor<string, []>("model_6_m_0_m_1_cv2_conv_bias_to_fp16"), val = tensor<fp16, [128]>(BLOBFILE(path = tensor<string, []>("@model_path/weights/weight.bin"), offset = tensor<uint64, []>(4489792)))];
            tensor<fp16, [1, 128, 40, 40]> input_105_cast_fp16 = conv(bias = model_6_m_0_m_1_cv2_conv_bias_to_fp16, dilations = input_105_dilations_0, groups = input_105_groups_0, pad = input_105_pad_0, pad_type = input_105_pad_type_0, strides = input_105_strides_0, weight = model_6_m_0_m_1_cv2_conv_weight_to_fp16_palettized, x = input_103_cast_fp16)[name = tensor<string, []>("input_105_cast_fp16")];
            tensor<fp16, [1, 128, 40, 40]> var_391_cast_fp16 = silu(x = input_105_cast_fp16)[name = tensor<string, []>("op_391_cast_fp16")];
            tensor<fp16, [1, 128, 40, 40]> var_392_cast_fp16 = add(x = input_99_cast_fp16, y = var_391_cast_fp16)[name = tensor<string, []>("op_392_cast_fp16")];
            tensor<string, []> input_107_pad_type_0 = const()[name = tensor<string, []>("input_107_pad_type_0"), val = tensor<string, []>("valid")];
            tensor<int32, [2]> input_107_strides_0 = const()[name = tensor<string, []>("input_107_strides_0"), val = tensor<int32, [2]>([1, 1])];
            tensor<int32, [4]> input_107_pad_0 = const()[name = tensor<string, []>("input_107_pad_0"), val = tensor<int32, [4]>([0, 0, 0, 0])];
            tensor<int32, [2]> input_107_dilations_0 = const()[name = tensor<string, []>("input_107_dilations_0"), val = tensor<int32, [2]>([1, 1])];
            tensor<int32, []> input_107_groups_0 = const()[name = tensor<string, []>("input_107_groups_0"), val = tensor<int32, []>(1)];
            tensor<fp16, [128, 256, 1, 1]> model_6_m_0_cv2_conv_weight_to_fp16_palettized = constexpr_lut_to_dense()[indices = tensor<uint8, [32768]>(BLOBFILE(path = tensor<string, []>("@model_path/weights/weight.bin"), offset = tensor<uint64, []>(4490112))), lut = tensor<fp16, [256]>(BLOBFILE(path = tensor<string, []>("@model_path/weights/weight.bin"), offset = tensor<uint64, []>(4522944))), name = tensor<string, []>("model_6_m_0_cv2_conv_weight_to_fp16_palettized"), shape = tensor<uint32, [4]>([128, 256, 1, 1])];
            tensor<fp16, [128]> model_6_m_0_cv2_conv_bias_to_fp16 = const()[name = tensor<string, []>("model_6_m_0_cv2_conv_bias_to_fp16"), val = tensor<fp16, [128]>(BLOBFILE(path = tensor<string, []>("@model_path/weights/weight.bin"), offset = tensor<uint64, []>(4523520)))];
            tensor<fp16, [1, 128, 40, 40]> input_107_cast_fp16 = conv(bias = model_6_m_0_cv2_conv_bias_to_fp16, dilations = input_107_dilations_0, groups = input_107_groups_0, pad = input_107_pad_0, pad_type = input_107_pad_type_0, strides = input_107_strides_0, weight = model_6_m_0_cv2_conv_weight_to_fp16_palettized, x = var_333_cast_fp16_1)[name = tensor<string, []>("input_107_cast_fp16")];
            tensor<fp16, [1, 128, 40, 40]> var_401_cast_fp16 = silu(x = input_107_cast_fp16)[name = tensor<string, []>("op_401_cast_fp16")];
            tensor<bool, []> input_109_interleave_0 = const()[name = tensor<string, []>("input_109_interleave_0"), val = tensor<bool, []>(false)];
            tensor<fp16, [1, 256, 40, 40]> input_109_cast_fp16 = concat(axis = var_318, interleave = input_109_interleave_0, values = (var_392_cast_fp16, var_401_cast_fp16))[name = tensor<string, []>("input_109_cast_fp16")];
            tensor<string, []> input_111_pad_type_0 = const()[name = tensor<string, []>("input_111_pad_type_0"), val = tensor<string, []>("valid")];
            tensor<int32, [2]> input_111_strides_0 = const()[name = tensor<string, []>("input_111_strides_0"), val = tensor<int32, [2]>([1, 1])];
            tensor<int32, [4]> input_111_pad_0 = const()[name = tensor<string, []>("input_111_pad_0"), val = tensor<int32, [4]>([0, 0, 0, 0])];
            tensor<int32, [2]> input_111_dilations_0 = const()[name = tensor<string, []>("input_111_dilations_0"), val = tensor<int32, [2]>([1, 1])];
            tensor<int32, []> input_111_groups_0 = const()[name = tensor<string, []>("input_111_groups_0"), val = tensor<int32, []>(1)];
            tensor<fp16, [256, 256, 1, 1]> model_6_m_0_cv3_conv_weight_to_fp16_palettized = constexpr_lut_to_dense()[indices = tensor<uint8, [65536]>(BLOBFILE(path = tensor<string, []>("@model_path/weights/weight.bin"), offset = tensor<uint64, []>(4523840))), lut = tensor<fp16, [256]>(BLOBFILE(path = tensor<string, []>("@model_path/weights/weight.bin"), offset = tensor<uint64, []>(4589440))), name = tensor<string, []>("model_6_m_0_cv3_conv_weight_to_fp16_palettized"), shape = tensor<uint32, [4]>([256, 256, 1, 1])];
            tensor<fp16, [256]> model_6_m_0_cv3_conv_bias_to_fp16 = const()[name = tensor<string, []>("model_6_m_0_cv3_conv_bias_to_fp16"), val = tensor<fp16, [256]>(BLOBFILE(path = tensor<string, []>("@model_path/weights/weight.bin"), offset = tensor<uint64, []>(4590016)))];
            tensor<fp16, [1, 256, 40, 40]> input_111_cast_fp16 = conv(bias = model_6_m_0_cv3_conv_bias_to_fp16, dilations = input_111_dilations_0, groups = input_111_groups_0, pad = input_111_pad_0, pad_type = input_111_pad_type_0, strides = input_111_strides_0, weight = model_6_m_0_cv3_conv_weight_to_fp16_palettized, x = input_109_cast_fp16)[name = tensor<string, []>("input_111_cast_fp16")];
            tensor<fp16, [1, 256, 40, 40]> var_412_cast_fp16 = silu(x = input_111_cast_fp16)[name = tensor<string, []>("op_412_cast_fp16")];
            tensor<bool, []> input_113_interleave_0 = const()[name = tensor<string, []>("input_113_interleave_0"), val = tensor<bool, []>(false)];
            tensor<fp16, [1, 768, 40, 40]> input_113_cast_fp16 = concat(axis = var_318, interleave = input_113_interleave_0, values = (var_333_cast_fp16_0, var_333_cast_fp16_1, var_412_cast_fp16))[name = tensor<string, []>("input_113_cast_fp16")];
            tensor<string, []> input_115_pad_type_0 = const()[name = tensor<string, []>("input_115_pad_type_0"), val = tensor<string, []>("valid")];
            tensor<int32, [2]> input_115_strides_0 = const()[name = tensor<string, []>("input_115_strides_0"), val = tensor<int32, [2]>([1, 1])];
            tensor<int32, [4]> input_115_pad_0 = const()[name = tensor<string, []>("input_115_pad_0"), val = tensor<int32, [4]>([0, 0, 0, 0])];
            tensor<int32, [2]> input_115_dilations_0 = const()[name = tensor<string, []>("input_115_dilations_0"), val = tensor<int32, [2]>([1, 1])];
            tensor<int32, []> input_115_groups_0 = const()[name = tensor<string, []>("input_115_groups_0"), val = tensor<int32, []>(1)];
            tensor<fp16, [512, 768, 1, 1]> model_6_cv2_conv_weight_to_fp16_palettized = constexpr_lut_to_dense()[indices = tensor<uint8, [393216]>(BLOBFILE(path = tensor<string, []>("@model_path/weights/weight.bin"), offset = tensor<uint64, []>(4590592))), lut = tensor<fp16, [256]>(BLOBFILE(path = tensor<string, []>("@model_path/weights/weight.bin"), offset = tensor<uint64, []>(4983872))), name = tensor<string, []>("model_6_cv2_conv_weight_to_fp16_palettized"), shape = tensor<uint32, [4]>([512, 768, 1, 1])];
            tensor<fp16, [512]> model_6_cv2_conv_bias_to_fp16 = const()[name = tensor<string, []>("model_6_cv2_conv_bias_to_fp16"), val = tensor<fp16, [512]>(BLOBFILE(path = tensor<string, []>("@model_path/weights/weight.bin"), offset = tensor<uint64, []>(4984448)))];
            tensor<fp16, [1, 512, 40, 40]> input_115_cast_fp16 = conv(bias = model_6_cv2_conv_bias_to_fp16, dilations = input_115_dilations_0, groups = input_115_groups_0, pad = input_115_pad_0, pad_type = input_115_pad_type_0, strides = input_115_strides_0, weight = model_6_cv2_conv_weight_to_fp16_palettized, x = input_113_cast_fp16)[name = tensor<string, []>("input_115_cast_fp16")];
            tensor<fp16, [1, 512, 40, 40]> input_117_cast_fp16 = silu(x = input_115_cast_fp16)[name = tensor<string, []>("input_117_cast_fp16")];
            tensor<string, []> input_119_pad_type_0 = const()[name = tensor<string, []>("input_119_pad_type_0"), val = tensor<string, []>("custom")];
            tensor<int32, [4]> input_119_pad_0 = const()[name = tensor<string, []>("input_119_pad_0"), val = tensor<int32, [4]>([1, 1, 1, 1])];
            tensor<int32, [2]> input_119_strides_0 = const()[name = tensor<string, []>("input_119_strides_0"), val = tensor<int32, [2]>([2, 2])];
            tensor<int32, [2]> input_119_dilations_0 = const()[name = tensor<string, []>("input_119_dilations_0"), val = tensor<int32, [2]>([1, 1])];
            tensor<int32, []> input_119_groups_0 = const()[name = tensor<string, []>("input_119_groups_0"), val = tensor<int32, []>(1)];
            tensor<fp16, [512, 512, 3, 3]> model_7_conv_weight_to_fp16_palettized = constexpr_lut_to_dense()[indices = tensor<uint8, [2359296]>(BLOBFILE(path = tensor<string, []>("@model_path/weights/weight.bin"), offset = tensor<uint64, []>(4985536))), lut = tensor<fp16, [256]>(BLOBFILE(path = tensor<string, []>("@model_path/weights/weight.bin"), offset = tensor<uint64, []>(7344896))), name = tensor<string, []>("model_7_conv_weight_to_fp16_palettized"), shape = tensor<uint32, [4]>([512, 512, 3, 3])];
            tensor<fp16, [512]> model_7_conv_bias_to_fp16 = const()[name = tensor<string, []>("model_7_conv_bias_to_fp16"), val = tensor<fp16, [512]>(BLOBFILE(path = tensor<string, []>("@model_path/weights/weight.bin"), offset = tensor<uint64, []>(7345472)))];
            tensor<fp16, [1, 512, 20, 20]> input_119_cast_fp16 = conv(bias = model_7_conv_bias_to_fp16, dilations = input_119_dilations_0, groups = input_119_groups_0, pad = input_119_pad_0, pad_type = input_119_pad_type_0, strides = input_119_strides_0, weight = model_7_conv_weight_to_fp16_palettized, x = input_117_cast_fp16)[name = tensor<string, []>("input_119_cast_fp16")];
            tensor<fp16, [1, 512, 20, 20]> input_121_cast_fp16 = silu(x = input_119_cast_fp16)[name = tensor<string, []>("input_121_cast_fp16")];
            tensor<int32, []> var_442 = const()[name = tensor<string, []>("op_442"), val = tensor<int32, []>(1)];
            tensor<string, []> input_123_pad_type_0 = const()[name = tensor<string, []>("input_123_pad_type_0"), val = tensor<string, []>("valid")];
            tensor<int32, [2]> input_123_strides_0 = const()[name = tensor<string, []>("input_123_strides_0"), val = tensor<int32, [2]>([1, 1])];
            tensor<int32, [4]> input_123_pad_0 = const()[name = tensor<string, []>("input_123_pad_0"), val = tensor<int32, [4]>([0, 0, 0, 0])];
            tensor<int32, [2]> input_123_dilations_0 = const()[name = tensor<string, []>("input_123_dilations_0"), val = tensor<int32, [2]>([1, 1])];
            tensor<int32, []> input_123_groups_0 = const()[name = tensor<string, []>("input_123_groups_0"), val = tensor<int32, []>(1)];
            tensor<fp16, [512, 512, 1, 1]> model_8_cv1_conv_weight_to_fp16_palettized = constexpr_lut_to_dense()[indices = tensor<uint8, [262144]>(BLOBFILE(path = tensor<string, []>("@model_path/weights/weight.bin"), offset = tensor<uint64, []>(7346560))), lut = tensor<fp16, [256]>(BLOBFILE(path = tensor<string, []>("@model_path/weights/weight.bin"), offset = tensor<uint64, []>(7608768))), name = tensor<string, []>("model_8_cv1_conv_weight_to_fp16_palettized"), shape = tensor<uint32, [4]>([512, 512, 1, 1])];
            tensor<fp16, [512]> model_8_cv1_conv_bias_to_fp16 = const()[name = tensor<string, []>("model_8_cv1_conv_bias_to_fp16"), val = tensor<fp16, [512]>(BLOBFILE(path = tensor<string, []>("@model_path/weights/weight.bin"), offset = tensor<uint64, []>(7609344)))];
            tensor<fp16, [1, 512, 20, 20]> input_123_cast_fp16 = conv(bias = model_8_cv1_conv_bias_to_fp16, dilations = input_123_dilations_0, groups = input_123_groups_0, pad = input_123_pad_0, pad_type = input_123_pad_type_0, strides = input_123_strides_0, weight = model_8_cv1_conv_weight_to_fp16_palettized, x = input_121_cast_fp16)[name = tensor<string, []>("input_123_cast_fp16")];
            tensor<fp16, [1, 512, 20, 20]> var_455_cast_fp16 = silu(x = input_123_cast_fp16)[name = tensor<string, []>("op_455_cast_fp16")];
            tensor<int32, [2]> var_456 = const()[name = tensor<string, []>("op_456"), val = tensor<int32, [2]>([256, 256])];
            tensor<int32, []> var_457_axis_0 = const()[name = tensor<string, []>("op_457_axis_0"), val = tensor<int32, []>(1)];
            tensor<fp16, [1, 256, 20, 20]> var_457_cast_fp16_0, tensor<fp16, [1, 256, 20, 20]> var_457_cast_fp16_1 = split(axis = var_457_axis_0, split_sizes = var_456, x = var_455_cast_fp16)[name = tensor<string, []>("op_457_cast_fp16")];
            tensor<string, []> input_127_pad_type_0 = const()[name = tensor<string, []>("input_127_pad_type_0"), val = tensor<string, []>("valid")];
            tensor<int32, [2]> input_127_strides_0 = const()[name = tensor<string, []>("input_127_strides_0"), val = tensor<int32, [2]>([1, 1])];
            tensor<int32, [4]> input_127_pad_0 = const()[name = tensor<string, []>("input_127_pad_0"), val = tensor<int32, [4]>([0, 0, 0, 0])];
            tensor<int32, [2]> input_127_dilations_0 = const()[name = tensor<string, []>("input_127_dilations_0"), val = tensor<int32, [2]>([1, 1])];
            tensor<int32, []> input_127_groups_0 = const()[name = tensor<string, []>("input_127_groups_0"), val = tensor<int32, []>(1)];
            tensor<fp16, [128, 256, 1, 1]> model_8_m_0_cv1_conv_weight_to_fp16_palettized = constexpr_lut_to_dense()[indices = tensor<uint8, [32768]>(BLOBFILE(path = tensor<string, []>("@model_path/weights/weight.bin"), offset = tensor<uint64, []>(7610432))), lut = tensor<fp16, [256]>(BLOBFILE(path = tensor<string, []>("@model_path/weights/weight.bin"), offset = tensor<uint64, []>(7643264))), name = tensor<string, []>("model_8_m_0_cv1_conv_weight_to_fp16_palettized"), shape = tensor<uint32, [4]>([128, 256, 1, 1])];
            tensor<fp16, [128]> model_8_m_0_cv1_conv_bias_to_fp16 = const()[name = tensor<string, []>("model_8_m_0_cv1_conv_bias_to_fp16"), val = tensor<fp16, [128]>(BLOBFILE(path = tensor<string, []>("@model_path/weights/weight.bin"), offset = tensor<uint64, []>(7643840)))];
            tensor<fp16, [1, 128, 20, 20]> input_127_cast_fp16 = conv(bias = model_8_m_0_cv1_conv_bias_to_fp16, dilations = input_127_dilations_0, groups = input_127_groups_0, pad = input_127_pad_0, pad_type = input_127_pad_type_0, strides = input_127_strides_0, weight = model_8_m_0_cv1_conv_weight_to_fp16_palettized, x = var_457_cast_fp16_1)[name = tensor<string, []>("input_127_cast_fp16")];
            tensor<fp16, [1, 128, 20, 20]> input_129_cast_fp16 = silu(x = input_127_cast_fp16)[name = tensor<string, []>("input_129_cast_fp16")];
            tensor<string, []> input_131_pad_type_0 = const()[name = tensor<string, []>("input_131_pad_type_0"), val = tensor<string, []>("custom")];
            tensor<int32, [4]> input_131_pad_0 = const()[name = tensor<string, []>("input_131_pad_0"), val = tensor<int32, [4]>([1, 1, 1, 1])];
            tensor<int32, [2]> input_131_strides_0 = const()[name = tensor<string, []>("input_131_strides_0"), val = tensor<int32, [2]>([1, 1])];
            tensor<int32, [2]> input_131_dilations_0 = const()[name = tensor<string, []>("input_131_dilations_0"), val = tensor<int32, [2]>([1, 1])];
            tensor<int32, []> input_131_groups_0 = const()[name = tensor<string, []>("input_131_groups_0"), val = tensor<int32, []>(1)];
            tensor<fp16, [128, 128, 3, 3]> model_8_m_0_m_0_cv1_conv_weight_to_fp16_palettized = constexpr_lut_to_dense()[indices = tensor<uint8, [147456]>(BLOBFILE(path = tensor<string, []>("@model_path/weights/weight.bin"), offset = tensor<uint64, []>(7644160))), lut = tensor<fp16, [256]>(BLOBFILE(path = tensor<string, []>("@model_path/weights/weight.bin"), offset = tensor<uint64, []>(7791680))), name = tensor<string, []>("model_8_m_0_m_0_cv1_conv_weight_to_fp16_palettized"), shape = tensor<uint32, [4]>([128, 128, 3, 3])];
            tensor<fp16, [128]> model_8_m_0_m_0_cv1_conv_bias_to_fp16 = const()[name = tensor<string, []>("model_8_m_0_m_0_cv1_conv_bias_to_fp16"), val = tensor<fp16, [128]>(BLOBFILE(path = tensor<string, []>("@model_path/weights/weight.bin"), offset = tensor<uint64, []>(7792256)))];
            tensor<fp16, [1, 128, 20, 20]> input_131_cast_fp16 = conv(bias = model_8_m_0_m_0_cv1_conv_bias_to_fp16, dilations = input_131_dilations_0, groups = input_131_groups_0, pad = input_131_pad_0, pad_type = input_131_pad_type_0, strides = input_131_strides_0, weight = model_8_m_0_m_0_cv1_conv_weight_to_fp16_palettized, x = input_129_cast_fp16)[name = tensor<string, []>("input_131_cast_fp16")];
            tensor<fp16, [1, 128, 20, 20]> input_133_cast_fp16 = silu(x = input_131_cast_fp16)[name = tensor<string, []>("input_133_cast_fp16")];
            tensor<string, []> input_135_pad_type_0 = const()[name = tensor<string, []>("input_135_pad_type_0"), val = tensor<string, []>("custom")];
            tensor<int32, [4]> input_135_pad_0 = const()[name = tensor<string, []>("input_135_pad_0"), val = tensor<int32, [4]>([1, 1, 1, 1])];
            tensor<int32, [2]> input_135_strides_0 = const()[name = tensor<string, []>("input_135_strides_0"), val = tensor<int32, [2]>([1, 1])];
            tensor<int32, [2]> input_135_dilations_0 = const()[name = tensor<string, []>("input_135_dilations_0"), val = tensor<int32, [2]>([1, 1])];
            tensor<int32, []> input_135_groups_0 = const()[name = tensor<string, []>("input_135_groups_0"), val = tensor<int32, []>(1)];
            tensor<fp16, [128, 128, 3, 3]> model_8_m_0_m_0_cv2_conv_weight_to_fp16_palettized = constexpr_lut_to_dense()[indices = tensor<uint8, [147456]>(BLOBFILE(path = tensor<string, []>("@model_path/weights/weight.bin"), offset = tensor<uint64, []>(7792576))), lut = tensor<fp16, [256]>(BLOBFILE(path = tensor<string, []>("@model_path/weights/weight.bin"), offset = tensor<uint64, []>(7940096))), name = tensor<string, []>("model_8_m_0_m_0_cv2_conv_weight_to_fp16_palettized"), shape = tensor<uint32, [4]>([128, 128, 3, 3])];
            tensor<fp16, [128]> model_8_m_0_m_0_cv2_conv_bias_to_fp16 = const()[name = tensor<string, []>("model_8_m_0_m_0_cv2_conv_bias_to_fp16"), val = tensor<fp16, [128]>(BLOBFILE(path = tensor<string, []>("@model_path/weights/weight.bin"), offset = tensor<uint64, []>(7940672)))];
            tensor<fp16, [1, 128, 20, 20]> input_135_cast_fp16 = conv(bias = model_8_m_0_m_0_cv2_conv_bias_to_fp16, dilations = input_135_dilations_0, groups = input_135_groups_0, pad = input_135_pad_0, pad_type = input_135_pad_type_0, strides = input_135_strides_0, weight = model_8_m_0_m_0_cv2_conv_weight_to_fp16_palettized, x = input_133_cast_fp16)[name = tensor<string, []>("input_135_cast_fp16")];
            tensor<fp16, [1, 128, 20, 20]> var_494_cast_fp16 = silu(x = input_135_cast_fp16)[name = tensor<string, []>("op_494_cast_fp16")];
            tensor<fp16, [1, 128, 20, 20]> input_137_cast_fp16 = add(x = input_129_cast_fp16, y = var_494_cast_fp16)[name = tensor<string, []>("input_137_cast_fp16")];
            tensor<string, []> input_139_pad_type_0 = const()[name = tensor<string, []>("input_139_pad_type_0"), val = tensor<string, []>("custom")];
            tensor<int32, [4]> input_139_pad_0 = const()[name = tensor<string, []>("input_139_pad_0"), val = tensor<int32, [4]>([1, 1, 1, 1])];
            tensor<int32, [2]> input_139_strides_0 = const()[name = tensor<string, []>("input_139_strides_0"), val = tensor<int32, [2]>([1, 1])];
            tensor<int32, [2]> input_139_dilations_0 = const()[name = tensor<string, []>("input_139_dilations_0"), val = tensor<int32, [2]>([1, 1])];
            tensor<int32, []> input_139_groups_0 = const()[name = tensor<string, []>("input_139_groups_0"), val = tensor<int32, []>(1)];
            tensor<fp16, [128, 128, 3, 3]> model_8_m_0_m_1_cv1_conv_weight_to_fp16_palettized = constexpr_lut_to_dense()[indices = tensor<uint8, [147456]>(BLOBFILE(path = tensor<string, []>("@model_path/weights/weight.bin"), offset = tensor<uint64, []>(7940992))), lut = tensor<fp16, [256]>(BLOBFILE(path = tensor<string, []>("@model_path/weights/weight.bin"), offset = tensor<uint64, []>(8088512))), name = tensor<string, []>("model_8_m_0_m_1_cv1_conv_weight_to_fp16_palettized"), shape = tensor<uint32, [4]>([128, 128, 3, 3])];
            tensor<fp16, [128]> model_8_m_0_m_1_cv1_conv_bias_to_fp16 = const()[name = tensor<string, []>("model_8_m_0_m_1_cv1_conv_bias_to_fp16"), val = tensor<fp16, [128]>(BLOBFILE(path = tensor<string, []>("@model_path/weights/weight.bin"), offset = tensor<uint64, []>(8089088)))];
            tensor<fp16, [1, 128, 20, 20]> input_139_cast_fp16 = conv(bias = model_8_m_0_m_1_cv1_conv_bias_to_fp16, dilations = input_139_dilations_0, groups = input_139_groups_0, pad = input_139_pad_0, pad_type = input_139_pad_type_0, strides = input_139_strides_0, weight = model_8_m_0_m_1_cv1_conv_weight_to_fp16_palettized, x = input_137_cast_fp16)[name = tensor<string, []>("input_139_cast_fp16")];
            tensor<fp16, [1, 128, 20, 20]> input_141_cast_fp16 = silu(x = input_139_cast_fp16)[name = tensor<string, []>("input_141_cast_fp16")];
            tensor<string, []> input_143_pad_type_0 = const()[name = tensor<string, []>("input_143_pad_type_0"), val = tensor<string, []>("custom")];
            tensor<int32, [4]> input_143_pad_0 = const()[name = tensor<string, []>("input_143_pad_0"), val = tensor<int32, [4]>([1, 1, 1, 1])];
            tensor<int32, [2]> input_143_strides_0 = const()[name = tensor<string, []>("input_143_strides_0"), val = tensor<int32, [2]>([1, 1])];
            tensor<int32, [2]> input_143_dilations_0 = const()[name = tensor<string, []>("input_143_dilations_0"), val = tensor<int32, [2]>([1, 1])];
            tensor<int32, []> input_143_groups_0 = const()[name = tensor<string, []>("input_143_groups_0"), val = tensor<int32, []>(1)];
            tensor<fp16, [128, 128, 3, 3]> model_8_m_0_m_1_cv2_conv_weight_to_fp16_palettized = constexpr_lut_to_dense()[indices = tensor<uint8, [147456]>(BLOBFILE(path = tensor<string, []>("@model_path/weights/weight.bin"), offset = tensor<uint64, []>(8089408))), lut = tensor<fp16, [256]>(BLOBFILE(path = tensor<string, []>("@model_path/weights/weight.bin"), offset = tensor<uint64, []>(8236928))), name = tensor<string, []>("model_8_m_0_m_1_cv2_conv_weight_to_fp16_palettized"), shape = tensor<uint32, [4]>([128, 128, 3, 3])];
            tensor<fp16, [128]> model_8_m_0_m_1_cv2_conv_bias_to_fp16 = const()[name = tensor<string, []>("model_8_m_0_m_1_cv2_conv_bias_to_fp16"), val = tensor<fp16, [128]>(BLOBFILE(path = tensor<string, []>("@model_path/weights/weight.bin"), offset = tensor<uint64, []>(8237504)))];
            tensor<fp16, [1, 128, 20, 20]> input_143_cast_fp16 = conv(bias = model_8_m_0_m_1_cv2_conv_bias_to_fp16, dilations = input_143_dilations_0, groups = input_143_groups_0, pad = input_143_pad_0, pad_type = input_143_pad_type_0, strides = input_143_strides_0, weight = model_8_m_0_m_1_cv2_conv_weight_to_fp16_palettized, x = input_141_cast_fp16)[name = tensor<string, []>("input_143_cast_fp16")];
            tensor<fp16, [1, 128, 20, 20]> var_515_cast_fp16 = silu(x = input_143_cast_fp16)[name = tensor<string, []>("op_515_cast_fp16")];
            tensor<fp16, [1, 128, 20, 20]> var_516_cast_fp16 = add(x = input_137_cast_fp16, y = var_515_cast_fp16)[name = tensor<string, []>("op_516_cast_fp16")];
            tensor<string, []> input_145_pad_type_0 = const()[name = tensor<string, []>("input_145_pad_type_0"), val = tensor<string, []>("valid")];
            tensor<int32, [2]> input_145_strides_0 = const()[name = tensor<string, []>("input_145_strides_0"), val = tensor<int32, [2]>([1, 1])];
            tensor<int32, [4]> input_145_pad_0 = const()[name = tensor<string, []>("input_145_pad_0"), val = tensor<int32, [4]>([0, 0, 0, 0])];
            tensor<int32, [2]> input_145_dilations_0 = const()[name = tensor<string, []>("input_145_dilations_0"), val = tensor<int32, [2]>([1, 1])];
            tensor<int32, []> input_145_groups_0 = const()[name = tensor<string, []>("input_145_groups_0"), val = tensor<int32, []>(1)];
            tensor<fp16, [128, 256, 1, 1]> model_8_m_0_cv2_conv_weight_to_fp16_palettized = constexpr_lut_to_dense()[indices = tensor<uint8, [32768]>(BLOBFILE(path = tensor<string, []>("@model_path/weights/weight.bin"), offset = tensor<uint64, []>(8237824))), lut = tensor<fp16, [256]>(BLOBFILE(path = tensor<string, []>("@model_path/weights/weight.bin"), offset = tensor<uint64, []>(8270656))), name = tensor<string, []>("model_8_m_0_cv2_conv_weight_to_fp16_palettized"), shape = tensor<uint32, [4]>([128, 256, 1, 1])];
            tensor<fp16, [128]> model_8_m_0_cv2_conv_bias_to_fp16 = const()[name = tensor<string, []>("model_8_m_0_cv2_conv_bias_to_fp16"), val = tensor<fp16, [128]>(BLOBFILE(path = tensor<string, []>("@model_path/weights/weight.bin"), offset = tensor<uint64, []>(8271232)))];
            tensor<fp16, [1, 128, 20, 20]> input_145_cast_fp16 = conv(bias = model_8_m_0_cv2_conv_bias_to_fp16, dilations = input_145_dilations_0, groups = input_145_groups_0, pad = input_145_pad_0, pad_type = input_145_pad_type_0, strides = input_145_strides_0, weight = model_8_m_0_cv2_conv_weight_to_fp16_palettized, x = var_457_cast_fp16_1)[name = tensor<string, []>("input_145_cast_fp16")];
            tensor<fp16, [1, 128, 20, 20]> var_525_cast_fp16 = silu(x = input_145_cast_fp16)[name = tensor<string, []>("op_525_cast_fp16")];
            tensor<bool, []> input_147_interleave_0 = const()[name = tensor<string, []>("input_147_interleave_0"), val = tensor<bool, []>(false)];
            tensor<fp16, [1, 256, 20, 20]> input_147_cast_fp16 = concat(axis = var_442, interleave = input_147_interleave_0, values = (var_516_cast_fp16, var_525_cast_fp16))[name = tensor<string, []>("input_147_cast_fp16")];
            tensor<string, []> input_149_pad_type_0 = const()[name = tensor<string, []>("input_149_pad_type_0"), val = tensor<string, []>("valid")];
            tensor<int32, [2]> input_149_strides_0 = const()[name = tensor<string, []>("input_149_strides_0"), val = tensor<int32, [2]>([1, 1])];
            tensor<int32, [4]> input_149_pad_0 = const()[name = tensor<string, []>("input_149_pad_0"), val = tensor<int32, [4]>([0, 0, 0, 0])];
            tensor<int32, [2]> input_149_dilations_0 = const()[name = tensor<string, []>("input_149_dilations_0"), val = tensor<int32, [2]>([1, 1])];
            tensor<int32, []> input_149_groups_0 = const()[name = tensor<string, []>("input_149_groups_0"), val = tensor<int32, []>(1)];
            tensor<fp16, [256, 256, 1, 1]> model_8_m_0_cv3_conv_weight_to_fp16_palettized = constexpr_lut_to_dense()[indices = tensor<uint8, [65536]>(BLOBFILE(path = tensor<string, []>("@model_path/weights/weight.bin"), offset = tensor<uint64, []>(8271552))), lut = tensor<fp16, [256]>(BLOBFILE(path = tensor<string, []>("@model_path/weights/weight.bin"), offset = tensor<uint64, []>(8337152))), name = tensor<string, []>("model_8_m_0_cv3_conv_weight_to_fp16_palettized"), shape = tensor<uint32, [4]>([256, 256, 1, 1])];
            tensor<fp16, [256]> model_8_m_0_cv3_conv_bias_to_fp16 = const()[name = tensor<string, []>("model_8_m_0_cv3_conv_bias_to_fp16"), val = tensor<fp16, [256]>(BLOBFILE(path = tensor<string, []>("@model_path/weights/weight.bin"), offset = tensor<uint64, []>(8337728)))];
            tensor<fp16, [1, 256, 20, 20]> input_149_cast_fp16 = conv(bias = model_8_m_0_cv3_conv_bias_to_fp16, dilations = input_149_dilations_0, groups = input_149_groups_0, pad = input_149_pad_0, pad_type = input_149_pad_type_0, strides = input_149_strides_0, weight = model_8_m_0_cv3_conv_weight_to_fp16_palettized, x = input_147_cast_fp16)[name = tensor<string, []>("input_149_cast_fp16")];
            tensor<fp16, [1, 256, 20, 20]> var_536_cast_fp16 = silu(x = input_149_cast_fp16)[name = tensor<string, []>("op_536_cast_fp16")];
            tensor<bool, []> input_151_interleave_0 = const()[name = tensor<string, []>("input_151_interleave_0"), val = tensor<bool, []>(false)];
            tensor<fp16, [1, 768, 20, 20]> input_151_cast_fp16 = concat(axis = var_442, interleave = input_151_interleave_0, values = (var_457_cast_fp16_0, var_457_cast_fp16_1, var_536_cast_fp16))[name = tensor<string, []>("input_151_cast_fp16")];
            tensor<string, []> input_153_pad_type_0 = const()[name = tensor<string, []>("input_153_pad_type_0"), val = tensor<string, []>("valid")];
            tensor<int32, [2]> input_153_strides_0 = const()[name = tensor<string, []>("input_153_strides_0"), val = tensor<int32, [2]>([1, 1])];
            tensor<int32, [4]> input_153_pad_0 = const()[name = tensor<string, []>("input_153_pad_0"), val = tensor<int32, [4]>([0, 0, 0, 0])];
            tensor<int32, [2]> input_153_dilations_0 = const()[name = tensor<string, []>("input_153_dilations_0"), val = tensor<int32, [2]>([1, 1])];
            tensor<int32, []> input_153_groups_0 = const()[name = tensor<string, []>("input_153_groups_0"), val = tensor<int32, []>(1)];
            tensor<fp16, [512, 768, 1, 1]> model_8_cv2_conv_weight_to_fp16_palettized = constexpr_lut_to_dense()[indices = tensor<uint8, [393216]>(BLOBFILE(path = tensor<string, []>("@model_path/weights/weight.bin"), offset = tensor<uint64, []>(8338304))), lut = tensor<fp16, [256]>(BLOBFILE(path = tensor<string, []>("@model_path/weights/weight.bin"), offset = tensor<uint64, []>(8731584))), name = tensor<string, []>("model_8_cv2_conv_weight_to_fp16_palettized"), shape = tensor<uint32, [4]>([512, 768, 1, 1])];
            tensor<fp16, [512]> model_8_cv2_conv_bias_to_fp16 = const()[name = tensor<string, []>("model_8_cv2_conv_bias_to_fp16"), val = tensor<fp16, [512]>(BLOBFILE(path = tensor<string, []>("@model_path/weights/weight.bin"), offset = tensor<uint64, []>(8732160)))];
            tensor<fp16, [1, 512, 20, 20]> input_153_cast_fp16 = conv(bias = model_8_cv2_conv_bias_to_fp16, dilations = input_153_dilations_0, groups = input_153_groups_0, pad = input_153_pad_0, pad_type = input_153_pad_type_0, strides = input_153_strides_0, weight = model_8_cv2_conv_weight_to_fp16_palettized, x = input_151_cast_fp16)[name = tensor<string, []>("input_153_cast_fp16")];
            tensor<fp16, [1, 512, 20, 20]> input_155_cast_fp16 = silu(x = input_153_cast_fp16)[name = tensor<string, []>("input_155_cast_fp16")];
            tensor<int32, []> var_553 = const()[name = tensor<string, []>("op_553"), val = tensor<int32, []>(1)];
            tensor<string, []> input_157_pad_type_0 = const()[name = tensor<string, []>("input_157_pad_type_0"), val = tensor<string, []>("valid")];
            tensor<int32, [2]> input_157_strides_0 = const()[name = tensor<string, []>("input_157_strides_0"), val = tensor<int32, [2]>([1, 1])];
            tensor<int32, [4]> input_157_pad_0 = const()[name = tensor<string, []>("input_157_pad_0"), val = tensor<int32, [4]>([0, 0, 0, 0])];
            tensor<int32, [2]> input_157_dilations_0 = const()[name = tensor<string, []>("input_157_dilations_0"), val = tensor<int32, [2]>([1, 1])];
            tensor<int32, []> input_157_groups_0 = const()[name = tensor<string, []>("input_157_groups_0"), val = tensor<int32, []>(1)];
            tensor<fp16, [256, 512, 1, 1]> model_9_cv1_conv_weight_to_fp16_palettized = constexpr_lut_to_dense()[indices = tensor<uint8, [131072]>(BLOBFILE(path = tensor<string, []>("@model_path/weights/weight.bin"), offset = tensor<uint64, []>(8733248))), lut = tensor<fp16, [256]>(BLOBFILE(path = tensor<string, []>("@model_path/weights/weight.bin"), offset = tensor<uint64, []>(8864384))), name = tensor<string, []>("model_9_cv1_conv_weight_to_fp16_palettized"), shape = tensor<uint32, [4]>([256, 512, 1, 1])];
            tensor<fp16, [256]> model_9_cv1_conv_bias_to_fp16 = const()[name = tensor<string, []>("model_9_cv1_conv_bias_to_fp16"), val = tensor<fp16, [256]>(BLOBFILE(path = tensor<string, []>("@model_path/weights/weight.bin"), offset = tensor<uint64, []>(8864960)))];
            tensor<fp16, [1, 256, 20, 20]> input_157_cast_fp16 = conv(bias = model_9_cv1_conv_bias_to_fp16, dilations = input_157_dilations_0, groups = input_157_groups_0, pad = input_157_pad_0, pad_type = input_157_pad_type_0, strides = input_157_strides_0, weight = model_9_cv1_conv_weight_to_fp16_palettized, x = input_155_cast_fp16)[name = tensor<string, []>("input_157_cast_fp16")];
            tensor<fp16, [1, 256, 20, 20]> input_159_cast_fp16 = silu(x = input_157_cast_fp16)[name = tensor<string, []>("input_159_cast_fp16")];
            tensor<int32, [2]> var_565 = const()[name = tensor<string, []>("op_565"), val = tensor<int32, [2]>([5, 5])];
            tensor<int32, [2]> var_566 = const()[name = tensor<string, []>("op_566"), val = tensor<int32, [2]>([1, 1])];
            tensor<string, []> input_161_pad_type_0 = const()[name = tensor<string, []>("input_161_pad_type_0"), val = tensor<string, []>("custom")];
            tensor<int32, [4]> input_161_pad_0 = const()[name = tensor<string, []>("input_161_pad_0"), val = tensor<int32, [4]>([2, 2, 2, 2])];
            tensor<bool, []> input_161_ceil_mode_0 = const()[name = tensor<string, []>("input_161_ceil_mode_0"), val = tensor<bool, []>(false)];
            tensor<fp16, [1, 256, 20, 20]> input_161_cast_fp16 = max_pool(ceil_mode = input_161_ceil_mode_0, kernel_sizes = var_565, pad = input_161_pad_0, pad_type = input_161_pad_type_0, strides = var_566, x = input_159_cast_fp16)[name = tensor<string, []>("input_161_cast_fp16")];
            tensor<int32, [2]> var_570 = const()[name = tensor<string, []>("op_570"), val = tensor<int32, [2]>([5, 5])];
            tensor<int32, [2]> var_571 = const()[name = tensor<string, []>("op_571"), val = tensor<int32, [2]>([1, 1])];
            tensor<string, []> input_163_pad_type_0 = const()[name = tensor<string, []>("input_163_pad_type_0"), val = tensor<string, []>("custom")];
            tensor<int32, [4]> input_163_pad_0 = const()[name = tensor<string, []>("input_163_pad_0"), val = tensor<int32, [4]>([2, 2, 2, 2])];
            tensor<bool, []> input_163_ceil_mode_0 = const()[name = tensor<string, []>("input_163_ceil_mode_0"), val = tensor<bool, []>(false)];
            tensor<fp16, [1, 256, 20, 20]> input_163_cast_fp16 = max_pool(ceil_mode = input_163_ceil_mode_0, kernel_sizes = var_570, pad = input_163_pad_0, pad_type = input_163_pad_type_0, strides = var_571, x = input_161_cast_fp16)[name = tensor<string, []>("input_163_cast_fp16")];
            tensor<int32, [2]> var_575 = const()[name = tensor<string, []>("op_575"), val = tensor<int32, [2]>([5, 5])];
            tensor<int32, [2]> var_576 = const()[name = tensor<string, []>("op_576"), val = tensor<int32, [2]>([1, 1])];
            tensor<string, []> var_579_pad_type_0 = const()[name = tensor<string, []>("op_579_pad_type_0"), val = tensor<string, []>("custom")];
            tensor<int32, [4]> var_579_pad_0 = const()[name = tensor<string, []>("op_579_pad_0"), val = tensor<int32, [4]>([2, 2, 2, 2])];
            tensor<bool, []> var_579_ceil_mode_0 = const()[name = tensor<string, []>("op_579_ceil_mode_0"), val = tensor<bool, []>(false)];
            tensor<fp16, [1, 256, 20, 20]> var_579_cast_fp16 = max_pool(ceil_mode = var_579_ceil_mode_0, kernel_sizes = var_575, pad = var_579_pad_0, pad_type = var_579_pad_type_0, strides = var_576, x = input_163_cast_fp16)[name = tensor<string, []>("op_579_cast_fp16")];
            tensor<bool, []> input_165_interleave_0 = const()[name = tensor<string, []>("input_165_interleave_0"), val = tensor<bool, []>(false)];
            tensor<fp16, [1, 1024, 20, 20]> input_165_cast_fp16 = concat(axis = var_553, interleave = input_165_interleave_0, values = (input_159_cast_fp16, input_161_cast_fp16, input_163_cast_fp16, var_579_cast_fp16))[name = tensor<string, []>("input_165_cast_fp16")];
            tensor<string, []> input_167_pad_type_0 = const()[name = tensor<string, []>("input_167_pad_type_0"), val = tensor<string, []>("valid")];
            tensor<int32, [2]> input_167_strides_0 = const()[name = tensor<string, []>("input_167_strides_0"), val = tensor<int32, [2]>([1, 1])];
            tensor<int32, [4]> input_167_pad_0 = const()[name = tensor<string, []>("input_167_pad_0"), val = tensor<int32, [4]>([0, 0, 0, 0])];
            tensor<int32, [2]> input_167_dilations_0 = const()[name = tensor<string, []>("input_167_dilations_0"), val = tensor<int32, [2]>([1, 1])];
            tensor<int32, []> input_167_groups_0 = const()[name = tensor<string, []>("input_167_groups_0"), val = tensor<int32, []>(1)];
            tensor<fp16, [512, 1024, 1, 1]> model_9_cv2_conv_weight_to_fp16_palettized = constexpr_lut_to_dense()[indices = tensor<uint8, [524288]>(BLOBFILE(path = tensor<string, []>("@model_path/weights/weight.bin"), offset = tensor<uint64, []>(8865536))), lut = tensor<fp16, [256]>(BLOBFILE(path = tensor<string, []>("@model_path/weights/weight.bin"), offset = tensor<uint64, []>(9389888))), name = tensor<string, []>("model_9_cv2_conv_weight_to_fp16_palettized"), shape = tensor<uint32, [4]>([512, 1024, 1, 1])];
            tensor<fp16, [512]> model_9_cv2_conv_bias_to_fp16 = const()[name = tensor<string, []>("model_9_cv2_conv_bias_to_fp16"), val = tensor<fp16, [512]>(BLOBFILE(path = tensor<string, []>("@model_path/weights/weight.bin"), offset = tensor<uint64, []>(9390464)))];
            tensor<fp16, [1, 512, 20, 20]> input_167_cast_fp16 = conv(bias = model_9_cv2_conv_bias_to_fp16, dilations = input_167_dilations_0, groups = input_167_groups_0, pad = input_167_pad_0, pad_type = input_167_pad_type_0, strides = input_167_strides_0, weight = model_9_cv2_conv_weight_to_fp16_palettized, x = input_165_cast_fp16)[name = tensor<string, []>("input_167_cast_fp16")];
            tensor<fp16, [1, 512, 20, 20]> input_169_cast_fp16 = silu(x = input_167_cast_fp16)[name = tensor<string, []>("input_169_cast_fp16")];
            tensor<int32, []> var_598 = const()[name = tensor<string, []>("op_598"), val = tensor<int32, []>(-1)];
            tensor<int32, []> var_604 = const()[name = tensor<string, []>("op_604"), val = tensor<int32, []>(1)];
            tensor<string, []> input_171_pad_type_0 = const()[name = tensor<string, []>("input_171_pad_type_0"), val = tensor<string, []>("valid")];
            tensor<int32, [2]> input_171_strides_0 = const()[name = tensor<string, []>("input_171_strides_0"), val = tensor<int32, [2]>([1, 1])];
            tensor<int32, [4]> input_171_pad_0 = const()[name = tensor<string, []>("input_171_pad_0"), val = tensor<int32, [4]>([0, 0, 0, 0])];
            tensor<int32, [2]> input_171_dilations_0 = const()[name = tensor<string, []>("input_171_dilations_0"), val = tensor<int32, [2]>([1, 1])];
            tensor<int32, []> input_171_groups_0 = const()[name = tensor<string, []>("input_171_groups_0"), val = tensor<int32, []>(1)];
            tensor<fp16, [512, 512, 1, 1]> model_10_cv1_conv_weight_to_fp16_palettized = constexpr_lut_to_dense()[indices = tensor<uint8, [262144]>(BLOBFILE(path = tensor<string, []>("@model_path/weights/weight.bin"), offset = tensor<uint64, []>(9391552))), lut = tensor<fp16, [256]>(BLOBFILE(path = tensor<string, []>("@model_path/weights/weight.bin"), offset = tensor<uint64, []>(9653760))), name = tensor<string, []>("model_10_cv1_conv_weight_to_fp16_palettized"), shape = tensor<uint32, [4]>([512, 512, 1, 1])];
            tensor<fp16, [512]> model_10_cv1_conv_bias_to_fp16 = const()[name = tensor<string, []>("model_10_cv1_conv_bias_to_fp16"), val = tensor<fp16, [512]>(BLOBFILE(path = tensor<string, []>("@model_path/weights/weight.bin"), offset = tensor<uint64, []>(9654336)))];
            tensor<fp16, [1, 512, 20, 20]> input_171_cast_fp16 = conv(bias = model_10_cv1_conv_bias_to_fp16, dilations = input_171_dilations_0, groups = input_171_groups_0, pad = input_171_pad_0, pad_type = input_171_pad_type_0, strides = input_171_strides_0, weight = model_10_cv1_conv_weight_to_fp16_palettized, x = input_169_cast_fp16)[name = tensor<string, []>("input_171_cast_fp16")];
            tensor<fp16, [1, 512, 20, 20]> var_616_cast_fp16 = silu(x = input_171_cast_fp16)[name = tensor<string, []>("op_616_cast_fp16")];
            tensor<int32, [2]> var_617 = const()[name = tensor<string, []>("op_617"), val = tensor<int32, [2]>([256, 256])];
            tensor<int32, []> var_618_axis_0 = const()[name = tensor<string, []>("op_618_axis_0"), val = tensor<int32, []>(1)];
            tensor<fp16, [1, 256, 20, 20]> var_618_cast_fp16_0, tensor<fp16, [1, 256, 20, 20]> var_618_cast_fp16_1 = split(axis = var_618_axis_0, split_sizes = var_617, x = var_616_cast_fp16)[name = tensor<string, []>("op_618_cast_fp16")];
            tensor<string, []> qkv_1_pad_type_0 = const()[name = tensor<string, []>("qkv_1_pad_type_0"), val = tensor<string, []>("valid")];
            tensor<int32, [2]> qkv_1_strides_0 = const()[name = tensor<string, []>("qkv_1_strides_0"), val = tensor<int32, [2]>([1, 1])];
            tensor<int32, [4]> qkv_1_pad_0 = const()[name = tensor<string, []>("qkv_1_pad_0"), val = tensor<int32, [4]>([0, 0, 0, 0])];
            tensor<int32, [2]> qkv_1_dilations_0 = const()[name = tensor<string, []>("qkv_1_dilations_0"), val = tensor<int32, [2]>([1, 1])];
            tensor<int32, []> qkv_1_groups_0 = const()[name = tensor<string, []>("qkv_1_groups_0"), val = tensor<int32, []>(1)];
            tensor<fp16, [512, 256, 1, 1]> model_10_m_0_attn_qkv_conv_weight_to_fp16_palettized = constexpr_lut_to_dense()[indices = tensor<uint8, [131072]>(BLOBFILE(path = tensor<string, []>("@model_path/weights/weight.bin"), offset = tensor<uint64, []>(9655424))), lut = tensor<fp16, [256]>(BLOBFILE(path = tensor<string, []>("@model_path/weights/weight.bin"), offset = tensor<uint64, []>(9786560))), name = tensor<string, []>("model_10_m_0_attn_qkv_conv_weight_to_fp16_palettized"), shape = tensor<uint32, [4]>([512, 256, 1, 1])];
            tensor<fp16, [512]> model_10_m_0_attn_qkv_conv_bias_to_fp16 = const()[name = tensor<string, []>("model_10_m_0_attn_qkv_conv_bias_to_fp16"), val = tensor<fp16, [512]>(BLOBFILE(path = tensor<string, []>("@model_path/weights/weight.bin"), offset = tensor<uint64, []>(9787136)))];
            tensor<fp16, [1, 512, 20, 20]> qkv_1_cast_fp16 = conv(bias = model_10_m_0_attn_qkv_conv_bias_to_fp16, dilations = qkv_1_dilations_0, groups = qkv_1_groups_0, pad = qkv_1_pad_0, pad_type = qkv_1_pad_type_0, strides = qkv_1_strides_0, weight = model_10_m_0_attn_qkv_conv_weight_to_fp16_palettized, x = var_618_cast_fp16_1)[name = tensor<string, []>("qkv_1_cast_fp16")];
            tensor<int32, [4]> var_643 = const()[name = tensor<string, []>("op_643"), val = tensor<int32, [4]>([1, 4, 128, 400])];
            tensor<fp16, [1, 4, 128, 400]> var_644_cast_fp16 = reshape(shape = var_643, x = qkv_1_cast_fp16)[name = tensor<string, []>("op_644_cast_fp16")];
            tensor<int32, [3]> var_645 = const()[name = tensor<string, []>("op_645"), val = tensor<int32, [3]>([32, 32, 64])];
            tensor<int32, []> var_646_axis_0 = const()[name = tensor<string, []>("op_646_axis_0"), val = tensor<int32, []>(2)];
            tensor<fp16, [1, 4, 32, 400]> var_646_cast_fp16_0, tensor<fp16, [1, 4, 32, 400]> var_646_cast_fp16_1, tensor<fp16, [1, 4, 64, 400]> var_646_cast_fp16_2 = split(axis = var_646_axis_0, split_sizes = var_645, x = var_644_cast_fp16)[name = tensor<string, []>("op_646_cast_fp16")];
            tensor<bool, []> var_651_transpose_x_1 = const()[name = tensor<string, []>("op_651_transpose_x_1"), val = tensor<bool, []>(true)];
            tensor<bool, []> var_651_transpose_y_1 = const()[name = tensor<string, []>("op_651_transpose_y_1"), val = tensor<bool, []>(false)];
            tensor<fp16, [1, 4, 400, 400]> var_651_cast_fp16 = matmul(transpose_x = var_651_transpose_x_1, transpose_y = var_651_transpose_y_1, x = var_646_cast_fp16_0, y = var_646_cast_fp16_1)[name = tensor<string, []>("op_651_cast_fp16")];
            tensor<fp16, []> var_652_to_fp16 = const()[name = tensor<string, []>("op_652_to_fp16"), val = tensor<fp16, []>(0x1.6ap-3)];
            tensor<fp16, [1, 4, 400, 400]> attn_1_cast_fp16 = mul(x = var_651_cast_fp16, y = var_652_to_fp16)[name = tensor<string, []>("attn_1_cast_fp16")];
            tensor<fp16, [1, 4, 400, 400]> attn_3_cast_fp16 = softmax(axis = var_598, x = attn_1_cast_fp16)[name = tensor<string, []>("attn_3_cast_fp16")];
            tensor<bool, []> var_656_transpose_x_1 = const()[name = tensor<string, []>("op_656_transpose_x_1"), val = tensor<bool, []>(false)];
            tensor<bool, []> var_656_transpose_y_1 = const()[name = tensor<string, []>("op_656_transpose_y_1"), val = tensor<bool, []>(true)];
            tensor<fp16, [1, 4, 64, 400]> var_656_cast_fp16 = matmul(transpose_x = var_656_transpose_x_1, transpose_y = var_656_transpose_y_1, x = var_646_cast_fp16_2, y = attn_3_cast_fp16)[name = tensor<string, []>("op_656_cast_fp16")];
            tensor<int32, [4]> var_657 = const()[name = tensor<string, []>("op_657"), val = tensor<int32, [4]>([1, 256, 20, 20])];
            tensor<fp16, [1, 256, 20, 20]> var_658_cast_fp16 = reshape(shape = var_657, x = var_656_cast_fp16)[name = tensor<string, []>("op_658_cast_fp16")];
            tensor<int32, [4]> var_659 = const()[name = tensor<string, []>("op_659"), val = tensor<int32, [4]>([1, 256, 20, 20])];
            tensor<fp16, [1, 256, 20, 20]> input_173_cast_fp16 = reshape(shape = var_659, x = var_646_cast_fp16_2)[name = tensor<string, []>("input_173_cast_fp16")];
            tensor<string, []> var_668_pad_type_0 = const()[name = tensor<string, []>("op_668_pad_type_0"), val = tensor<string, []>("custom")];
            tensor<int32, [4]> var_668_pad_0 = const()[name = tensor<string, []>("op_668_pad_0"), val = tensor<int32, [4]>([1, 1, 1, 1])];
            tensor<int32, []> var_668_groups_0 = const()[name = tensor<string, []>("op_668_groups_0"), val = tensor<int32, []>(256)];
            tensor<int32, [2]> var_668_strides_0 = const()[name = tensor<string, []>("op_668_strides_0"), val = tensor<int32, [2]>([1, 1])];
            tensor<int32, [2]> var_668_dilations_0 = const()[name = tensor<string, []>("op_668_dilations_0"), val = tensor<int32, [2]>([1, 1])];
            tensor<fp16, [256, 1, 3, 3]> model_10_m_0_attn_pe_conv_weight_to_fp16_palettized = constexpr_lut_to_dense()[indices = tensor<uint8, [2304]>(BLOBFILE(path = tensor<string, []>("@model_path/weights/weight.bin"), offset = tensor<uint64, []>(9788224))), lut = tensor<fp16, [256]>(BLOBFILE(path = tensor<string, []>("@model_path/weights/weight.bin"), offset = tensor<uint64, []>(9790592))), name = tensor<string, []>("model_10_m_0_attn_pe_conv_weight_to_fp16_palettized"), shape = tensor<uint32, [4]>([256, 1, 3, 3])];
            tensor<fp16, [256]> model_10_m_0_attn_pe_conv_bias_to_fp16 = const()[name = tensor<string, []>("model_10_m_0_attn_pe_conv_bias_to_fp16"), val = tensor<fp16, [256]>(BLOBFILE(path = tensor<string, []>("@model_path/weights/weight.bin"), offset = tensor<uint64, []>(9791168)))];
            tensor<fp16, [1, 256, 20, 20]> var_668_cast_fp16 = conv(bias = model_10_m_0_attn_pe_conv_bias_to_fp16, dilations = var_668_dilations_0, groups = var_668_groups_0, pad = var_668_pad_0, pad_type = var_668_pad_type_0, strides = var_668_strides_0, weight = model_10_m_0_attn_pe_conv_weight_to_fp16_palettized, x = input_173_cast_fp16)[name = tensor<string, []>("op_668_cast_fp16")];
            tensor<fp16, [1, 256, 20, 20]> input_175_cast_fp16 = add(x = var_658_cast_fp16, y = var_668_cast_fp16)[name = tensor<string, []>("input_175_cast_fp16")];
            tensor<string, []> var_677_pad_type_0 = const()[name = tensor<string, []>("op_677_pad_type_0"), val = tensor<string, []>("valid")];
            tensor<int32, [2]> var_677_strides_0 = const()[name = tensor<string, []>("op_677_strides_0"), val = tensor<int32, [2]>([1, 1])];
            tensor<int32, [4]> var_677_pad_0 = const()[name = tensor<string, []>("op_677_pad_0"), val = tensor<int32, [4]>([0, 0, 0, 0])];
            tensor<int32, [2]> var_677_dilations_0 = const()[name = tensor<string, []>("op_677_dilations_0"), val = tensor<int32, [2]>([1, 1])];
            tensor<int32, []> var_677_groups_0 = const()[name = tensor<string, []>("op_677_groups_0"), val = tensor<int32, []>(1)];
            tensor<fp16, [256, 256, 1, 1]> model_10_m_0_attn_proj_conv_weight_to_fp16_palettized = constexpr_lut_to_dense()[indices = tensor<uint8, [65536]>(BLOBFILE(path = tensor<string, []>("@model_path/weights/weight.bin"), offset = tensor<uint64, []>(9791744))), lut = tensor<fp16, [256]>(BLOBFILE(path = tensor<string, []>("@model_path/weights/weight.bin"), offset = tensor<uint64, []>(9857344))), name = tensor<string, []>("model_10_m_0_attn_proj_conv_weight_to_fp16_palettized"), shape = tensor<uint32, [4]>([256, 256, 1, 1])];
            tensor<fp16, [256]> model_10_m_0_attn_proj_conv_bias_to_fp16 = const()[name = tensor<string, []>("model_10_m_0_attn_proj_conv_bias_to_fp16"), val = tensor<fp16, [256]>(BLOBFILE(path = tensor<string, []>("@model_path/weights/weight.bin"), offset = tensor<uint64, []>(9857920)))];
            tensor<fp16, [1, 256, 20, 20]> var_677_cast_fp16 = conv(bias = model_10_m_0_attn_proj_conv_bias_to_fp16, dilations = var_677_dilations_0, groups = var_677_groups_0, pad = var_677_pad_0, pad_type = var_677_pad_type_0, strides = var_677_strides_0, weight = model_10_m_0_attn_proj_conv_weight_to_fp16_palettized, x = input_175_cast_fp16)[name = tensor<string, []>("op_677_cast_fp16")];
            tensor<fp16, [1, 256, 20, 20]> input_177_cast_fp16 = add(x = var_618_cast_fp16_1, y = var_677_cast_fp16)[name = tensor<string, []>("input_177_cast_fp16")];
            tensor<string, []> input_179_pad_type_0 = const()[name = tensor<string, []>("input_179_pad_type_0"), val = tensor<string, []>("valid")];
            tensor<int32, [2]> input_179_strides_0 = const()[name = tensor<string, []>("input_179_strides_0"), val = tensor<int32, [2]>([1, 1])];
            tensor<int32, [4]> input_179_pad_0 = const()[name = tensor<string, []>("input_179_pad_0"), val = tensor<int32, [4]>([0, 0, 0, 0])];
            tensor<int32, [2]> input_179_dilations_0 = const()[name = tensor<string, []>("input_179_dilations_0"), val = tensor<int32, [2]>([1, 1])];
            tensor<int32, []> input_179_groups_0 = const()[name = tensor<string, []>("input_179_groups_0"), val = tensor<int32, []>(1)];
            tensor<fp16, [512, 256, 1, 1]> model_10_m_0_ffn_0_conv_weight_to_fp16_palettized = constexpr_lut_to_dense()[indices = tensor<uint8, [131072]>(BLOBFILE(path = tensor<string, []>("@model_path/weights/weight.bin"), offset = tensor<uint64, []>(9858496))), lut = tensor<fp16, [256]>(BLOBFILE(path = tensor<string, []>("@model_path/weights/weight.bin"), offset = tensor<uint64, []>(9989632))), name = tensor<string, []>("model_10_m_0_ffn_0_conv_weight_to_fp16_palettized"), shape = tensor<uint32, [4]>([512, 256, 1, 1])];
            tensor<fp16, [512]> model_10_m_0_ffn_0_conv_bias_to_fp16 = const()[name = tensor<string, []>("model_10_m_0_ffn_0_conv_bias_to_fp16"), val = tensor<fp16, [512]>(BLOBFILE(path = tensor<string, []>("@model_path/weights/weight.bin"), offset = tensor<uint64, []>(9990208)))];
            tensor<fp16, [1, 512, 20, 20]> input_179_cast_fp16 = conv(bias = model_10_m_0_ffn_0_conv_bias_to_fp16, dilations = input_179_dilations_0, groups = input_179_groups_0, pad = input_179_pad_0, pad_type = input_179_pad_type_0, strides = input_179_strides_0, weight = model_10_m_0_ffn_0_conv_weight_to_fp16_palettized, x = input_177_cast_fp16)[name = tensor<string, []>("input_179_cast_fp16")];
            tensor<fp16, [1, 512, 20, 20]> input_181_cast_fp16 = silu(x = input_179_cast_fp16)[name = tensor<string, []>("input_181_cast_fp16")];
            tensor<string, []> var_697_pad_type_0 = const()[name = tensor<string, []>("op_697_pad_type_0"), val = tensor<string, []>("valid")];
            tensor<int32, [2]> var_697_strides_0 = const()[name = tensor<string, []>("op_697_strides_0"), val = tensor<int32, [2]>([1, 1])];
            tensor<int32, [4]> var_697_pad_0 = const()[name = tensor<string, []>("op_697_pad_0"), val = tensor<int32, [4]>([0, 0, 0, 0])];
            tensor<int32, [2]> var_697_dilations_0 = const()[name = tensor<string, []>("op_697_dilations_0"), val = tensor<int32, [2]>([1, 1])];
            tensor<int32, []> var_697_groups_0 = const()[name = tensor<string, []>("op_697_groups_0"), val = tensor<int32, []>(1)];
            tensor<fp16, [256, 512, 1, 1]> model_10_m_0_ffn_1_conv_weight_to_fp16_palettized = constexpr_lut_to_dense()[indices = tensor<uint8, [131072]>(BLOBFILE(path = tensor<string, []>("@model_path/weights/weight.bin"), offset = tensor<uint64, []>(9991296))), lut = tensor<fp16, [256]>(BLOBFILE(path = tensor<string, []>("@model_path/weights/weight.bin"), offset = tensor<uint64, []>(10122432))), name = tensor<string, []>("model_10_m_0_ffn_1_conv_weight_to_fp16_palettized"), shape = tensor<uint32, [4]>([256, 512, 1, 1])];
            tensor<fp16, [256]> model_10_m_0_ffn_1_conv_bias_to_fp16 = const()[name = tensor<string, []>("model_10_m_0_ffn_1_conv_bias_to_fp16"), val = tensor<fp16, [256]>(BLOBFILE(path = tensor<string, []>("@model_path/weights/weight.bin"), offset = tensor<uint64, []>(10123008)))];
            tensor<fp16, [1, 256, 20, 20]> var_697_cast_fp16 = conv(bias = model_10_m_0_ffn_1_conv_bias_to_fp16, dilations = var_697_dilations_0, groups = var_697_groups_0, pad = var_697_pad_0, pad_type = var_697_pad_type_0, strides = var_697_strides_0, weight = model_10_m_0_ffn_1_conv_weight_to_fp16_palettized, x = input_181_cast_fp16)[name = tensor<string, []>("op_697_cast_fp16")];
            tensor<fp16, [1, 256, 20, 20]> b_1_cast_fp16 = add(x = input_177_cast_fp16, y = var_697_cast_fp16)[name = tensor<string, []>("b_1_cast_fp16")];
            tensor<bool, []> input_183_interleave_0 = const()[name = tensor<string, []>("input_183_interleave_0"), val = tensor<bool, []>(false)];
            tensor<fp16, [1, 512, 20, 20]> input_183_cast_fp16 = concat(axis = var_604, interleave = input_183_interleave_0, values = (var_618_cast_fp16_0, b_1_cast_fp16))[name = tensor<string, []>("input_183_cast_fp16")];
            tensor<string, []> input_185_pad_type_0 = const()[name = tensor<string, []>("input_185_pad_type_0"), val = tensor<string, []>("valid")];
            tensor<int32, [2]> input_185_strides_0 = const()[name = tensor<string, []>("input_185_strides_0"), val = tensor<int32, [2]>([1, 1])];
            tensor<int32, [4]> input_185_pad_0 = const()[name = tensor<string, []>("input_185_pad_0"), val = tensor<int32, [4]>([0, 0, 0, 0])];
            tensor<int32, [2]> input_185_dilations_0 = const()[name = tensor<string, []>("input_185_dilations_0"), val = tensor<int32, [2]>([1, 1])];
            tensor<int32, []> input_185_groups_0 = const()[name = tensor<string, []>("input_185_groups_0"), val = tensor<int32, []>(1)];
            tensor<fp16, [512, 512, 1, 1]> model_10_cv2_conv_weight_to_fp16_palettized = constexpr_lut_to_dense()[indices = tensor<uint8, [262144]>(BLOBFILE(path = tensor<string, []>("@model_path/weights/weight.bin"), offset = tensor<uint64, []>(10123584))), lut = tensor<fp16, [256]>(BLOBFILE(path = tensor<string, []>("@model_path/weights/weight.bin"), offset = tensor<uint64, []>(10385792))), name = tensor<string, []>("model_10_cv2_conv_weight_to_fp16_palettized"), shape = tensor<uint32, [4]>([512, 512, 1, 1])];
            tensor<fp16, [512]> model_10_cv2_conv_bias_to_fp16 = const()[name = tensor<string, []>("model_10_cv2_conv_bias_to_fp16"), val = tensor<fp16, [512]>(BLOBFILE(path = tensor<string, []>("@model_path/weights/weight.bin"), offset = tensor<uint64, []>(10386368)))];
            tensor<fp16, [1, 512, 20, 20]> input_185_cast_fp16 = conv(bias = model_10_cv2_conv_bias_to_fp16, dilations = input_185_dilations_0, groups = input_185_groups_0, pad = input_185_pad_0, pad_type = input_185_pad_type_0, strides = input_185_strides_0, weight = model_10_cv2_conv_weight_to_fp16_palettized, x = input_183_cast_fp16)[name = tensor<string, []>("input_185_cast_fp16")];
            tensor<fp16, [1, 512, 20, 20]> input_187_cast_fp16 = silu(x = input_185_cast_fp16)[name = tensor<string, []>("input_187_cast_fp16")];
            tensor<fp32, []> var_713_scale_factor_height_0 = const()[name = tensor<string, []>("op_713_scale_factor_height_0"), val = tensor<fp32, []>(0x1p+1)];
            tensor<fp32, []> var_713_scale_factor_width_0 = const()[name = tensor<string, []>("op_713_scale_factor_width_0"), val = tensor<fp32, []>(0x1p+1)];
            tensor<fp16, [1, 512, 40, 40]> var_713_cast_fp16 = upsample_nearest_neighbor(scale_factor_height = var_713_scale_factor_height_0, scale_factor_width = var_713_scale_factor_width_0, x = input_187_cast_fp16)[name = tensor<string, []>("op_713_cast_fp16")];
            tensor<int32, []> var_714 = const()[name = tensor<string, []>("op_714"), val = tensor<int32, []>(1)];
            tensor<bool, []> input_189_interleave_0 = const()[name = tensor<string, []>("input_189_interleave_0"), val = tensor<bool, []>(false)];
            tensor<fp16, [1, 1024, 40, 40]> input_189_cast_fp16 = concat(axis = var_714, interleave = input_189_interleave_0, values = (var_713_cast_fp16, input_117_cast_fp16))[name = tensor<string, []>("input_189_cast_fp16")];
            tensor<int32, []> var_721 = const()[name = tensor<string, []>("op_721"), val = tensor<int32, []>(1)];
            tensor<string, []> input_191_pad_type_0 = const()[name = tensor<string, []>("input_191_pad_type_0"), val = tensor<string, []>("valid")];
            tensor<int32, [2]> input_191_strides_0 = const()[name = tensor<string, []>("input_191_strides_0"), val = tensor<int32, [2]>([1, 1])];
            tensor<int32, [4]> input_191_pad_0 = const()[name = tensor<string, []>("input_191_pad_0"), val = tensor<int32, [4]>([0, 0, 0, 0])];
            tensor<int32, [2]> input_191_dilations_0 = const()[name = tensor<string, []>("input_191_dilations_0"), val = tensor<int32, [2]>([1, 1])];
            tensor<int32, []> input_191_groups_0 = const()[name = tensor<string, []>("input_191_groups_0"), val = tensor<int32, []>(1)];
            tensor<fp16, [512, 1024, 1, 1]> model_13_cv1_conv_weight_to_fp16_palettized = constexpr_lut_to_dense()[indices = tensor<uint8, [524288]>(BLOBFILE(path = tensor<string, []>("@model_path/weights/weight.bin"), offset = tensor<uint64, []>(10387456))), lut = tensor<fp16, [256]>(BLOBFILE(path = tensor<string, []>("@model_path/weights/weight.bin"), offset = tensor<uint64, []>(10911808))), name = tensor<string, []>("model_13_cv1_conv_weight_to_fp16_palettized"), shape = tensor<uint32, [4]>([512, 1024, 1, 1])];
            tensor<fp16, [512]> model_13_cv1_conv_bias_to_fp16 = const()[name = tensor<string, []>("model_13_cv1_conv_bias_to_fp16"), val = tensor<fp16, [512]>(BLOBFILE(path = tensor<string, []>("@model_path/weights/weight.bin"), offset = tensor<uint64, []>(10912384)))];
            tensor<fp16, [1, 512, 40, 40]> input_191_cast_fp16 = conv(bias = model_13_cv1_conv_bias_to_fp16, dilations = input_191_dilations_0, groups = input_191_groups_0, pad = input_191_pad_0, pad_type = input_191_pad_type_0, strides = input_191_strides_0, weight = model_13_cv1_conv_weight_to_fp16_palettized, x = input_189_cast_fp16)[name = tensor<string, []>("input_191_cast_fp16")];
            tensor<fp16, [1, 512, 40, 40]> var_734_cast_fp16 = silu(x = input_191_cast_fp16)[name = tensor<string, []>("op_734_cast_fp16")];
            tensor<int32, [2]> var_735 = const()[name = tensor<string, []>("op_735"), val = tensor<int32, [2]>([256, 256])];
            tensor<int32, []> var_736_axis_0 = const()[name = tensor<string, []>("op_736_axis_0"), val = tensor<int32, []>(1)];
            tensor<fp16, [1, 256, 40, 40]> var_736_cast_fp16_0, tensor<fp16, [1, 256, 40, 40]> var_736_cast_fp16_1 = split(axis = var_736_axis_0, split_sizes = var_735, x = var_734_cast_fp16)[name = tensor<string, []>("op_736_cast_fp16")];
            tensor<string, []> input_195_pad_type_0 = const()[name = tensor<string, []>("input_195_pad_type_0"), val = tensor<string, []>("valid")];
            tensor<int32, [2]> input_195_strides_0 = const()[name = tensor<string, []>("input_195_strides_0"), val = tensor<int32, [2]>([1, 1])];
            tensor<int32, [4]> input_195_pad_0 = const()[name = tensor<string, []>("input_195_pad_0"), val = tensor<int32, [4]>([0, 0, 0, 0])];
            tensor<int32, [2]> input_195_dilations_0 = const()[name = tensor<string, []>("input_195_dilations_0"), val = tensor<int32, [2]>([1, 1])];
            tensor<int32, []> input_195_groups_0 = const()[name = tensor<string, []>("input_195_groups_0"), val = tensor<int32, []>(1)];
            tensor<fp16, [128, 256, 1, 1]> model_13_m_0_cv1_conv_weight_to_fp16_palettized = constexpr_lut_to_dense()[indices = tensor<uint8, [32768]>(BLOBFILE(path = tensor<string, []>("@model_path/weights/weight.bin"), offset = tensor<uint64, []>(10913472))), lut = tensor<fp16, [256]>(BLOBFILE(path = tensor<string, []>("@model_path/weights/weight.bin"), offset = tensor<uint64, []>(10946304))), name = tensor<string, []>("model_13_m_0_cv1_conv_weight_to_fp16_palettized"), shape = tensor<uint32, [4]>([128, 256, 1, 1])];
            tensor<fp16, [128]> model_13_m_0_cv1_conv_bias_to_fp16 = const()[name = tensor<string, []>("model_13_m_0_cv1_conv_bias_to_fp16"), val = tensor<fp16, [128]>(BLOBFILE(path = tensor<string, []>("@model_path/weights/weight.bin"), offset = tensor<uint64, []>(10946880)))];
            tensor<fp16, [1, 128, 40, 40]> input_195_cast_fp16 = conv(bias = model_13_m_0_cv1_conv_bias_to_fp16, dilations = input_195_dilations_0, groups = input_195_groups_0, pad = input_195_pad_0, pad_type = input_195_pad_type_0, strides = input_195_strides_0, weight = model_13_m_0_cv1_conv_weight_to_fp16_palettized, x = var_736_cast_fp16_1)[name = tensor<string, []>("input_195_cast_fp16")];
            tensor<fp16, [1, 128, 40, 40]> input_197_cast_fp16 = silu(x = input_195_cast_fp16)[name = tensor<string, []>("input_197_cast_fp16")];
            tensor<string, []> input_199_pad_type_0 = const()[name = tensor<string, []>("input_199_pad_type_0"), val = tensor<string, []>("custom")];
            tensor<int32, [4]> input_199_pad_0 = const()[name = tensor<string, []>("input_199_pad_0"), val = tensor<int32, [4]>([1, 1, 1, 1])];
            tensor<int32, [2]> input_199_strides_0 = const()[name = tensor<string, []>("input_199_strides_0"), val = tensor<int32, [2]>([1, 1])];
            tensor<int32, [2]> input_199_dilations_0 = const()[name = tensor<string, []>("input_199_dilations_0"), val = tensor<int32, [2]>([1, 1])];
            tensor<int32, []> input_199_groups_0 = const()[name = tensor<string, []>("input_199_groups_0"), val = tensor<int32, []>(1)];
            tensor<fp16, [128, 128, 3, 3]> model_13_m_0_m_0_cv1_conv_weight_to_fp16_palettized = constexpr_lut_to_dense()[indices = tensor<uint8, [147456]>(BLOBFILE(path = tensor<string, []>("@model_path/weights/weight.bin"), offset = tensor<uint64, []>(10947200))), lut = tensor<fp16, [256]>(BLOBFILE(path = tensor<string, []>("@model_path/weights/weight.bin"), offset = tensor<uint64, []>(11094720))), name = tensor<string, []>("model_13_m_0_m_0_cv1_conv_weight_to_fp16_palettized"), shape = tensor<uint32, [4]>([128, 128, 3, 3])];
            tensor<fp16, [128]> model_13_m_0_m_0_cv1_conv_bias_to_fp16 = const()[name = tensor<string, []>("model_13_m_0_m_0_cv1_conv_bias_to_fp16"), val = tensor<fp16, [128]>(BLOBFILE(path = tensor<string, []>("@model_path/weights/weight.bin"), offset = tensor<uint64, []>(11095296)))];
            tensor<fp16, [1, 128, 40, 40]> input_199_cast_fp16 = conv(bias = model_13_m_0_m_0_cv1_conv_bias_to_fp16, dilations = input_199_dilations_0, groups = input_199_groups_0, pad = input_199_pad_0, pad_type = input_199_pad_type_0, strides = input_199_strides_0, weight = model_13_m_0_m_0_cv1_conv_weight_to_fp16_palettized, x = input_197_cast_fp16)[name = tensor<string, []>("input_199_cast_fp16")];
            tensor<fp16, [1, 128, 40, 40]> input_201_cast_fp16 = silu(x = input_199_cast_fp16)[name = tensor<string, []>("input_201_cast_fp16")];
            tensor<string, []> input_203_pad_type_0 = const()[name = tensor<string, []>("input_203_pad_type_0"), val = tensor<string, []>("custom")];
            tensor<int32, [4]> input_203_pad_0 = const()[name = tensor<string, []>("input_203_pad_0"), val = tensor<int32, [4]>([1, 1, 1, 1])];
            tensor<int32, [2]> input_203_strides_0 = const()[name = tensor<string, []>("input_203_strides_0"), val = tensor<int32, [2]>([1, 1])];
            tensor<int32, [2]> input_203_dilations_0 = const()[name = tensor<string, []>("input_203_dilations_0"), val = tensor<int32, [2]>([1, 1])];
            tensor<int32, []> input_203_groups_0 = const()[name = tensor<string, []>("input_203_groups_0"), val = tensor<int32, []>(1)];
            tensor<fp16, [128, 128, 3, 3]> model_13_m_0_m_0_cv2_conv_weight_to_fp16_palettized = constexpr_lut_to_dense()[indices = tensor<uint8, [147456]>(BLOBFILE(path = tensor<string, []>("@model_path/weights/weight.bin"), offset = tensor<uint64, []>(11095616))), lut = tensor<fp16, [256]>(BLOBFILE(path = tensor<string, []>("@model_path/weights/weight.bin"), offset = tensor<uint64, []>(11243136))), name = tensor<string, []>("model_13_m_0_m_0_cv2_conv_weight_to_fp16_palettized"), shape = tensor<uint32, [4]>([128, 128, 3, 3])];
            tensor<fp16, [128]> model_13_m_0_m_0_cv2_conv_bias_to_fp16 = const()[name = tensor<string, []>("model_13_m_0_m_0_cv2_conv_bias_to_fp16"), val = tensor<fp16, [128]>(BLOBFILE(path = tensor<string, []>("@model_path/weights/weight.bin"), offset = tensor<uint64, []>(11243712)))];
            tensor<fp16, [1, 128, 40, 40]> input_203_cast_fp16 = conv(bias = model_13_m_0_m_0_cv2_conv_bias_to_fp16, dilations = input_203_dilations_0, groups = input_203_groups_0, pad = input_203_pad_0, pad_type = input_203_pad_type_0, strides = input_203_strides_0, weight = model_13_m_0_m_0_cv2_conv_weight_to_fp16_palettized, x = input_201_cast_fp16)[name = tensor<string, []>("input_203_cast_fp16")];
            tensor<fp16, [1, 128, 40, 40]> var_773_cast_fp16 = silu(x = input_203_cast_fp16)[name = tensor<string, []>("op_773_cast_fp16")];
            tensor<fp16, [1, 128, 40, 40]> input_205_cast_fp16 = add(x = input_197_cast_fp16, y = var_773_cast_fp16)[name = tensor<string, []>("input_205_cast_fp16")];
            tensor<string, []> input_207_pad_type_0 = const()[name = tensor<string, []>("input_207_pad_type_0"), val = tensor<string, []>("custom")];
            tensor<int32, [4]> input_207_pad_0 = const()[name = tensor<string, []>("input_207_pad_0"), val = tensor<int32, [4]>([1, 1, 1, 1])];
            tensor<int32, [2]> input_207_strides_0 = const()[name = tensor<string, []>("input_207_strides_0"), val = tensor<int32, [2]>([1, 1])];
            tensor<int32, [2]> input_207_dilations_0 = const()[name = tensor<string, []>("input_207_dilations_0"), val = tensor<int32, [2]>([1, 1])];
            tensor<int32, []> input_207_groups_0 = const()[name = tensor<string, []>("input_207_groups_0"), val = tensor<int32, []>(1)];
            tensor<fp16, [128, 128, 3, 3]> model_13_m_0_m_1_cv1_conv_weight_to_fp16_palettized = constexpr_lut_to_dense()[indices = tensor<uint8, [147456]>(BLOBFILE(path = tensor<string, []>("@model_path/weights/weight.bin"), offset = tensor<uint64, []>(11244032))), lut = tensor<fp16, [256]>(BLOBFILE(path = tensor<string, []>("@model_path/weights/weight.bin"), offset = tensor<uint64, []>(11391552))), name = tensor<string, []>("model_13_m_0_m_1_cv1_conv_weight_to_fp16_palettized"), shape = tensor<uint32, [4]>([128, 128, 3, 3])];
            tensor<fp16, [128]> model_13_m_0_m_1_cv1_conv_bias_to_fp16 = const()[name = tensor<string, []>("model_13_m_0_m_1_cv1_conv_bias_to_fp16"), val = tensor<fp16, [128]>(BLOBFILE(path = tensor<string, []>("@model_path/weights/weight.bin"), offset = tensor<uint64, []>(11392128)))];
            tensor<fp16, [1, 128, 40, 40]> input_207_cast_fp16 = conv(bias = model_13_m_0_m_1_cv1_conv_bias_to_fp16, dilations = input_207_dilations_0, groups = input_207_groups_0, pad = input_207_pad_0, pad_type = input_207_pad_type_0, strides = input_207_strides_0, weight = model_13_m_0_m_1_cv1_conv_weight_to_fp16_palettized, x = input_205_cast_fp16)[name = tensor<string, []>("input_207_cast_fp16")];
            tensor<fp16, [1, 128, 40, 40]> input_209_cast_fp16 = silu(x = input_207_cast_fp16)[name = tensor<string, []>("input_209_cast_fp16")];
            tensor<string, []> input_211_pad_type_0 = const()[name = tensor<string, []>("input_211_pad_type_0"), val = tensor<string, []>("custom")];
            tensor<int32, [4]> input_211_pad_0 = const()[name = tensor<string, []>("input_211_pad_0"), val = tensor<int32, [4]>([1, 1, 1, 1])];
            tensor<int32, [2]> input_211_strides_0 = const()[name = tensor<string, []>("input_211_strides_0"), val = tensor<int32, [2]>([1, 1])];
            tensor<int32, [2]> input_211_dilations_0 = const()[name = tensor<string, []>("input_211_dilations_0"), val = tensor<int32, [2]>([1, 1])];
            tensor<int32, []> input_211_groups_0 = const()[name = tensor<string, []>("input_211_groups_0"), val = tensor<int32, []>(1)];
            tensor<fp16, [128, 128, 3, 3]> model_13_m_0_m_1_cv2_conv_weight_to_fp16_palettized = constexpr_lut_to_dense()[indices = tensor<uint8, [147456]>(BLOBFILE(path = tensor<string, []>("@model_path/weights/weight.bin"), offset = tensor<uint64, []>(11392448))), lut = tensor<fp16, [256]>(BLOBFILE(path = tensor<string, []>("@model_path/weights/weight.bin"), offset = tensor<uint64, []>(11539968))), name = tensor<string, []>("model_13_m_0_m_1_cv2_conv_weight_to_fp16_palettized"), shape = tensor<uint32, [4]>([128, 128, 3, 3])];
            tensor<fp16, [128]> model_13_m_0_m_1_cv2_conv_bias_to_fp16 = const()[name = tensor<string, []>("model_13_m_0_m_1_cv2_conv_bias_to_fp16"), val = tensor<fp16, [128]>(BLOBFILE(path = tensor<string, []>("@model_path/weights/weight.bin"), offset = tensor<uint64, []>(11540544)))];
            tensor<fp16, [1, 128, 40, 40]> input_211_cast_fp16 = conv(bias = model_13_m_0_m_1_cv2_conv_bias_to_fp16, dilations = input_211_dilations_0, groups = input_211_groups_0, pad = input_211_pad_0, pad_type = input_211_pad_type_0, strides = input_211_strides_0, weight = model_13_m_0_m_1_cv2_conv_weight_to_fp16_palettized, x = input_209_cast_fp16)[name = tensor<string, []>("input_211_cast_fp16")];
            tensor<fp16, [1, 128, 40, 40]> var_794_cast_fp16 = silu(x = input_211_cast_fp16)[name = tensor<string, []>("op_794_cast_fp16")];
            tensor<fp16, [1, 128, 40, 40]> var_795_cast_fp16 = add(x = input_205_cast_fp16, y = var_794_cast_fp16)[name = tensor<string, []>("op_795_cast_fp16")];
            tensor<string, []> input_213_pad_type_0 = const()[name = tensor<string, []>("input_213_pad_type_0"), val = tensor<string, []>("valid")];
            tensor<int32, [2]> input_213_strides_0 = const()[name = tensor<string, []>("input_213_strides_0"), val = tensor<int32, [2]>([1, 1])];
            tensor<int32, [4]> input_213_pad_0 = const()[name = tensor<string, []>("input_213_pad_0"), val = tensor<int32, [4]>([0, 0, 0, 0])];
            tensor<int32, [2]> input_213_dilations_0 = const()[name = tensor<string, []>("input_213_dilations_0"), val = tensor<int32, [2]>([1, 1])];
            tensor<int32, []> input_213_groups_0 = const()[name = tensor<string, []>("input_213_groups_0"), val = tensor<int32, []>(1)];
            tensor<fp16, [128, 256, 1, 1]> model_13_m_0_cv2_conv_weight_to_fp16_palettized = constexpr_lut_to_dense()[indices = tensor<uint8, [32768]>(BLOBFILE(path = tensor<string, []>("@model_path/weights/weight.bin"), offset = tensor<uint64, []>(11540864))), lut = tensor<fp16, [256]>(BLOBFILE(path = tensor<string, []>("@model_path/weights/weight.bin"), offset = tensor<uint64, []>(11573696))), name = tensor<string, []>("model_13_m_0_cv2_conv_weight_to_fp16_palettized"), shape = tensor<uint32, [4]>([128, 256, 1, 1])];
            tensor<fp16, [128]> model_13_m_0_cv2_conv_bias_to_fp16 = const()[name = tensor<string, []>("model_13_m_0_cv2_conv_bias_to_fp16"), val = tensor<fp16, [128]>(BLOBFILE(path = tensor<string, []>("@model_path/weights/weight.bin"), offset = tensor<uint64, []>(11574272)))];
            tensor<fp16, [1, 128, 40, 40]> input_213_cast_fp16 = conv(bias = model_13_m_0_cv2_conv_bias_to_fp16, dilations = input_213_dilations_0, groups = input_213_groups_0, pad = input_213_pad_0, pad_type = input_213_pad_type_0, strides = input_213_strides_0, weight = model_13_m_0_cv2_conv_weight_to_fp16_palettized, x = var_736_cast_fp16_1)[name = tensor<string, []>("input_213_cast_fp16")];
            tensor<fp16, [1, 128, 40, 40]> var_804_cast_fp16 = silu(x = input_213_cast_fp16)[name = tensor<string, []>("op_804_cast_fp16")];
            tensor<bool, []> input_215_interleave_0 = const()[name = tensor<string, []>("input_215_interleave_0"), val = tensor<bool, []>(false)];
            tensor<fp16, [1, 256, 40, 40]> input_215_cast_fp16 = concat(axis = var_721, interleave = input_215_interleave_0, values = (var_795_cast_fp16, var_804_cast_fp16))[name = tensor<string, []>("input_215_cast_fp16")];
            tensor<string, []> input_217_pad_type_0 = const()[name = tensor<string, []>("input_217_pad_type_0"), val = tensor<string, []>("valid")];
            tensor<int32, [2]> input_217_strides_0 = const()[name = tensor<string, []>("input_217_strides_0"), val = tensor<int32, [2]>([1, 1])];
            tensor<int32, [4]> input_217_pad_0 = const()[name = tensor<string, []>("input_217_pad_0"), val = tensor<int32, [4]>([0, 0, 0, 0])];
            tensor<int32, [2]> input_217_dilations_0 = const()[name = tensor<string, []>("input_217_dilations_0"), val = tensor<int32, [2]>([1, 1])];
            tensor<int32, []> input_217_groups_0 = const()[name = tensor<string, []>("input_217_groups_0"), val = tensor<int32, []>(1)];
            tensor<fp16, [256, 256, 1, 1]> model_13_m_0_cv3_conv_weight_to_fp16_palettized = constexpr_lut_to_dense()[indices = tensor<uint8, [65536]>(BLOBFILE(path = tensor<string, []>("@model_path/weights/weight.bin"), offset = tensor<uint64, []>(11574592))), lut = tensor<fp16, [256]>(BLOBFILE(path = tensor<string, []>("@model_path/weights/weight.bin"), offset = tensor<uint64, []>(11640192))), name = tensor<string, []>("model_13_m_0_cv3_conv_weight_to_fp16_palettized"), shape = tensor<uint32, [4]>([256, 256, 1, 1])];
            tensor<fp16, [256]> model_13_m_0_cv3_conv_bias_to_fp16 = const()[name = tensor<string, []>("model_13_m_0_cv3_conv_bias_to_fp16"), val = tensor<fp16, [256]>(BLOBFILE(path = tensor<string, []>("@model_path/weights/weight.bin"), offset = tensor<uint64, []>(11640768)))];
            tensor<fp16, [1, 256, 40, 40]> input_217_cast_fp16 = conv(bias = model_13_m_0_cv3_conv_bias_to_fp16, dilations = input_217_dilations_0, groups = input_217_groups_0, pad = input_217_pad_0, pad_type = input_217_pad_type_0, strides = input_217_strides_0, weight = model_13_m_0_cv3_conv_weight_to_fp16_palettized, x = input_215_cast_fp16)[name = tensor<string, []>("input_217_cast_fp16")];
            tensor<fp16, [1, 256, 40, 40]> var_815_cast_fp16 = silu(x = input_217_cast_fp16)[name = tensor<string, []>("op_815_cast_fp16")];
            tensor<bool, []> input_219_interleave_0 = const()[name = tensor<string, []>("input_219_interleave_0"), val = tensor<bool, []>(false)];
            tensor<fp16, [1, 768, 40, 40]> input_219_cast_fp16 = concat(axis = var_721, interleave = input_219_interleave_0, values = (var_736_cast_fp16_0, var_736_cast_fp16_1, var_815_cast_fp16))[name = tensor<string, []>("input_219_cast_fp16")];
            tensor<string, []> input_221_pad_type_0 = const()[name = tensor<string, []>("input_221_pad_type_0"), val = tensor<string, []>("valid")];
            tensor<int32, [2]> input_221_strides_0 = const()[name = tensor<string, []>("input_221_strides_0"), val = tensor<int32, [2]>([1, 1])];
            tensor<int32, [4]> input_221_pad_0 = const()[name = tensor<string, []>("input_221_pad_0"), val = tensor<int32, [4]>([0, 0, 0, 0])];
            tensor<int32, [2]> input_221_dilations_0 = const()[name = tensor<string, []>("input_221_dilations_0"), val = tensor<int32, [2]>([1, 1])];
            tensor<int32, []> input_221_groups_0 = const()[name = tensor<string, []>("input_221_groups_0"), val = tensor<int32, []>(1)];
            tensor<fp16, [512, 768, 1, 1]> model_13_cv2_conv_weight_to_fp16_palettized = constexpr_lut_to_dense()[indices = tensor<uint8, [393216]>(BLOBFILE(path = tensor<string, []>("@model_path/weights/weight.bin"), offset = tensor<uint64, []>(11641344))), lut = tensor<fp16, [256]>(BLOBFILE(path = tensor<string, []>("@model_path/weights/weight.bin"), offset = tensor<uint64, []>(12034624))), name = tensor<string, []>("model_13_cv2_conv_weight_to_fp16_palettized"), shape = tensor<uint32, [4]>([512, 768, 1, 1])];
            tensor<fp16, [512]> model_13_cv2_conv_bias_to_fp16 = const()[name = tensor<string, []>("model_13_cv2_conv_bias_to_fp16"), val = tensor<fp16, [512]>(BLOBFILE(path = tensor<string, []>("@model_path/weights/weight.bin"), offset = tensor<uint64, []>(12035200)))];
            tensor<fp16, [1, 512, 40, 40]> input_221_cast_fp16 = conv(bias = model_13_cv2_conv_bias_to_fp16, dilations = input_221_dilations_0, groups = input_221_groups_0, pad = input_221_pad_0, pad_type = input_221_pad_type_0, strides = input_221_strides_0, weight = model_13_cv2_conv_weight_to_fp16_palettized, x = input_219_cast_fp16)[name = tensor<string, []>("input_221_cast_fp16")];
            tensor<fp16, [1, 512, 40, 40]> input_223_cast_fp16 = silu(x = input_221_cast_fp16)[name = tensor<string, []>("input_223_cast_fp16")];
            tensor<fp32, []> var_830_scale_factor_height_0 = const()[name = tensor<string, []>("op_830_scale_factor_height_0"), val = tensor<fp32, []>(0x1p+1)];
            tensor<fp32, []> var_830_scale_factor_width_0 = const()[name = tensor<string, []>("op_830_scale_factor_width_0"), val = tensor<fp32, []>(0x1p+1)];
            tensor<fp16, [1, 512, 80, 80]> var_830_cast_fp16 = upsample_nearest_neighbor(scale_factor_height = var_830_scale_factor_height_0, scale_factor_width = var_830_scale_factor_width_0, x = input_223_cast_fp16)[name = tensor<string, []>("op_830_cast_fp16")];
            tensor<int32, []> var_831 = const()[name = tensor<string, []>("op_831"), val = tensor<int32, []>(1)];
            tensor<bool, []> input_225_interleave_0 = const()[name = tensor<string, []>("input_225_interleave_0"), val = tensor<bool, []>(false)];
            tensor<fp16, [1, 1024, 80, 80]> input_225_cast_fp16 = concat(axis = var_831, interleave = input_225_interleave_0, values = (var_830_cast_fp16, input_79_cast_fp16))[name = tensor<string, []>("input_225_cast_fp16")];
            tensor<int32, []> var_838 = const()[name = tensor<string, []>("op_838"), val = tensor<int32, []>(1)];
            tensor<string, []> input_227_pad_type_0 = const()[name = tensor<string, []>("input_227_pad_type_0"), val = tensor<string, []>("valid")];
            tensor<int32, [2]> input_227_strides_0 = const()[name = tensor<string, []>("input_227_strides_0"), val = tensor<int32, [2]>([1, 1])];
            tensor<int32, [4]> input_227_pad_0 = const()[name = tensor<string, []>("input_227_pad_0"), val = tensor<int32, [4]>([0, 0, 0, 0])];
            tensor<int32, [2]> input_227_dilations_0 = const()[name = tensor<string, []>("input_227_dilations_0"), val = tensor<int32, [2]>([1, 1])];
            tensor<int32, []> input_227_groups_0 = const()[name = tensor<string, []>("input_227_groups_0"), val = tensor<int32, []>(1)];
            tensor<fp16, [256, 1024, 1, 1]> model_16_cv1_conv_weight_to_fp16_palettized = constexpr_lut_to_dense()[indices = tensor<uint8, [262144]>(BLOBFILE(path = tensor<string, []>("@model_path/weights/weight.bin"), offset = tensor<uint64, []>(12036288))), lut = tensor<fp16, [256]>(BLOBFILE(path = tensor<string, []>("@model_path/weights/weight.bin"), offset = tensor<uint64, []>(12298496))), name = tensor<string, []>("model_16_cv1_conv_weight_to_fp16_palettized"), shape = tensor<uint32, [4]>([256, 1024, 1, 1])];
            tensor<fp16, [256]> model_16_cv1_conv_bias_to_fp16 = const()[name = tensor<string, []>("model_16_cv1_conv_bias_to_fp16"), val = tensor<fp16, [256]>(BLOBFILE(path = tensor<string, []>("@model_path/weights/weight.bin"), offset = tensor<uint64, []>(12299072)))];
            tensor<fp16, [1, 256, 80, 80]> input_227_cast_fp16 = conv(bias = model_16_cv1_conv_bias_to_fp16, dilations = input_227_dilations_0, groups = input_227_groups_0, pad = input_227_pad_0, pad_type = input_227_pad_type_0, strides = input_227_strides_0, weight = model_16_cv1_conv_weight_to_fp16_palettized, x = input_225_cast_fp16)[name = tensor<string, []>("input_227_cast_fp16")];
            tensor<fp16, [1, 256, 80, 80]> var_851_cast_fp16 = silu(x = input_227_cast_fp16)[name = tensor<string, []>("op_851_cast_fp16")];
            tensor<int32, [2]> var_852 = const()[name = tensor<string, []>("op_852"), val = tensor<int32, [2]>([128, 128])];
            tensor<int32, []> var_853_axis_0 = const()[name = tensor<string, []>("op_853_axis_0"), val = tensor<int32, []>(1)];
            tensor<fp16, [1, 128, 80, 80]> var_853_cast_fp16_0, tensor<fp16, [1, 128, 80, 80]> var_853_cast_fp16_1 = split(axis = var_853_axis_0, split_sizes = var_852, x = var_851_cast_fp16)[name = tensor<string, []>("op_853_cast_fp16")];
            tensor<string, []> input_231_pad_type_0 = const()[name = tensor<string, []>("input_231_pad_type_0"), val = tensor<string, []>("valid")];
            tensor<int32, [2]> input_231_strides_0 = const()[name = tensor<string, []>("input_231_strides_0"), val = tensor<int32, [2]>([1, 1])];
            tensor<int32, [4]> input_231_pad_0 = const()[name = tensor<string, []>("input_231_pad_0"), val = tensor<int32, [4]>([0, 0, 0, 0])];
            tensor<int32, [2]> input_231_dilations_0 = const()[name = tensor<string, []>("input_231_dilations_0"), val = tensor<int32, [2]>([1, 1])];
            tensor<int32, []> input_231_groups_0 = const()[name = tensor<string, []>("input_231_groups_0"), val = tensor<int32, []>(1)];
            tensor<fp16, [64, 128, 1, 1]> model_16_m_0_cv1_conv_weight_to_fp16_palettized = constexpr_lut_to_dense()[indices = tensor<uint8, [8192]>(BLOBFILE(path = tensor<string, []>("@model_path/weights/weight.bin"), offset = tensor<uint64, []>(12299648))), lut = tensor<fp16, [256]>(BLOBFILE(path = tensor<string, []>("@model_path/weights/weight.bin"), offset = tensor<uint64, []>(12307904))), name = tensor<string, []>("model_16_m_0_cv1_conv_weight_to_fp16_palettized"), shape = tensor<uint32, [4]>([64, 128, 1, 1])];
            tensor<fp16, [64]> model_16_m_0_cv1_conv_bias_to_fp16 = const()[name = tensor<string, []>("model_16_m_0_cv1_conv_bias_to_fp16"), val = tensor<fp16, [64]>(BLOBFILE(path = tensor<string, []>("@model_path/weights/weight.bin"), offset = tensor<uint64, []>(12308480)))];
            tensor<fp16, [1, 64, 80, 80]> input_231_cast_fp16 = conv(bias = model_16_m_0_cv1_conv_bias_to_fp16, dilations = input_231_dilations_0, groups = input_231_groups_0, pad = input_231_pad_0, pad_type = input_231_pad_type_0, strides = input_231_strides_0, weight = model_16_m_0_cv1_conv_weight_to_fp16_palettized, x = var_853_cast_fp16_1)[name = tensor<string, []>("input_231_cast_fp16")];
            tensor<fp16, [1, 64, 80, 80]> input_233_cast_fp16 = silu(x = input_231_cast_fp16)[name = tensor<string, []>("input_233_cast_fp16")];
            tensor<string, []> input_235_pad_type_0 = const()[name = tensor<string, []>("input_235_pad_type_0"), val = tensor<string, []>("custom")];
            tensor<int32, [4]> input_235_pad_0 = const()[name = tensor<string, []>("input_235_pad_0"), val = tensor<int32, [4]>([1, 1, 1, 1])];
            tensor<int32, [2]> input_235_strides_0 = const()[name = tensor<string, []>("input_235_strides_0"), val = tensor<int32, [2]>([1, 1])];
            tensor<int32, [2]> input_235_dilations_0 = const()[name = tensor<string, []>("input_235_dilations_0"), val = tensor<int32, [2]>([1, 1])];
            tensor<int32, []> input_235_groups_0 = const()[name = tensor<string, []>("input_235_groups_0"), val = tensor<int32, []>(1)];
            tensor<fp16, [64, 64, 3, 3]> model_16_m_0_m_0_cv1_conv_weight_to_fp16_palettized = constexpr_lut_to_dense()[indices = tensor<uint8, [36864]>(BLOBFILE(path = tensor<string, []>("@model_path/weights/weight.bin"), offset = tensor<uint64, []>(12308672))), lut = tensor<fp16, [256]>(BLOBFILE(path = tensor<string, []>("@model_path/weights/weight.bin"), offset = tensor<uint64, []>(12345600))), name = tensor<string, []>("model_16_m_0_m_0_cv1_conv_weight_to_fp16_palettized"), shape = tensor<uint32, [4]>([64, 64, 3, 3])];
            tensor<fp16, [64]> model_16_m_0_m_0_cv1_conv_bias_to_fp16 = const()[name = tensor<string, []>("model_16_m_0_m_0_cv1_conv_bias_to_fp16"), val = tensor<fp16, [64]>(BLOBFILE(path = tensor<string, []>("@model_path/weights/weight.bin"), offset = tensor<uint64, []>(12346176)))];
            tensor<fp16, [1, 64, 80, 80]> input_235_cast_fp16 = conv(bias = model_16_m_0_m_0_cv1_conv_bias_to_fp16, dilations = input_235_dilations_0, groups = input_235_groups_0, pad = input_235_pad_0, pad_type = input_235_pad_type_0, strides = input_235_strides_0, weight = model_16_m_0_m_0_cv1_conv_weight_to_fp16_palettized, x = input_233_cast_fp16)[name = tensor<string, []>("input_235_cast_fp16")];
            tensor<fp16, [1, 64, 80, 80]> input_237_cast_fp16 = silu(x = input_235_cast_fp16)[name = tensor<string, []>("input_237_cast_fp16")];
            tensor<string, []> input_239_pad_type_0 = const()[name = tensor<string, []>("input_239_pad_type_0"), val = tensor<string, []>("custom")];
            tensor<int32, [4]> input_239_pad_0 = const()[name = tensor<string, []>("input_239_pad_0"), val = tensor<int32, [4]>([1, 1, 1, 1])];
            tensor<int32, [2]> input_239_strides_0 = const()[name = tensor<string, []>("input_239_strides_0"), val = tensor<int32, [2]>([1, 1])];
            tensor<int32, [2]> input_239_dilations_0 = const()[name = tensor<string, []>("input_239_dilations_0"), val = tensor<int32, [2]>([1, 1])];
            tensor<int32, []> input_239_groups_0 = const()[name = tensor<string, []>("input_239_groups_0"), val = tensor<int32, []>(1)];
            tensor<fp16, [64, 64, 3, 3]> model_16_m_0_m_0_cv2_conv_weight_to_fp16_palettized = constexpr_lut_to_dense()[indices = tensor<uint8, [36864]>(BLOBFILE(path = tensor<string, []>("@model_path/weights/weight.bin"), offset = tensor<uint64, []>(12346368))), lut = tensor<fp16, [256]>(BLOBFILE(path = tensor<string, []>("@model_path/weights/weight.bin"), offset = tensor<uint64, []>(12383296))), name = tensor<string, []>("model_16_m_0_m_0_cv2_conv_weight_to_fp16_palettized"), shape = tensor<uint32, [4]>([64, 64, 3, 3])];
            tensor<fp16, [64]> model_16_m_0_m_0_cv2_conv_bias_to_fp16 = const()[name = tensor<string, []>("model_16_m_0_m_0_cv2_conv_bias_to_fp16"), val = tensor<fp16, [64]>(BLOBFILE(path = tensor<string, []>("@model_path/weights/weight.bin"), offset = tensor<uint64, []>(12383872)))];
            tensor<fp16, [1, 64, 80, 80]> input_239_cast_fp16 = conv(bias = model_16_m_0_m_0_cv2_conv_bias_to_fp16, dilations = input_239_dilations_0, groups = input_239_groups_0, pad = input_239_pad_0, pad_type = input_239_pad_type_0, strides = input_239_strides_0, weight = model_16_m_0_m_0_cv2_conv_weight_to_fp16_palettized, x = input_237_cast_fp16)[name = tensor<string, []>("input_239_cast_fp16")];
            tensor<fp16, [1, 64, 80, 80]> var_890_cast_fp16 = silu(x = input_239_cast_fp16)[name = tensor<string, []>("op_890_cast_fp16")];
            tensor<fp16, [1, 64, 80, 80]> input_241_cast_fp16 = add(x = input_233_cast_fp16, y = var_890_cast_fp16)[name = tensor<string, []>("input_241_cast_fp16")];
            tensor<string, []> input_243_pad_type_0 = const()[name = tensor<string, []>("input_243_pad_type_0"), val = tensor<string, []>("custom")];
            tensor<int32, [4]> input_243_pad_0 = const()[name = tensor<string, []>("input_243_pad_0"), val = tensor<int32, [4]>([1, 1, 1, 1])];
            tensor<int32, [2]> input_243_strides_0 = const()[name = tensor<string, []>("input_243_strides_0"), val = tensor<int32, [2]>([1, 1])];
            tensor<int32, [2]> input_243_dilations_0 = const()[name = tensor<string, []>("input_243_dilations_0"), val = tensor<int32, [2]>([1, 1])];
            tensor<int32, []> input_243_groups_0 = const()[name = tensor<string, []>("input_243_groups_0"), val = tensor<int32, []>(1)];
            tensor<fp16, [64, 64, 3, 3]> model_16_m_0_m_1_cv1_conv_weight_to_fp16_palettized = constexpr_lut_to_dense()[indices = tensor<uint8, [36864]>(BLOBFILE(path = tensor<string, []>("@model_path/weights/weight.bin"), offset = tensor<uint64, []>(12384064))), lut = tensor<fp16, [256]>(BLOBFILE(path = tensor<string, []>("@model_path/weights/weight.bin"), offset = tensor<uint64, []>(12420992))…
ight_to_fp16_palettized, x = input_259_cast_fp16)[name = tensor<string, []>("input_381_cast_fp16")];
            tensor<fp16, [1, 256, 80, 80]> input_383_cast_fp16 = silu(x = input_381_cast_fp16)[name = tensor<string, []>("input_383_cast_fp16")];
            tensor<string, []> input_385_pad_type_0 = const()[name = tensor<string, []>("input_385_pad_type_0"), val = tensor<string, []>("valid")];
            tensor<int32, [2]> input_385_strides_0 = const()[name = tensor<string, []>("input_385_strides_0"), val = tensor<int32, [2]>([1, 1])];
            tensor<int32, [4]> input_385_pad_0 = const()[name = tensor<string, []>("input_385_pad_0"), val = tensor<int32, [4]>([0, 0, 0, 0])];
            tensor<int32, [2]> input_385_dilations_0 = const()[name = tensor<string, []>("input_385_dilations_0"), val = tensor<int32, [2]>([1, 1])];
            tensor<int32, []> input_385_groups_0 = const()[name = tensor<string, []>("input_385_groups_0"), val = tensor<int32, []>(1)];
            tensor<fp16, [256, 256, 1, 1]> model_23_cv3_0_0_1_conv_weight_to_fp16_palettized = constexpr_lut_to_dense()[indices = tensor<uint8, [65536]>(BLOBFILE(path = tensor<string, []>("@model_path/weights/weight.bin"), offset = tensor<uint64, []>(21214144))), lut = tensor<fp16, [256]>(BLOBFILE(path = tensor<string, []>("@model_path/weights/weight.bin"), offset = tensor<uint64, []>(21279744))), name = tensor<string, []>("model_23_cv3_0_0_1_conv_weight_to_fp16_palettized"), shape = tensor<uint32, [4]>([256, 256, 1, 1])];
            tensor<fp16, [256]> model_23_cv3_0_0_1_conv_bias_to_fp16 = const()[name = tensor<string, []>("model_23_cv3_0_0_1_conv_bias_to_fp16"), val = tensor<fp16, [256]>(BLOBFILE(path = tensor<string, []>("@model_path/weights/weight.bin"), offset = tensor<uint64, []>(21280320)))];
            tensor<fp16, [1, 256, 80, 80]> input_385_cast_fp16 = conv(bias = model_23_cv3_0_0_1_conv_bias_to_fp16, dilations = input_385_dilations_0, groups = input_385_groups_0, pad = input_385_pad_0, pad_type = input_385_pad_type_0, strides = input_385_strides_0, weight = model_23_cv3_0_0_1_conv_weight_to_fp16_palettized, x = input_383_cast_fp16)[name = tensor<string, []>("input_385_cast_fp16")];
            tensor<fp16, [1, 256, 80, 80]> input_387_cast_fp16 = silu(x = input_385_cast_fp16)[name = tensor<string, []>("input_387_cast_fp16")];
            tensor<string, []> input_389_pad_type_0 = const()[name = tensor<string, []>("input_389_pad_type_0"), val = tensor<string, []>("custom")];
            tensor<int32, [4]> input_389_pad_0 = const()[name = tensor<string, []>("input_389_pad_0"), val = tensor<int32, [4]>([1, 1, 1, 1])];
            tensor<int32, []> input_389_groups_0 = const()[name = tensor<string, []>("input_389_groups_0"), val = tensor<int32, []>(256)];
            tensor<int32, [2]> input_389_strides_0 = const()[name = tensor<string, []>("input_389_strides_0"), val = tensor<int32, [2]>([1, 1])];
            tensor<int32, [2]> input_389_dilations_0 = const()[name = tensor<string, []>("input_389_dilations_0"), val = tensor<int32, [2]>([1, 1])];
            tensor<fp16, [256, 1, 3, 3]> model_23_cv3_0_1_0_conv_weight_to_fp16_palettized = constexpr_lut_to_dense()[indices = tensor<uint8, [2304]>(BLOBFILE(path = tensor<string, []>("@model_path/weights/weight.bin"), offset = tensor<uint64, []>(21280896))), lut = tensor<fp16, [256]>(BLOBFILE(path = tensor<string, []>("@model_path/weights/weight.bin"), offset = tensor<uint64, []>(21283264))), name = tensor<string, []>("model_23_cv3_0_1_0_conv_weight_to_fp16_palettized"), shape = tensor<uint32, [4]>([256, 1, 3, 3])];
            tensor<fp16, [256]> model_23_cv3_0_1_0_conv_bias_to_fp16 = const()[name = tensor<string, []>("model_23_cv3_0_1_0_conv_bias_to_fp16"), val = tensor<fp16, [256]>(BLOBFILE(path = tensor<string, []>("@model_path/weights/weight.bin"), offset = tensor<uint64, []>(21283840)))];
            tensor<fp16, [1, 256, 80, 80]> input_389_cast_fp16 = conv(bias = model_23_cv3_0_1_0_conv_bias_to_fp16, dilations = input_389_dilations_0, groups = input_389_groups_0, pad = input_389_pad_0, pad_type = input_389_pad_type_0, strides = input_389_strides_0, weight = model_23_cv3_0_1_0_conv_weight_to_fp16_palettized, x = input_387_cast_fp16)[name = tensor<string, []>("input_389_cast_fp16")];
            tensor<fp16, [1, 256, 80, 80]> input_391_cast_fp16 = silu(x = input_389_cast_fp16)[name = tensor<string, []>("input_391_cast_fp16")];
            tensor<string, []> input_393_pad_type_0 = const()[name = tensor<string, []>("input_393_pad_type_0"), val = tensor<string, []>("valid")];
            tensor<int32, [2]> input_393_strides_0 = const()[name = tensor<string, []>("input_393_strides_0"), val = tensor<int32, [2]>([1, 1])];
            tensor<int32, [4]> input_393_pad_0 = const()[name = tensor<string, []>("input_393_pad_0"), val = tensor<int32, [4]>([0, 0, 0, 0])];
            tensor<int32, [2]> input_393_dilations_0 = const()[name = tensor<string, []>("input_393_dilations_0"), val = tensor<int32, [2]>([1, 1])];
            tensor<int32, []> input_393_groups_0 = const()[name = tensor<string, []>("input_393_groups_0"), val = tensor<int32, []>(1)];
            tensor<fp16, [256, 256, 1, 1]> model_23_cv3_0_1_1_conv_weight_to_fp16_palettized = constexpr_lut_to_dense()[indices = tensor<uint8, [65536]>(BLOBFILE(path = tensor<string, []>("@model_path/weights/weight.bin"), offset = tensor<uint64, []>(21284416))), lut = tensor<fp16, [256]>(BLOBFILE(path = tensor<string, []>("@model_path/weights/weight.bin"), offset = tensor<uint64, []>(21350016))), name = tensor<string, []>("model_23_cv3_0_1_1_conv_weight_to_fp16_palettized"), shape = tensor<uint32, [4]>([256, 256, 1, 1])];
            tensor<fp16, [256]> model_23_cv3_0_1_1_conv_bias_to_fp16 = const()[name = tensor<string, []>("model_23_cv3_0_1_1_conv_bias_to_fp16"), val = tensor<fp16, [256]>(BLOBFILE(path = tensor<string, []>("@model_path/weights/weight.bin"), offset = tensor<uint64, []>(21350592)))];
            tensor<fp16, [1, 256, 80, 80]> input_393_cast_fp16 = conv(bias = model_23_cv3_0_1_1_conv_bias_to_fp16, dilations = input_393_dilations_0, groups = input_393_groups_0, pad = input_393_pad_0, pad_type = input_393_pad_type_0, strides = input_393_strides_0, weight = model_23_cv3_0_1_1_conv_weight_to_fp16_palettized, x = input_391_cast_fp16)[name = tensor<string, []>("input_393_cast_fp16")];
            tensor<fp16, [1, 256, 80, 80]> input_395_cast_fp16 = silu(x = input_393_cast_fp16)[name = tensor<string, []>("input_395_cast_fp16")];
            tensor<string, []> var_1443_pad_type_0 = const()[name = tensor<string, []>("op_1443_pad_type_0"), val = tensor<string, []>("valid")];
            tensor<int32, [2]> var_1443_strides_0 = const()[name = tensor<string, []>("op_1443_strides_0"), val = tensor<int32, [2]>([1, 1])];
            tensor<int32, [4]> var_1443_pad_0 = const()[name = tensor<string, []>("op_1443_pad_0"), val = tensor<int32, [4]>([0, 0, 0, 0])];
            tensor<int32, [2]> var_1443_dilations_0 = const()[name = tensor<string, []>("op_1443_dilations_0"), val = tensor<int32, [2]>([1, 1])];
            tensor<int32, []> var_1443_groups_0 = const()[name = tensor<string, []>("op_1443_groups_0"), val = tensor<int32, []>(1)];
            tensor<fp16, [80, 256, 1, 1]> model_23_cv3_0_2_weight_to_fp16_palettized = constexpr_lut_to_dense()[indices = tensor<uint8, [20480]>(BLOBFILE(path = tensor<string, []>("@model_path/weights/weight.bin"), offset = tensor<uint64, []>(21351168))), lut = tensor<fp16, [256]>(BLOBFILE(path = tensor<string, []>("@model_path/weights/weight.bin"), offset = tensor<uint64, []>(21371712))), name = tensor<string, []>("model_23_cv3_0_2_weight_to_fp16_palettized"), shape = tensor<uint32, [4]>([80, 256, 1, 1])];
            tensor<fp16, [80]> model_23_cv3_0_2_bias_to_fp16 = const()[name = tensor<string, []>("model_23_cv3_0_2_bias_to_fp16"), val = tensor<fp16, [80]>(BLOBFILE(path = tensor<string, []>("@model_path/weights/weight.bin"), offset = tensor<uint64, []>(21372288)))];
            tensor<fp16, [1, 80, 80, 80]> var_1443_cast_fp16 = conv(bias = model_23_cv3_0_2_bias_to_fp16, dilations = var_1443_dilations_0, groups = var_1443_groups_0, pad = var_1443_pad_0, pad_type = var_1443_pad_type_0, strides = var_1443_strides_0, weight = model_23_cv3_0_2_weight_to_fp16_palettized, x = input_395_cast_fp16)[name = tensor<string, []>("op_1443_cast_fp16")];
            tensor<bool, []> xi_1_interleave_0 = const()[name = tensor<string, []>("xi_1_interleave_0"), val = tensor<bool, []>(false)];
            tensor<fp16, [1, 144, 80, 80]> xi_1_cast_fp16 = concat(axis = var_1210, interleave = xi_1_interleave_0, values = (var_1393_cast_fp16, var_1443_cast_fp16))[name = tensor<string, []>("xi_1_cast_fp16")];
            tensor<string, []> input_397_pad_type_0 = const()[name = tensor<string, []>("input_397_pad_type_0"), val = tensor<string, []>("custom")];
            tensor<int32, [4]> input_397_pad_0 = const()[name = tensor<string, []>("input_397_pad_0"), val = tensor<int32, [4]>([1, 1, 1, 1])];
            tensor<int32, [2]> input_397_strides_0 = const()[name = tensor<string, []>("input_397_strides_0"), val = tensor<int32, [2]>([1, 1])];
            tensor<int32, [2]> input_397_dilations_0 = const()[name = tensor<string, []>("input_397_dilations_0"), val = tensor<int32, [2]>([1, 1])];
            tensor<int32, []> input_397_groups_0 = const()[name = tensor<string, []>("input_397_groups_0"), val = tensor<int32, []>(1)];
            tensor<fp16, [64, 512, 3, 3]> model_23_cv2_1_0_conv_weight_to_fp16_palettized = constexpr_lut_to_dense()[indices = tensor<uint8, [294912]>(BLOBFILE(path = tensor<string, []>("@model_path/weights/weight.bin"), offset = tensor<uint64, []>(21372544))), lut = tensor<fp16, [256]>(BLOBFILE(path = tensor<string, []>("@model_path/weights/weight.bin"), offset = tensor<uint64, []>(21667520))), name = tensor<string, []>("model_23_cv2_1_0_conv_weight_to_fp16_palettized"), shape = tensor<uint32, [4]>([64, 512, 3, 3])];
            tensor<fp16, [64]> model_23_cv2_1_0_conv_bias_to_fp16 = const()[name = tensor<string, []>("model_23_cv2_1_0_conv_bias_to_fp16"), val = tensor<fp16, [64]>(BLOBFILE(path = tensor<string, []>("@model_path/weights/weight.bin"), offset = tensor<uint64, []>(21668096)))];
            tensor<fp16, [1, 64, 40, 40]> input_397_cast_fp16 = conv(bias = model_23_cv2_1_0_conv_bias_to_fp16, dilations = input_397_dilations_0, groups = input_397_groups_0, pad = input_397_pad_0, pad_type = input_397_pad_type_0, strides = input_397_strides_0, weight = model_23_cv2_1_0_conv_weight_to_fp16_palettized, x = input_297_cast_fp16)[name = tensor<string, []>("input_397_cast_fp16")];
            tensor<fp16, [1, 64, 40, 40]> input_399_cast_fp16 = silu(x = input_397_cast_fp16)[name = tensor<string, []>("input_399_cast_fp16")];
            tensor<string, []> input_401_pad_type_0 = const()[name = tensor<string, []>("input_401_pad_type_0"), val = tensor<string, []>("custom")];
            tensor<int32, [4]> input_401_pad_0 = const()[name = tensor<string, []>("input_401_pad_0"), val = tensor<int32, [4]>([1, 1, 1, 1])];
            tensor<int32, [2]> input_401_strides_0 = const()[name = tensor<string, []>("input_401_strides_0"), val = tensor<int32, [2]>([1, 1])];
            tensor<int32, [2]> input_401_dilations_0 = const()[name = tensor<string, []>("input_401_dilations_0"), val = tensor<int32, [2]>([1, 1])];
            tensor<int32, []> input_401_groups_0 = const()[name = tensor<string, []>("input_401_groups_0"), val = tensor<int32, []>(1)];
            tensor<fp16, [64, 64, 3, 3]> model_23_cv2_1_1_conv_weight_to_fp16_palettized = constexpr_lut_to_dense()[indices = tensor<uint8, [36864]>(BLOBFILE(path = tensor<string, []>("@model_path/weights/weight.bin"), offset = tensor<uint64, []>(21668288))), lut = tensor<fp16, [256]>(BLOBFILE(path = tensor<string, []>("@model_path/weights/weight.bin"), offset = tensor<uint64, []>(21705216))), name = tensor<string, []>("model_23_cv2_1_1_conv_weight_to_fp16_palettized"), shape = tensor<uint32, [4]>([64, 64, 3, 3])];
            tensor<fp16, [64]> model_23_cv2_1_1_conv_bias_to_fp16 = const()[name = tensor<string, []>("model_23_cv2_1_1_conv_bias_to_fp16"), val = tensor<fp16, [64]>(BLOBFILE(path = tensor<string, []>("@model_path/weights/weight.bin"), offset = tensor<uint64, []>(21705792)))];
            tensor<fp16, [1, 64, 40, 40]> input_401_cast_fp16 = conv(bias = model_23_cv2_1_1_conv_bias_to_fp16, dilations = input_401_dilations_0, groups = input_401_groups_0, pad = input_401_pad_0, pad_type = input_401_pad_type_0, strides = input_401_strides_0, weight = model_23_cv2_1_1_conv_weight_to_fp16_palettized, x = input_399_cast_fp16)[name = tensor<string, []>("input_401_cast_fp16")];
            tensor<fp16, [1, 64, 40, 40]> input_403_cast_fp16 = silu(x = input_401_cast_fp16)[name = tensor<string, []>("input_403_cast_fp16")];
            tensor<string, []> var_1473_pad_type_0 = const()[name = tensor<string, []>("op_1473_pad_type_0"), val = tensor<string, []>("valid")];
            tensor<int32, [2]> var_1473_strides_0 = const()[name = tensor<string, []>("op_1473_strides_0"), val = tensor<int32, [2]>([1, 1])];
            tensor<int32, [4]> var_1473_pad_0 = const()[name = tensor<string, []>("op_1473_pad_0"), val = tensor<int32, [4]>([0, 0, 0, 0])];
            tensor<int32, [2]> var_1473_dilations_0 = const()[name = tensor<string, []>("op_1473_dilations_0"), val = tensor<int32, [2]>([1, 1])];
            tensor<int32, []> var_1473_groups_0 = const()[name = tensor<string, []>("op_1473_groups_0"), val = tensor<int32, []>(1)];
            tensor<fp16, [64, 64, 1, 1]> model_23_cv2_1_2_weight_to_fp16_palettized = constexpr_lut_to_dense()[indices = tensor<uint8, [4096]>(BLOBFILE(path = tensor<string, []>("@model_path/weights/weight.bin"), offset = tensor<uint64, []>(21705984))), lut = tensor<fp16, [256]>(BLOBFILE(path = tensor<string, []>("@model_path/weights/weight.bin"), offset = tensor<uint64, []>(21710144))), name = tensor<string, []>("model_23_cv2_1_2_weight_to_fp16_palettized"), shape = tensor<uint32, [4]>([64, 64, 1, 1])];
            tensor<fp16, [64]> model_23_cv2_1_2_bias_to_fp16 = const()[name = tensor<string, []>("model_23_cv2_1_2_bias_to_fp16"), val = tensor<fp16, [64]>(BLOBFILE(path = tensor<string, []>("@model_path/weights/weight.bin"), offset = tensor<uint64, []>(21710720)))];
            tensor<fp16, [1, 64, 40, 40]> var_1473_cast_fp16 = conv(bias = model_23_cv2_1_2_bias_to_fp16, dilations = var_1473_dilations_0, groups = var_1473_groups_0, pad = var_1473_pad_0, pad_type = var_1473_pad_type_0, strides = var_1473_strides_0, weight = model_23_cv2_1_2_weight_to_fp16_palettized, x = input_403_cast_fp16)[name = tensor<string, []>("op_1473_cast_fp16")];
            tensor<string, []> input_405_pad_type_0 = const()[name = tensor<string, []>("input_405_pad_type_0"), val = tensor<string, []>("custom")];
            tensor<int32, [4]> input_405_pad_0 = const()[name = tensor<string, []>("input_405_pad_0"), val = tensor<int32, [4]>([1, 1, 1, 1])];
            tensor<int32, []> input_405_groups_0 = const()[name = tensor<string, []>("input_405_groups_0"), val = tensor<int32, []>(512)];
            tensor<int32, [2]> input_405_strides_0 = const()[name = tensor<string, []>("input_405_strides_0"), val = tensor<int32, [2]>([1, 1])];
            tensor<int32, [2]> input_405_dilations_0 = const()[name = tensor<string, []>("input_405_dilations_0"), val = tensor<int32, [2]>([1, 1])];
            tensor<fp16, [512, 1, 3, 3]> model_23_cv3_1_0_0_conv_weight_to_fp16_palettized = constexpr_lut_to_dense()[indices = tensor<uint8, [4608]>(BLOBFILE(path = tensor<string, []>("@model_path/weights/weight.bin"), offset = tensor<uint64, []>(21710912))), lut = tensor<fp16, [256]>(BLOBFILE(path = tensor<string, []>("@model_path/weights/weight.bin"), offset = tensor<uint64, []>(21715584))), name = tensor<string, []>("model_23_cv3_1_0_0_conv_weight_to_fp16_palettized"), shape = tensor<uint32, [4]>([512, 1, 3, 3])];
            tensor<fp16, [512]> model_23_cv3_1_0_0_conv_bias_to_fp16 = const()[name = tensor<string, []>("model_23_cv3_1_0_0_conv_bias_to_fp16"), val = tensor<fp16, [512]>(BLOBFILE(path = tensor<string, []>("@model_path/weights/weight.bin"), offset = tensor<uint64, []>(21716160)))];
            tensor<fp16, [1, 512, 40, 40]> input_405_cast_fp16 = conv(bias = model_23_cv3_1_0_0_conv_bias_to_fp16, dilations = input_405_dilations_0, groups = input_405_groups_0, pad = input_405_pad_0, pad_type = input_405_pad_type_0, strides = input_405_strides_0, weight = model_23_cv3_1_0_0_conv_weight_to_fp16_palettized, x = input_297_cast_fp16)[name = tensor<string, []>("input_405_cast_fp16")];
            tensor<fp16, [1, 512, 40, 40]> input_407_cast_fp16 = silu(x = input_405_cast_fp16)[name = tensor<string, []>("input_407_cast_fp16")];
            tensor<string, []> input_409_pad_type_0 = const()[name = tensor<string, []>("input_409_pad_type_0"), val = tensor<string, []>("valid")];
            tensor<int32, [2]> input_409_strides_0 = const()[name = tensor<string, []>("input_409_strides_0"), val = tensor<int32, [2]>([1, 1])];
            tensor<int32, [4]> input_409_pad_0 = const()[name = tensor<string, []>("input_409_pad_0"), val = tensor<int32, [4]>([0, 0, 0, 0])];
            tensor<int32, [2]> input_409_dilations_0 = const()[name = tensor<string, []>("input_409_dilations_0"), val = tensor<int32, [2]>([1, 1])];
            tensor<int32, []> input_409_groups_0 = const()[name = tensor<string, []>("input_409_groups_0"), val = tensor<int32, []>(1)];
            tensor<fp16, [256, 512, 1, 1]> model_23_cv3_1_0_1_conv_weight_to_fp16_palettized = constexpr_lut_to_dense()[indices = tensor<uint8, [131072]>(BLOBFILE(path = tensor<string, []>("@model_path/weights/weight.bin"), offset = tensor<uint64, []>(21717248))), lut = tensor<fp16, [256]>(BLOBFILE(path = tensor<string, []>("@model_path/weights/weight.bin"), offset = tensor<uint64, []>(21848384))), name = tensor<string, []>("model_23_cv3_1_0_1_conv_weight_to_fp16_palettized"), shape = tensor<uint32, [4]>([256, 512, 1, 1])];
            tensor<fp16, [256]> model_23_cv3_1_0_1_conv_bias_to_fp16 = const()[name = tensor<string, []>("model_23_cv3_1_0_1_conv_bias_to_fp16"), val = tensor<fp16, [256]>(BLOBFILE(path = tensor<string, []>("@model_path/weights/weight.bin"), offset = tensor<uint64, []>(21848960)))];
            tensor<fp16, [1, 256, 40, 40]> input_409_cast_fp16 = conv(bias = model_23_cv3_1_0_1_conv_bias_to_fp16, dilations = input_409_dilations_0, groups = input_409_groups_0, pad = input_409_pad_0, pad_type = input_409_pad_type_0, strides = input_409_strides_0, weight = model_23_cv3_1_0_1_conv_weight_to_fp16_palettized, x = input_407_cast_fp16)[name = tensor<string, []>("input_409_cast_fp16")];
            tensor<fp16, [1, 256, 40, 40]> input_411_cast_fp16 = silu(x = input_409_cast_fp16)[name = tensor<string, []>("input_411_cast_fp16")];
            tensor<string, []> input_413_pad_type_0 = const()[name = tensor<string, []>("input_413_pad_type_0"), val = tensor<string, []>("custom")];
            tensor<int32, [4]> input_413_pad_0 = const()[name = tensor<string, []>("input_413_pad_0"), val = tensor<int32, [4]>([1, 1, 1, 1])];
            tensor<int32, []> input_413_groups_0 = const()[name = tensor<string, []>("input_413_groups_0"), val = tensor<int32, []>(256)];
            tensor<int32, [2]> input_413_strides_0 = const()[name = tensor<string, []>("input_413_strides_0"), val = tensor<int32, [2]>([1, 1])];
            tensor<int32, [2]> input_413_dilations_0 = const()[name = tensor<string, []>("input_413_dilations_0"), val = tensor<int32, [2]>([1, 1])];
            tensor<fp16, [256, 1, 3, 3]> model_23_cv3_1_1_0_conv_weight_to_fp16_palettized = constexpr_lut_to_dense()[indices = tensor<uint8, [2304]>(BLOBFILE(path = tensor<string, []>("@model_path/weights/weight.bin"), offset = tensor<uint64, []>(21849536))), lut = tensor<fp16, [256]>(BLOBFILE(path = tensor<string, []>("@model_path/weights/weight.bin"), offset = tensor<uint64, []>(21851904))), name = tensor<string, []>("model_23_cv3_1_1_0_conv_weight_to_fp16_palettized"), shape = tensor<uint32, [4]>([256, 1, 3, 3])];
            tensor<fp16, [256]> model_23_cv3_1_1_0_conv_bias_to_fp16 = const()[name = tensor<string, []>("model_23_cv3_1_1_0_conv_bias_to_fp16"), val = tensor<fp16, [256]>(BLOBFILE(path = tensor<string, []>("@model_path/weights/weight.bin"), offset = tensor<uint64, []>(21852480)))];
            tensor<fp16, [1, 256, 40, 40]> input_413_cast_fp16 = conv(bias = model_23_cv3_1_1_0_conv_bias_to_fp16, dilations = input_413_dilations_0, groups = input_413_groups_0, pad = input_413_pad_0, pad_type = input_413_pad_type_0, strides = input_413_strides_0, weight = model_23_cv3_1_1_0_conv_weight_to_fp16_palettized, x = input_411_cast_fp16)[name = tensor<string, []>("input_413_cast_fp16")];
            tensor<fp16, [1, 256, 40, 40]> input_415_cast_fp16 = silu(x = input_413_cast_fp16)[name = tensor<string, []>("input_415_cast_fp16")];
            tensor<string, []> input_417_pad_type_0 = const()[name = tensor<string, []>("input_417_pad_type_0"), val = tensor<string, []>("valid")];
            tensor<int32, [2]> input_417_strides_0 = const()[name = tensor<string, []>("input_417_strides_0"), val = tensor<int32, [2]>([1, 1])];
            tensor<int32, [4]> input_417_pad_0 = const()[name = tensor<string, []>("input_417_pad_0"), val = tensor<int32, [4]>([0, 0, 0, 0])];
            tensor<int32, [2]> input_417_dilations_0 = const()[name = tensor<string, []>("input_417_dilations_0"), val = tensor<int32, [2]>([1, 1])];
            tensor<int32, []> input_417_groups_0 = const()[name = tensor<string, []>("input_417_groups_0"), val = tensor<int32, []>(1)];
            tensor<fp16, [256, 256, 1, 1]> model_23_cv3_1_1_1_conv_weight_to_fp16_palettized = constexpr_lut_to_dense()[indices = tensor<uint8, [65536]>(BLOBFILE(path = tensor<string, []>("@model_path/weights/weight.bin"), offset = tensor<uint64, []>(21853056))), lut = tensor<fp16, [256]>(BLOBFILE(path = tensor<string, []>("@model_path/weights/weight.bin"), offset = tensor<uint64, []>(21918656))), name = tensor<string, []>("model_23_cv3_1_1_1_conv_weight_to_fp16_palettized"), shape = tensor<uint32, [4]>([256, 256, 1, 1])];
            tensor<fp16, [256]> model_23_cv3_1_1_1_conv_bias_to_fp16 = const()[name = tensor<string, []>("model_23_cv3_1_1_1_conv_bias_to_fp16"), val = tensor<fp16, [256]>(BLOBFILE(path = tensor<string, []>("@model_path/weights/weight.bin"), offset = tensor<uint64, []>(21919232)))];
            tensor<fp16, [1, 256, 40, 40]> input_417_cast_fp16 = conv(bias = model_23_cv3_1_1_1_conv_bias_to_fp16, dilations = input_417_dilations_0, groups = input_417_groups_0, pad = input_417_pad_0, pad_type = input_417_pad_type_0, strides = input_417_strides_0, weight = model_23_cv3_1_1_1_conv_weight_to_fp16_palettized, x = input_415_cast_fp16)[name = tensor<string, []>("input_417_cast_fp16")];
            tensor<fp16, [1, 256, 40, 40]> input_419_cast_fp16 = silu(x = input_417_cast_fp16)[name = tensor<string, []>("input_419_cast_fp16")];
            tensor<string, []> var_1523_pad_type_0 = const()[name = tensor<string, []>("op_1523_pad_type_0"), val = tensor<string, []>("valid")];
            tensor<int32, [2]> var_1523_strides_0 = const()[name = tensor<string, []>("op_1523_strides_0"), val = tensor<int32, [2]>([1, 1])];
            tensor<int32, [4]> var_1523_pad_0 = const()[name = tensor<string, []>("op_1523_pad_0"), val = tensor<int32, [4]>([0, 0, 0, 0])];
            tensor<int32, [2]> var_1523_dilations_0 = const()[name = tensor<string, []>("op_1523_dilations_0"), val = tensor<int32, [2]>([1, 1])];
            tensor<int32, []> var_1523_groups_0 = const()[name = tensor<string, []>("op_1523_groups_0"), val = tensor<int32, []>(1)];
            tensor<fp16, [80, 256, 1, 1]> model_23_cv3_1_2_weight_to_fp16_palettized = constexpr_lut_to_dense()[indices = tensor<uint8, [20480]>(BLOBFILE(path = tensor<string, []>("@model_path/weights/weight.bin"), offset = tensor<uint64, []>(21919808))), lut = tensor<fp16, [256]>(BLOBFILE(path = tensor<string, []>("@model_path/weights/weight.bin"), offset = tensor<uint64, []>(21940352))), name = tensor<string, []>("model_23_cv3_1_2_weight_to_fp16_palettized"), shape = tensor<uint32, [4]>([80, 256, 1, 1])];
            tensor<fp16, [80]> model_23_cv3_1_2_bias_to_fp16 = const()[name = tensor<string, []>("model_23_cv3_1_2_bias_to_fp16"), val = tensor<fp16, [80]>(BLOBFILE(path = tensor<string, []>("@model_path/weights/weight.bin"), offset = tensor<uint64, []>(21940928)))];
            tensor<fp16, [1, 80, 40, 40]> var_1523_cast_fp16 = conv(bias = model_23_cv3_1_2_bias_to_fp16, dilations = var_1523_dilations_0, groups = var_1523_groups_0, pad = var_1523_pad_0, pad_type = var_1523_pad_type_0, strides = var_1523_strides_0, weight = model_23_cv3_1_2_weight_to_fp16_palettized, x = input_419_cast_fp16)[name = tensor<string, []>("op_1523_cast_fp16")];
            tensor<bool, []> xi_3_interleave_0 = const()[name = tensor<string, []>("xi_3_interleave_0"), val = tensor<bool, []>(false)];
            tensor<fp16, [1, 144, 40, 40]> xi_3_cast_fp16 = concat(axis = var_1210, interleave = xi_3_interleave_0, values = (var_1473_cast_fp16, var_1523_cast_fp16))[name = tensor<string, []>("xi_3_cast_fp16")];
            tensor<string, []> input_421_pad_type_0 = const()[name = tensor<string, []>("input_421_pad_type_0"), val = tensor<string, []>("custom")];
            tensor<int32, [4]> input_421_pad_0 = const()[name = tensor<string, []>("input_421_pad_0"), val = tensor<int32, [4]>([1, 1, 1, 1])];
            tensor<int32, [2]> input_421_strides_0 = const()[name = tensor<string, []>("input_421_strides_0"), val = tensor<int32, [2]>([1, 1])];
            tensor<int32, [2]> input_421_dilations_0 = const()[name = tensor<string, []>("input_421_dilations_0"), val = tensor<int32, [2]>([1, 1])];
            tensor<int32, []> input_421_groups_0 = const()[name = tensor<string, []>("input_421_groups_0"), val = tensor<int32, []>(1)];
            tensor<fp16, [64, 512, 3, 3]> model_23_cv2_2_0_conv_weight_to_fp16_palettized = constexpr_lut_to_dense()[indices = tensor<uint8, [294912]>(BLOBFILE(path = tensor<string, []>("@model_path/weights/weight.bin"), offset = tensor<uint64, []>(21941184))), lut = tensor<fp16, [256]>(BLOBFILE(path = tensor<string, []>("@model_path/weights/weight.bin"), offset = tensor<uint64, []>(22236160))), name = tensor<string, []>("model_23_cv2_2_0_conv_weight_to_fp16_palettized"), shape = tensor<uint32, [4]>([64, 512, 3, 3])];
            tensor<fp16, [64]> model_23_cv2_2_0_conv_bias_to_fp16 = const()[name = tensor<string, []>("model_23_cv2_2_0_conv_bias_to_fp16"), val = tensor<fp16, [64]>(BLOBFILE(path = tensor<string, []>("@model_path/weights/weight.bin"), offset = tensor<uint64, []>(22236736)))];
            tensor<fp16, [1, 64, 20, 20]> input_421_cast_fp16 = conv(bias = model_23_cv2_2_0_conv_bias_to_fp16, dilations = input_421_dilations_0, groups = input_421_groups_0, pad = input_421_pad_0, pad_type = input_421_pad_type_0, strides = input_421_strides_0, weight = model_23_cv2_2_0_conv_weight_to_fp16_palettized, x = input_363_cast_fp16)[name = tensor<string, []>("input_421_cast_fp16")];
            tensor<fp16, [1, 64, 20, 20]> input_423_cast_fp16 = silu(x = input_421_cast_fp16)[name = tensor<string, []>("input_423_cast_fp16")];
            tensor<string, []> input_425_pad_type_0 = const()[name = tensor<string, []>("input_425_pad_type_0"), val = tensor<string, []>("custom")];
            tensor<int32, [4]> input_425_pad_0 = const()[name = tensor<string, []>("input_425_pad_0"), val = tensor<int32, [4]>([1, 1, 1, 1])];
            tensor<int32, [2]> input_425_strides_0 = const()[name = tensor<string, []>("input_425_strides_0"), val = tensor<int32, [2]>([1, 1])];
            tensor<int32, [2]> input_425_dilations_0 = const()[name = tensor<string, []>("input_425_dilations_0"), val = tensor<int32, [2]>([1, 1])];
            tensor<int32, []> input_425_groups_0 = const()[name = tensor<string, []>("input_425_groups_0"), val = tensor<int32, []>(1)];
            tensor<fp16, [64, 64, 3, 3]> model_23_cv2_2_1_conv_weight_to_fp16_palettized = constexpr_lut_to_dense()[indices = tensor<uint8, [36864]>(BLOBFILE(path = tensor<string, []>("@model_path/weights/weight.bin"), offset = tensor<uint64, []>(22236928))), lut = tensor<fp16, [256]>(BLOBFILE(path = tensor<string, []>("@model_path/weights/weight.bin"), offset = tensor<uint64, []>(22273856))), name = tensor<string, []>("model_23_cv2_2_1_conv_weight_to_fp16_palettized"), shape = tensor<uint32, [4]>([64, 64, 3, 3])];
            tensor<fp16, [64]> model_23_cv2_2_1_conv_bias_to_fp16 = const()[name = tensor<string, []>("model_23_cv2_2_1_conv_bias_to_fp16"), val = tensor<fp16, [64]>(BLOBFILE(path = tensor<string, []>("@model_path/weights/weight.bin"), offset = tensor<uint64, []>(22274432)))];
            tensor<fp16, [1, 64, 20, 20]> input_425_cast_fp16 = conv(bias = model_23_cv2_2_1_conv_bias_to_fp16, dilations = input_425_dilations_0, groups = input_425_groups_0, pad = input_425_pad_0, pad_type = input_425_pad_type_0, strides = input_425_strides_0, weight = model_23_cv2_2_1_conv_weight_to_fp16_palettized, x = input_423_cast_fp16)[name = tensor<string, []>("input_425_cast_fp16")];
            tensor<fp16, [1, 64, 20, 20]> input_427_cast_fp16 = silu(x = input_425_cast_fp16)[name = tensor<string, []>("input_427_cast_fp16")];
            tensor<string, []> var_1553_pad_type_0 = const()[name = tensor<string, []>("op_1553_pad_type_0"), val = tensor<string, []>("valid")];
            tensor<int32, [2]> var_1553_strides_0 = const()[name = tensor<string, []>("op_1553_strides_0"), val = tensor<int32, [2]>([1, 1])];
            tensor<int32, [4]> var_1553_pad_0 = const()[name = tensor<string, []>("op_1553_pad_0"), val = tensor<int32, [4]>([0, 0, 0, 0])];
            tensor<int32, [2]> var_1553_dilations_0 = const()[name = tensor<string, []>("op_1553_dilations_0"), val = tensor<int32, [2]>([1, 1])];
            tensor<int32, []> var_1553_groups_0 = const()[name = tensor<string, []>("op_1553_groups_0"), val = tensor<int32, []>(1)];
            tensor<fp16, [64, 64, 1, 1]> model_23_cv2_2_2_weight_to_fp16_palettized = constexpr_lut_to_dense()[indices = tensor<uint8, [4096]>(BLOBFILE(path = tensor<string, []>("@model_path/weights/weight.bin"), offset = tensor<uint64, []>(22274624))), lut = tensor<fp16, [256]>(BLOBFILE(path = tensor<string, []>("@model_path/weights/weight.bin"), offset = tensor<uint64, []>(22278784))), name = tensor<string, []>("model_23_cv2_2_2_weight_to_fp16_palettized"), shape = tensor<uint32, [4]>([64, 64, 1, 1])];
            tensor<fp16, [64]> model_23_cv2_2_2_bias_to_fp16 = const()[name = tensor<string, []>("model_23_cv2_2_2_bias_to_fp16"), val = tensor<fp16, [64]>(BLOBFILE(path = tensor<string, []>("@model_path/weights/weight.bin"), offset = tensor<uint64, []>(22279360)))];
            tensor<fp16, [1, 64, 20, 20]> var_1553_cast_fp16 = conv(bias = model_23_cv2_2_2_bias_to_fp16, dilations = var_1553_dilations_0, groups = var_1553_groups_0, pad = var_1553_pad_0, pad_type = var_1553_pad_type_0, strides = var_1553_strides_0, weight = model_23_cv2_2_2_weight_to_fp16_palettized, x = input_427_cast_fp16)[name = tensor<string, []>("op_1553_cast_fp16")];
            tensor<string, []> input_429_pad_type_0 = const()[name = tensor<string, []>("input_429_pad_type_0"), val = tensor<string, []>("custom")];
            tensor<int32, [4]> input_429_pad_0 = const()[name = tensor<string, []>("input_429_pad_0"), val = tensor<int32, [4]>([1, 1, 1, 1])];
            tensor<int32, []> input_429_groups_0 = const()[name = tensor<string, []>("input_429_groups_0"), val = tensor<int32, []>(512)];
            tensor<int32, [2]> input_429_strides_0 = const()[name = tensor<string, []>("input_429_strides_0"), val = tensor<int32, [2]>([1, 1])];
            tensor<int32, [2]> input_429_dilations_0 = const()[name = tensor<string, []>("input_429_dilations_0"), val = tensor<int32, [2]>([1, 1])];
            tensor<fp16, [512, 1, 3, 3]> model_23_cv3_2_0_0_conv_weight_to_fp16_palettized = constexpr_lut_to_dense()[indices = tensor<uint8, [4608]>(BLOBFILE(path = tensor<string, []>("@model_path/weights/weight.bin"), offset = tensor<uint64, []>(22279552))), lut = tensor<fp16, [256]>(BLOBFILE(path = tensor<string, []>("@model_path/weights/weight.bin"), offset = tensor<uint64, []>(22284224))), name = tensor<string, []>("model_23_cv3_2_0_0_conv_weight_to_fp16_palettized"), shape = tensor<uint32, [4]>([512, 1, 3, 3])];
            tensor<fp16, [512]> model_23_cv3_2_0_0_conv_bias_to_fp16 = const()[name = tensor<string, []>("model_23_cv3_2_0_0_conv_bias_to_fp16"), val = tensor<fp16, [512]>(BLOBFILE(path = tensor<string, []>("@model_path/weights/weight.bin"), offset = tensor<uint64, []>(22284800)))];
            tensor<fp16, [1, 512, 20, 20]> input_429_cast_fp16 = conv(bias = model_23_cv3_2_0_0_conv_bias_to_fp16, dilations = input_429_dilations_0, groups = input_429_groups_0, pad = input_429_pad_0, pad_type = input_429_pad_type_0, strides = input_429_strides_0, weight = model_23_cv3_2_0_0_conv_weight_to_fp16_palettized, x = input_363_cast_fp16)[name = tensor<string, []>("input_429_cast_fp16")];
            tensor<fp16, [1, 512, 20, 20]> input_431_cast_fp16 = silu(x = input_429_cast_fp16)[name = tensor<string, []>("input_431_cast_fp16")];
            tensor<string, []> input_433_pad_type_0 = const()[name = tensor<string, []>("input_433_pad_type_0"), val = tensor<string, []>("valid")];
            tensor<int32, [2]> input_433_strides_0 = const()[name = tensor<string, []>("input_433_strides_0"), val = tensor<int32, [2]>([1, 1])];
            tensor<int32, [4]> input_433_pad_0 = const()[name = tensor<string, []>("input_433_pad_0"), val = tensor<int32, [4]>([0, 0, 0, 0])];
            tensor<int32, [2]> input_433_dilations_0 = const()[name = tensor<string, []>("input_433_dilations_0"), val = tensor<int32, [2]>([1, 1])];
            tensor<int32, []> input_433_groups_0 = const()[name = tensor<string, []>("input_433_groups_0"), val = tensor<int32, []>(1)];
            tensor<fp16, [256, 512, 1, 1]> model_23_cv3_2_0_1_conv_weight_to_fp16_palettized = constexpr_lut_to_dense()[indices = tensor<uint8, [131072]>(BLOBFILE(path = tensor<string, []>("@model_path/weights/weight.bin"), offset = tensor<uint64, []>(22285888))), lut = tensor<fp16, [256]>(BLOBFILE(path = tensor<string, []>("@model_path/weights/weight.bin"), offset = tensor<uint64, []>(22417024))), name = tensor<string, []>("model_23_cv3_2_0_1_conv_weight_to_fp16_palettized"), shape = tensor<uint32, [4]>([256, 512, 1, 1])];
            tensor<fp16, [256]> model_23_cv3_2_0_1_conv_bias_to_fp16 = const()[name = tensor<string, []>("model_23_cv3_2_0_1_conv_bias_to_fp16"), val = tensor<fp16, [256]>(BLOBFILE(path = tensor<string, []>("@model_path/weights/weight.bin"), offset = tensor<uint64, []>(22417600)))];
            tensor<fp16, [1, 256, 20, 20]> input_433_cast_fp16 = conv(bias = model_23_cv3_2_0_1_conv_bias_to_fp16, dilations = input_433_dilations_0, groups = input_433_groups_0, pad = input_433_pad_0, pad_type = input_433_pad_type_0, strides = input_433_strides_0, weight = model_23_cv3_2_0_1_conv_weight_to_fp16_palettized, x = input_431_cast_fp16)[name = tensor<string, []>("input_433_cast_fp16")];
            tensor<fp16, [1, 256, 20, 20]> input_435_cast_fp16 = silu(x = input_433_cast_fp16)[name = tensor<string, []>("input_435_cast_fp16")];
            tensor<string, []> input_437_pad_type_0 = const()[name = tensor<string, []>("input_437_pad_type_0"), val = tensor<string, []>("custom")];
            tensor<int32, [4]> input_437_pad_0 = const()[name = tensor<string, []>("input_437_pad_0"), val = tensor<int32, [4]>([1, 1, 1, 1])];
            tensor<int32, []> input_437_groups_0 = const()[name = tensor<string, []>("input_437_groups_0"), val = tensor<int32, []>(256)];
            tensor<int32, [2]> input_437_strides_0 = const()[name = tensor<string, []>("input_437_strides_0"), val = tensor<int32, [2]>([1, 1])];
            tensor<int32, [2]> input_437_dilations_0 = const()[name = tensor<string, []>("input_437_dilations_0"), val = tensor<int32, [2]>([1, 1])];
            tensor<fp16, [256, 1, 3, 3]> model_23_cv3_2_1_0_conv_weight_to_fp16_palettized = constexpr_lut_to_dense()[indices = tensor<uint8, [2304]>(BLOBFILE(path = tensor<string, []>("@model_path/weights/weight.bin"), offset = tensor<uint64, []>(22418176))), lut = tensor<fp16, [256]>(BLOBFILE(path = tensor<string, []>("@model_path/weights/weight.bin"), offset = tensor<uint64, []>(22420544))), name = tensor<string, []>("model_23_cv3_2_1_0_conv_weight_to_fp16_palettized"), shape = tensor<uint32, [4]>([256, 1, 3, 3])];
            tensor<fp16, [256]> model_23_cv3_2_1_0_conv_bias_to_fp16 = const()[name = tensor<string, []>("model_23_cv3_2_1_0_conv_bias_to_fp16"), val = tensor<fp16, [256]>(BLOBFILE(path = tensor<string, []>("@model_path/weights/weight.bin"), offset = tensor<uint64, []>(22421120)))];
            tensor<fp16, [1, 256, 20, 20]> input_437_cast_fp16 = conv(bias = model_23_cv3_2_1_0_conv_bias_to_fp16, dilations = input_437_dilations_0, groups = input_437_groups_0, pad = input_437_pad_0, pad_type = input_437_pad_type_0, strides = input_437_strides_0, weight = model_23_cv3_2_1_0_conv_weight_to_fp16_palettized, x = input_435_cast_fp16)[name = tensor<string, []>("input_437_cast_fp16")];
            tensor<fp16, [1, 256, 20, 20]> input_439_cast_fp16 = silu(x = input_437_cast_fp16)[name = tensor<string, []>("input_439_cast_fp16")];
            tensor<string, []> input_441_pad_type_0 = const()[name = tensor<string, []>("input_441_pad_type_0"), val = tensor<string, []>("valid")];
            tensor<int32, [2]> input_441_strides_0 = const()[name = tensor<string, []>("input_441_strides_0"), val = tensor<int32, [2]>([1, 1])];
            tensor<int32, [4]> input_441_pad_0 = const()[name = tensor<string, []>("input_441_pad_0"), val = tensor<int32, [4]>([0, 0, 0, 0])];
            tensor<int32, [2]> input_441_dilations_0 = const()[name = tensor<string, []>("input_441_dilations_0"), val = tensor<int32, [2]>([1, 1])];
            tensor<int32, []> input_441_groups_0 = const()[name = tensor<string, []>("input_441_groups_0"), val = tensor<int32, []>(1)];
            tensor<fp16, [256, 256, 1, 1]> model_23_cv3_2_1_1_conv_weight_to_fp16_palettized = constexpr_lut_to_dense()[indices = tensor<uint8, [65536]>(BLOBFILE(path = tensor<string, []>("@model_path/weights/weight.bin"), offset = tensor<uint64, []>(22421696))), lut = tensor<fp16, [256]>(BLOBFILE(path = tensor<string, []>("@model_path/weights/weight.bin"), offset = tensor<uint64, []>(22487296))), name = tensor<string, []>("model_23_cv3_2_1_1_conv_weight_to_fp16_palettized"), shape = tensor<uint32, [4]>([256, 256, 1, 1])];
            tensor<fp16, [256]> model_23_cv3_2_1_1_conv_bias_to_fp16 = const()[name = tensor<string, []>("model_23_cv3_2_1_1_conv_bias_to_fp16"), val = tensor<fp16, [256]>(BLOBFILE(path = tensor<string, []>("@model_path/weights/weight.bin"), offset = tensor<uint64, []>(22487872)))];
            tensor<fp16, [1, 256, 20, 20]> input_441_cast_fp16 = conv(bias = model_23_cv3_2_1_1_conv_bias_to_fp16, dilations = input_441_dilations_0, groups = input_441_groups_0, pad = input_441_pad_0, pad_type = input_441_pad_type_0, strides = input_441_strides_0, weight = model_23_cv3_2_1_1_conv_weight_to_fp16_palettized, x = input_439_cast_fp16)[name = tensor<string, []>("input_441_cast_fp16")];
            tensor<fp16, [1, 256, 20, 20]> input_443_cast_fp16 = silu(x = input_441_cast_fp16)[name = tensor<string, []>("input_443_cast_fp16")];
            tensor<string, []> var_1603_pad_type_0 = const()[name = tensor<string, []>("op_1603_pad_type_0"), val = tensor<string, []>("valid")];
            tensor<int32, [2]> var_1603_strides_0 = const()[name = tensor<string, []>("op_1603_strides_0"), val = tensor<int32, [2]>([1, 1])];
            tensor<int32, [4]> var_1603_pad_0 = const()[name = tensor<string, []>("op_1603_pad_0"), val = tensor<int32, [4]>([0, 0, 0, 0])];
            tensor<int32, [2]> var_1603_dilations_0 = const()[name = tensor<string, []>("op_1603_dilations_0"), val = tensor<int32, [2]>([1, 1])];
            tensor<int32, []> var_1603_groups_0 = const()[name = tensor<string, []>("op_1603_groups_0"), val = tensor<int32, []>(1)];
            tensor<fp16, [80, 256, 1, 1]> model_23_cv3_2_2_weight_to_fp16_palettized = constexpr_lut_to_dense()[indices = tensor<uint8, [20480]>(BLOBFILE(path = tensor<string, []>("@model_path/weights/weight.bin"), offset = tensor<uint64, []>(22488448))), lut = tensor<fp16, [256]>(BLOBFILE(path = tensor<string, []>("@model_path/weights/weight.bin"), offset = tensor<uint64, []>(22508992))), name = tensor<string, []>("model_23_cv3_2_2_weight_to_fp16_palettized"), shape = tensor<uint32, [4]>([80, 256, 1, 1])];
            tensor<fp16, [80]> model_23_cv3_2_2_bias_to_fp16 = const()[name = tensor<string, []>("model_23_cv3_2_2_bias_to_fp16"), val = tensor<fp16, [80]>(BLOBFILE(path = tensor<string, []>("@model_path/weights/weight.bin"), offset = tensor<uint64, []>(22509568)))];
            tensor<fp16, [1, 80, 20, 20]> var_1603_cast_fp16 = conv(bias = model_23_cv3_2_2_bias_to_fp16, dilations = var_1603_dilations_0, groups = var_1603_groups_0, pad = var_1603_pad_0, pad_type = var_1603_pad_type_0, strides = var_1603_strides_0, weight = model_23_cv3_2_2_weight_to_fp16_palettized, x = input_443_cast_fp16)[name = tensor<string, []>("op_1603_cast_fp16")];
            tensor<bool, []> xi_interleave_0 = const()[name = tensor<string, []>("xi_interleave_0"), val = tensor<bool, []>(false)];
            tensor<fp16, [1, 144, 20, 20]> xi_cast_fp16 = concat(axis = var_1210, interleave = xi_interleave_0, values = (var_1553_cast_fp16, var_1603_cast_fp16))[name = tensor<string, []>("xi_cast_fp16")];
            tensor<int32, [3]> var_1607 = const()[name = tensor<string, []>("op_1607"), val = tensor<int32, [3]>([1, 144, -1])];
            tensor<fp16, [1, 144, 6400]> var_1608_cast_fp16 = reshape(shape = var_1607, x = xi_1_cast_fp16)[name = tensor<string, []>("op_1608_cast_fp16")];
            tensor<int32, [3]> var_1609 = const()[name = tensor<string, []>("op_1609"), val = tensor<int32, [3]>([1, 144, -1])];
            tensor<fp16, [1, 144, 1600]> var_1610_cast_fp16 = reshape(shape = var_1609, x = xi_3_cast_fp16)[name = tensor<string, []>("op_1610_cast_fp16")];
            tensor<int32, [3]> var_1611 = const()[name = tensor<string, []>("op_1611"), val = tensor<int32, [3]>([1, 144, -1])];
            tensor<fp16, [1, 144, 400]> var_1612_cast_fp16 = reshape(shape = var_1611, x = xi_cast_fp16)[name = tensor<string, []>("op_1612_cast_fp16")];
            tensor<bool, []> var_1614_interleave_0 = const()[name = tensor<string, []>("op_1614_interleave_0"), val = tensor<bool, []>(false)];
            tensor<fp16, [1, 144, 8400]> var_1614_cast_fp16 = concat(axis = var_1214, interleave = var_1614_interleave_0, values = (var_1608_cast_fp16, var_1610_cast_fp16, var_1612_cast_fp16))[name = tensor<string, []>("op_1614_cast_fp16")];
            tensor<int32, [2]> var_1615 = const()[name = tensor<string, []>("op_1615"), val = tensor<int32, [2]>([64, 80])];
            tensor<int32, []> var_1616_axis_0 = const()[name = tensor<string, []>("op_1616_axis_0"), val = tensor<int32, []>(1)];
            tensor<fp16, [1, 64, 8400]> var_1616_cast_fp16_0, tensor<fp16, [1, 80, 8400]> var_1616_cast_fp16_1 = split(axis = var_1616_axis_0, split_sizes = var_1615, x = var_1614_cast_fp16)[name = tensor<string, []>("op_1616_cast_fp16")];
            tensor<int32, [4]> var_1622 = const()[name = tensor<string, []>("op_1622"), val = tensor<int32, [4]>([1, 4, 16, 8400])];
            tensor<fp16, [1, 4, 16, 8400]> var_1623_cast_fp16 = reshape(shape = var_1622, x = var_1616_cast_fp16_0)[name = tensor<string, []>("op_1623_cast_fp16")];
            tensor<int32, [4]> var_1624_perm_0 = const()[name = tensor<string, []>("op_1624_perm_0"), val = tensor<int32, [4]>([0, 2, 1, 3])];
            tensor<fp16, [1, 16, 4, 8400]> var_1624_cast_fp16 = transpose(perm = var_1624_perm_0, x = var_1623_cast_fp16)[name = tensor<string, []>("transpose_0")];
            tensor<fp16, [1, 16, 4, 8400]> input_cast_fp16 = softmax(axis = var_1210, x = var_1624_cast_fp16)[name = tensor<string, []>("input_cast_fp16")];
            tensor<string, []> var_1631_pad_type_0 = const()[name = tensor<string, []>("op_1631_pad_type_0"), val = tensor<string, []>("valid")];
            tensor<int32, [2]> var_1631_strides_0 = const()[name = tensor<string, []>("op_1631_strides_0"), val = tensor<int32, [2]>([1, 1])];
            tensor<int32, [4]> var_1631_pad_0 = const()[name = tensor<string, []>("op_1631_pad_0"), val = tensor<int32, [4]>([0, 0, 0, 0])];
            tensor<int32, [2]> var_1631_dilations_0 = const()[name = tensor<string, []>("op_1631_dilations_0"), val = tensor<int32, [2]>([1, 1])];
            tensor<int32, []> var_1631_groups_0 = const()[name = tensor<string, []>("op_1631_groups_0"), val = tensor<int32, []>(1)];
            tensor<fp16, [1, 16, 1, 1]> model_23_dfl_conv_weight_to_fp16 = const()[name = tensor<string, []>("model_23_dfl_conv_weight_to_fp16"), val = tensor<fp16, [1, 16, 1, 1]>(BLOBFILE(path = tensor<string, []>("@model_path/weights/weight.bin"), offset = tensor<uint64, []>(22509824)))];
            tensor<fp16, [1, 1, 4, 8400]> var_1631_cast_fp16 = conv(dilations = var_1631_dilations_0, groups = var_1631_groups_0, pad = var_1631_pad_0, pad_type = var_1631_pad_type_0, strides = var_1631_strides_0, weight = model_23_dfl_conv_weight_to_fp16, x = input_cast_fp16)[name = tensor<string, []>("op_1631_cast_fp16")];
            tensor<int32, [3]> var_1632 = const()[name = tensor<string, []>("op_1632"), val = tensor<int32, [3]>([1, 4, 8400])];
            tensor<fp16, [1, 4, 8400]> distance_cast_fp16 = reshape(shape = var_1632, x = var_1631_cast_fp16)[name = tensor<string, []>("distance_cast_fp16")];
            tensor<int32, [2]> var_1635_split_sizes_0 = const()[name = tensor<string, []>("op_1635_split_sizes_0"), val = tensor<int32, [2]>([2, 2])];
            tensor<int32, []> var_1635_axis_0 = const()[name = tensor<string, []>("op_1635_axis_0"), val = tensor<int32, []>(1)];
            tensor<fp16, [1, 2, 8400]> var_1635_cast_fp16_0, tensor<fp16, [1, 2, 8400]> var_1635_cast_fp16_1 = split(axis = var_1635_axis_0, split_sizes = var_1635_split_sizes_0, x = distance_cast_fp16)[name = tensor<string, []>("op_1635_cast_fp16")];
            tensor<fp16, [1, 2, 8400]> anchor_points_to_fp16_palettized = constexpr_lut_to_dense()[indices = tensor<uint8, [16800]>(BLOBFILE(path = tensor<string, []>("@model_path/weights/weight.bin"), offset = tensor<uint64, []>(22509952))), lut = tensor<fp16, [256]>(BLOBFILE(path = tensor<string, []>("@model_path/weights/weight.bin"), offset = tensor<uint64, []>(22526848))), name = tensor<string, []>("anchor_points_to_fp16_palettized"), shape = tensor<uint32, [3]>([1, 2, 8400])];
            tensor<fp16, [1, 2, 8400]> x1y1_cast_fp16 = sub(x = anchor_points_to_fp16_palettized, y = var_1635_cast_fp16_0)[name = tensor<string, []>("x1y1_cast_fp16")];
            tensor<fp16, [1, 2, 8400]> x2y2_cast_fp16 = add(x = anchor_points_to_fp16_palettized, y = var_1635_cast_fp16_1)[name = tensor<string, []>("x2y2_cast_fp16")];
            tensor<fp16, [1, 2, 8400]> var_1639_cast_fp16 = add(x = x1y1_cast_fp16, y = x2y2_cast_fp16)[name = tensor<string, []>("op_1639_cast_fp16")];
            tensor<fp16, []> _inversed_c_xy_y_0_to_fp16 = const()[name = tensor<string, []>("_inversed_c_xy_y_0_to_fp16"), val = tensor<fp16, []>(0x1p-1)];
            tensor<fp16, [1, 2, 8400]> _inversed_c_xy_cast_fp16 = mul(x = var_1639_cast_fp16, y = _inversed_c_xy_y_0_to_fp16)[name = tensor<string, []>("_inversed_c_xy_cast_fp16")];
            tensor<fp16, [1, 2, 8400]> wh_cast_fp16 = sub(x = x2y2_cast_fp16, y = x1y1_cast_fp16)[name = tensor<string, []>("wh_cast_fp16")];
            tensor<bool, []> var_1644_interleave_0 = const()[name = tensor<string, []>("op_1644_interleave_0"), val = tensor<bool, []>(false)];
            tensor<fp16, [1, 4, 8400]> var_1644_cast_fp16 = concat(axis = var_1210, interleave = var_1644_interleave_0, values = (_inversed_c_xy_cast_fp16, wh_cast_fp16))[name = tensor<string, []>("op_1644_cast_fp16")];
            tensor<fp16, [1, 8400]> op_1198_to_fp16_palettized = constexpr_lut_to_dense()[indices = tensor<uint8, [8400]>(BLOBFILE(path = tensor<string, []>("@model_path/weights/weight.bin"), offset = tensor<uint64, []>(22527424))), lut = tensor<fp16, [256]>(BLOBFILE(path = tensor<string, []>("@model_path/weights/weight.bin"), offset = tensor<uint64, []>(22535936))), name = tensor<string, []>("op_1198_to_fp16_palettized"), shape = tensor<uint32, [2]>([1, 8400])];
            tensor<fp16, [1, 4, 8400]> dbox_cast_fp16 = mul(x = var_1644_cast_fp16, y = op_1198_to_fp16_palettized)[name = tensor<string, []>("dbox_cast_fp16")];
            tensor<fp16, [1, 80, 8400]> var_1646_cast_fp16 = sigmoid(x = var_1616_cast_fp16_1)[name = tensor<string, []>("op_1646_cast_fp16")];
            tensor<bool, []> var_1648_interleave_0 = const()[name = tensor<string, []>("op_1648_interleave_0"), val = tensor<bool, []>(false)];
            tensor<fp16, [1, 116, 8400]> var_1648_cast_fp16 = concat(axis = var_1210, interleave = var_1648_interleave_0, values = (dbox_cast_fp16, var_1646_cast_fp16, mc_cast_fp16))[name = tensor<string, []>("op_1648_cast_fp16")];
            tensor<string, []> var_1648_cast_fp16_to_fp32_dtype_0 = const()[name = tensor<string, []>("op_1648_cast_fp16_to_fp32_dtype_0"), val = tensor<string, []>("fp32")];
            tensor<fp32, [1, 32, 160, 160]> p = cast(dtype = p_cast_fp16_to_fp32_dtype_0, x = p_cast_fp16)[name = tensor<string, []>("cast_0")];
            tensor<fp32, [1, 116, 8400]> var_1648 = cast(dtype = var_1648_cast_fp16_to_fp32_dtype_0, x = var_1648_cast_fp16)[name = tensor<string, []>("cast_1")];
        } -> (var_1648, p);
}