program(1.0)
[buildInfo = dict<tensor<string, []>, tensor<string, []>>({{"coremlc-component-MIL", "3510.2.1"}, {"coremlc-version", "3500.32.1"}})]
{
    func main<ios16>(tensor<fp32, [1, 3, 640, 640]> image) {
            tensor<fp32, []> image__scaled___y_0 = const()[name = tensor<string, []>("image__scaled___y_0"), val = tensor<fp32, []>(0x1.010102p-8)];
            tensor<fp32, [1, 3, 640, 640]> image__scaled__ = mul(x = image, y = image__scaled___y_0)[name = tensor<string, []>("image__scaled__")];
            tensor<string, []> input_1_pad_type_0 = const()[name = tensor<string, []>("input_1_pad_type_0"), val = tensor<string, []>("custom")];
            tensor<int32, [4]> input_1_pad_0 = const()[name = tensor<string, []>("input_1_pad_0"), val = tensor<int32, [4]>([1, 1, 1, 1])];
            tensor<int32, [2]> input_1_strides_0 = const()[name = tensor<string, []>("input_1_strides_0"), val = tensor<int32, [2]>([2, 2])];
            tensor<int32, [2]> input_1_dilations_0 = const()[name = tensor<string, []>("input_1_dilations_0"), val = tensor<int32, [2]>([1, 1])];
            tensor<int32, []> input_1_groups_0 = const()[name = tensor<string, []>("input_1_groups_0"), val = tensor<int32, []>(1)];
            tensor<string, []> image_to_fp16_dtype_0 = const()[name = tensor<string, []>("image_to_fp16_dtype_0"), val = tensor<string, []>("fp16")];
            tensor<fp16, [64, 3, 3, 3]> model_0_conv_weight_to_fp16_palettized = constexpr_lut_to_dense()[indices = tensor<uint8, [1728]>(BLOBFILE(path = tensor<string, []>("@model_path/weights/weight.bin"), offset = tensor<uint64, []>(64))), lut = tensor<fp16, [256]>(BLOBFILE(path = tensor<string, []>("@model_path/weights/weight.bin"), offset = tensor<uint64, []>(1856))), name = tensor<string, []>("model_0_conv_weight_to_fp16_palettized"), shape = tensor<uint32, [4]>([64, 3, 3, 3])];
            tensor<fp16, [64]> model_0_conv_bias_to_fp16 = const()[name = tensor<string, []>("model_0_conv_bias_to_fp16"), val = tensor<fp16, [64]>(BLOBFILE(path = tensor<string, []>("@model_path/weights/weight.bin"), offset = tensor<uint64, []>(2432)))];
            tensor<fp16, [1, 3, 640, 640]> image_to_fp16 = cast(dtype = image_to_fp16_dtype_0, x = image__scaled__)[name = tensor<string, []>("cast_2")];
            tensor<fp16, [1, 64, 320, 320]> input_1_cast_fp16 = conv(bias = model_0_conv_bias_to_fp16, dilations = input_1_dilations_0, groups = input_1_groups_0, pad = input_1_pad_0, pad_type = input_1_pad_type_0, strides = input_1_strides_0, weight = model_0_conv_weight_to_fp16_palettized, x = image_to_fp16)[name = tensor<string, []>("input_1_cast_fp16")];
            tensor<fp16, [1, 64, 320, 320]> input_3_cast_fp16 = silu(x = input_1_cast_fp16)[name = tensor<string, []>("input_3_cast_fp16")];
            tensor<string, []> input_5_pad_type_0 = const()[name = tensor<string, []>("input_5_pad_type_0"), val = tensor<string, []>("custom")];
            tensor<int32, [4]> input_5_pad_0 = const()[name = tensor<string, []>("input_5_pad_0"), val = tensor<int32, [4]>([1, 1, 1, 1])];
            tensor<int32, [2]> input_5_strides_0 = const()[name = tensor<string, []>("input_5_strides_0"), val = tensor<int32, [2]>([2, 2])];
            tensor<int32, [2]> input_5_dilations_0 = const()[name = tensor<string, []>("input_5_dilations_0"), val = tensor<int32, [2]>([1, 1])];
            tensor<int32, []> input_5_groups_0 = const()[name = tensor<string, []>("input_5_groups_0"), val = tensor<int32, []>(1)];
            tensor<fp16, [128, 64, 3, 3]> model_1_conv_weight_to_fp16_palettized = constexpr_lut_to_dense()[indices = tensor<uint8, [73728]>(BLOBFILE(path = tensor<string, []>("@model_path/weights/weight.bin"), offset = tensor<uint64, []>(2624))), lut = tensor<fp16, [256]>(BLOBFILE(path = tensor<string, []>("@model_path/weights/weight.bin"), offset = tensor<uint64, []>(76416))), name = tensor<string, []>("model_1_conv_weight_to_fp16_palettized"), shape = tensor<uint32, [4]>([128, 64, 3, 3])];
            tensor<fp16, [128]> model_1_conv_bias_to_fp16 = const()[name = tensor<string, []>("model_1_conv_bias_to_fp16"), val = tensor<fp16, [128]>(BLOBFILE(path = tensor<string, []>("@model_path/weights/weight.bin"), offset = tensor<uint64, []>(76992)))];
            tensor<fp16, [1, 128, 160, 160]> input_5_cast_fp16 = conv(bias = model_1_conv_bias_to_fp16, dilations = input_5_dilations_0, groups = input_5_groups_0, pad = input_5_pad_0, pad_type = input_5_pad_type_0, strides = input_5_strides_0, weight = model_1_conv_weight_to_fp16_palettized, x = input_3_cast_fp16)[name = tensor<string, []>("input_5_cast_fp16")];
            tensor<fp16, [1, 128, 160, 160]> input_7_cast_fp16 = silu(x = input_5_cast_fp16)[name = tensor<string, []>("input_7_cast_fp16")];
            tensor<int32, []> var_70 = const()[name = tensor<string, []>("op_70"), val = tensor<int32, []>(1)];
            tensor<string, []> input_9_pad_type_0 = const()[name = tensor<string, []>("input_9_pad_type_0"), val = tensor<string, []>("valid")];
            tensor<int32, [2]> input_9_strides_0 = const()[name = tensor<string, []>("input_9_strides_0"), val = tensor<int32, [2]>([1, 1])];
            tensor<int32, [4]> input_9_pad_0 = const()[name = tensor<string, []>("input_9_pad_0"), val = tensor<int32, [4]>([0, 0, 0, 0])];
            tensor<int32, [2]> input_9_dilations_0 = const()[name = tensor<string, []>("input_9_dilations_0"), val = tensor<int32, [2]>([1, 1])];
            tensor<int32, []> input_9_groups_0 = const()[name = tensor<string, []>("input_9_groups_0"), val = tensor<int32, []>(1)];
            tensor<fp16, [128, 128, 1, 1]> model_2_cv1_conv_weight_to_fp16_palettized = constexpr_lut_to_dense()[indices = tensor<uint8, [16384]>(BLOBFILE(path = tensor<string, []>("@model_path/weights/weight.bin"), offset = tensor<uint64, []>(77312))), lut = tensor<fp16, [256]>(BLOBFILE(path = tensor<string, []>("@model_path/weights/weight.bin"), offset = tensor<uint64, []>(93760))), name = tensor<string, []>("model_2_cv1_conv_weight_to_fp16_palettized"), shape = tensor<uint32, [4]>([128, 128, 1, 1])];
            tensor<fp16, [128]> model_2_cv1_conv_bias_to_fp16 = const()[name = tensor<string, []>("model_2_cv1_conv_bias_to_fp16"), val = tensor<fp16, [128]>(BLOBFILE(path = tensor<string, []>("@model_path/weights/weight.bin"), offset = tensor<uint64, []>(94336)))];
            tensor<fp16, [1, 128, 160, 160]> input_9_cast_fp16 = conv(bias = model_2_cv1_conv_bias_to_fp16, dilations = input_9_dilations_0, groups = input_9_groups_0, pad = input_9_pad_0, pad_type = input_9_pad_type_0, strides = input_9_strides_0, weight = model_2_cv1_conv_weight_to_fp16_palettized, x = input_7_cast_fp16)[name = tensor<string, []>("input_9_cast_fp16")];
            tensor<fp16, [1, 128, 160, 160]> var_85_cast_fp16 = silu(x = input_9_cast_fp16)[name = tensor<string, []>("op_85_cast_fp16")];
            tensor<int32, [2]> var_86 = const()[name = tensor<string, []>("op_86"), val = tensor<int32, [2]>([64, 64])];
            tensor<int32, []> var_87_axis_0 = const()[name = tensor<string, []>("op_87_axis_0"), val = tensor<int32, []>(1)];
            tensor<fp16, [1, 64, 160, 160]> var_87_cast_fp16_0, tensor<fp16, [1, 64, 160, 160]> var_87_cast_fp16_1 = split(axis = var_87_axis_0, split_sizes = var_86, x = var_85_cast_fp16)[name = tensor<string, []>("op_87_cast_fp16")];
            tensor<string, []> input_13_pad_type_0 = const()[name = tensor<string, []>("input_13_pad_type_0"), val = tensor<string, []>("valid")];
            tensor<int32, [2]> input_13_strides_0 = const()[name = tensor<string, []>("input_13_strides_0"), val = tensor<int32, [2]>([1, 1])];
            tensor<int32, [4]> input_13_pad_0 = const()[name = tensor<string, []>("input_13_pad_0"), val = tensor<int32, [4]>([0, 0, 0, 0])];
            tensor<int32, [2]> input_13_dilations_0 = const()[name = tensor<string, []>("input_13_dilations_0"), val = tensor<int32, [2]>([1, 1])];
            tensor<int32, []> input_13_groups_0 = const()[name = tensor<string, []>("input_13_groups_0"), val = tensor<int32, []>(1)];
            tensor<fp16, [32, 64, 1, 1]> model_2_m_0_cv1_conv_weight_to_fp16_palettized = constexpr_lut_to_dense()[indices = tensor<uint8, [2048]>(BLOBFILE(path = tensor<string, []>("@model_path/weights/weight.bin"), offset = tensor<uint64, []>(94656))), lut = tensor<fp16, [256]>(BLOBFILE(path = tensor<string, []>("@model_path/weights/weight.bin"), offset = tensor<uint64, []>(96768))), name = tensor<string, []>("model_2_m_0_cv1_conv_weight_to_fp16_palettized"), shape = tensor<uint32, [4]>([32, 64, 1, 1])];
            tensor<fp16, [32]> model_2_m_0_cv1_conv_bias_to_fp16 = const()[name = tensor<string, []>("model_2_m_0_cv1_conv_bias_to_fp16"), val = tensor<fp16, [32]>(BLOBFILE(path = tensor<string, []>("@model_path/weights/weight.bin"), offset = tensor<uint64, []>(97344)))];
            tensor<fp16, [1, 32, 160, 160]> input_13_cast_fp16 = conv(bias = model_2_m_0_cv1_conv_bias_to_fp16, dilations = input_13_dilations_0, groups = input_13_groups_0, pad = input_13_pad_0, pad_type = input_13_pad_type_0, strides = input_13_strides_0, weight = model_2_m_0_cv1_conv_weight_to_fp16_palettized, x = var_87_cast_fp16_1)[name = tensor<string, []>("input_13_cast_fp16")];
            tensor<fp16, [1, 32, 160, 160]> input_15_cast_fp16 = silu(x = input_13_cast_fp16)[name = tensor<string, []>("input_15_cast_fp16")];
            tensor<string, []> input_17_pad_type_0 = const()[name = tensor<string, []>("input_17_pad_type_0"), val = tensor<string, []>("custom")];
            tensor<int32, [4]> input_17_pad_0 = const()[name = tensor<string, []>("input_17_pad_0"), val = tensor<int32, [4]>([1, 1, 1, 1])];
            tensor<int32, [2]> input_17_strides_0 = const()[name = tensor<string, []>("input_17_strides_0"), val = tensor<int32, [2]>([1, 1])];
            tensor<int32, [2]> input_17_dilations_0 = const()[name = tensor<string, []>("input_17_dilations_0"), val = tensor<int32, [2]>([1, 1])];
            tensor<int32, []> input_17_groups_0 = const()[name = tensor<string, []>("input_17_groups_0"), val = tensor<int32, []>(1)];
            tensor<fp16, [32, 32, 3, 3]> model_2_m_0_m_0_cv1_conv_weight_to_fp16_palettized = constexpr_lut_to_dense()[indices = tensor<uint8, [9216]>(BLOBFILE(path = tensor<string, []>("@model_path/weights/weight.bin"), offset = tensor<uint64, []>(97472))), lut = tensor<fp16, [256]>(BLOBFILE(path = tensor<string, []>("@model_path/weights/weight.bin"), offset = tensor<uint64, []>(106752))), name = tensor<string, []>("model_2_m_0_m_0_cv1_conv_weight_to_fp16_palettized"), shape = tensor<uint32, [4]>([32, 32, 3, 3])];
            tensor<fp16, [32]> model_2_m_0_m_0_cv1_conv_bias_to_fp16 = const()[name = tensor<string, []>("model_2_m_0_m_0_cv1_conv_bias_to_fp16"), val = tensor<fp16, [32]>(BLOBFILE(path = tensor<string, []>("@model_path/weights/weight.bin"), offset = tensor<uint64, []>(107328)))];
            tensor<fp16, [1, 32, 160, 160]> input_17_cast_fp16 = conv(bias = model_2_m_0_m_0_cv1_conv_bias_to_fp16, dilations = input_17_dilations_0, groups = input_17_groups_0, pad = input_17_pad_0, pad_type = input_17_pad_type_0, strides = input_17_strides_0, weight = model_2_m_0_m_0_cv1_conv_weight_to_fp16_palettized, x = input_15_cast_fp16)[name = tensor<string, []>("input_17_cast_fp16")];
            tensor<fp16, [1, 32, 160, 160]> input_19_cast_fp16 = silu(x = input_17_cast_fp16)[name = tensor<string, []>("input_19_cast_fp16")];
            tensor<string, []> input_21_pad_type_0 = const()[name = tensor<string, []>("input_21_pad_type_0"), val = tensor<string, []>("custom")];
            tensor<int32, [4]> input_21_pad_0 = const()[name = tensor<string, []>("input_21_pad_0"), val = tensor<int32, [4]>([1, 1, 1, 1])];
            tensor<int32, [2]> input_21_strides_0 = const()[name = tensor<string, []>("input_21_strides_0"), val = tensor<int32, [2]>([1, 1])];
            tensor<int32, [2]> input_21_dilations_0 = const()[name = tensor<string, []>("input_21_dilations_0"), val = tensor<int32, [2]>([1, 1])];
            tensor<int32, []> input_21_groups_0 = const()[name = tensor<string, []>("input_21_groups_0"), val = tensor<int32, []>(1)];
            tensor<fp16, [32, 32, 3, 3]> model_2_m_0_m_0_cv2_conv_weight_to_fp16_palettized = constexpr_lut_to_dense()[indices = tensor<uint8, [9216]>(BLOBFILE(path = tensor<string, []>("@model_path/weights/weight.bin"), offset = tensor<uint64, []>(107456))), lut = tensor<fp16, [256]>(BLOBFILE(path = tensor<string, []>("@model_path/weights/weight.bin"), offset = tensor<uint64, []>(116736))), name = tensor<string, []>("model_2_m_0_m_0_cv2_conv_weight_to_fp16_palettized"), shape = tensor<uint32, [4]>([32, 32, 3, 3])];
            tensor<fp16, [32]> model_2_m_0_m_0_cv2_conv_bias_to_fp16 = const()[name = tensor<string, []>("model_2_m_0_m_0_cv2_conv_bias_to_fp16"), val = tensor<fp16, [32]>(BLOBFILE(path = tensor<string, []>("@model_path/weights/weight.bin"), offset = tensor<uint64, []>(117312)))];
            tensor<fp16, [1, 32, 160, 160]> input_21_cast_fp16 = conv(bias = model_2_m_0_m_0_cv2_conv_bias_to_fp16, dilations = input_21_dilations_0, groups = input_21_groups_0, pad = input_21_pad_0, pad_type = input_21_pad_type_0, strides = input_21_strides_0, weight = model_2_m_0_m_0_cv2_conv_weight_to_fp16_palettized, x = input_19_cast_fp16)[name = tensor<string, []>("input_21_cast_fp16")];
            tensor<fp16, [1, 32, 160, 160]> var_124_cast_fp16 = silu(x = input_21_cast_fp16)[name = tensor<string, []>("op_124_cast_fp16")];
            tensor<fp16, [1, 32, 160, 160]> input_23_cast_fp16 = add(x = input_15_cast_fp16, y = var_124_cast_fp16)[name = tensor<string, []>("input_23_cast_fp16")];
            tensor<string, []> input_25_pad_type_0 = const()[name = tensor<string, []>("input_25_pad_type_0"), val = tensor<string, []>("custom")];
            tensor<int32, [4]> input_25_pad_0 = const()[name = tensor<string, []>("input_25_pad_0"), val = tensor<int32, [4]>([1, 1, 1, 1])];
            tensor<int32, [2]> input_25_strides_0 = const()[name = tensor<string, []>("input_25_strides_0"), val = tensor<int32, [2]>([1, 1])];
            tensor<int32, [2]> input_25_dilations_0 = const()[name = tensor<string, []>("input_25_dilations_0"), val = tensor<int32, [2]>([1, 1])];
            tensor<int32, []> input_25_groups_0 = const()[name = tensor<string, []>("input_25_groups_0"), val = tensor<int32, []>(1)];
            tensor<fp16, [32, 32, 3, 3]> model_2_m_0_m_1_cv1_conv_weight_to_fp16_palettized = constexpr_lut_to_dense()[indices = tensor<uint8, [9216]>(BLOBFILE(path = tensor<string, []>("@model_path/weights/weight.bin"), offset = tensor<uint64, []>(117440))), lut = tensor<fp16, [256]>(BLOBFILE(path = tensor<string, []>("@model_path/weights/weight.bin"), offset = tensor<uint64, []>(126720))), name = tensor<string, []>("model_2_m_0_m_1_cv1_conv_weight_to_fp16_palettized"), shape = tensor<uint32, [4]>([32, 32, 3, 3])];
            tensor<fp16, [32]> model_2_m_0_m_1_cv1_conv_bias_to_fp16 = const()[name = tensor<string, []>("model_2_m_0_m_1_cv1_conv_bias_to_fp16"), val = tensor<fp16, [32]>(BLOBFILE(path = tensor<string, []>("@model_path/weights/weight.bin"), offset = tensor<uint64, []>(127296)))];
            tensor<fp16, [1, 32, 160, 160]> input_25_cast_fp16 = conv(bias = model_2_m_0_m_1_cv1_conv_bias_to_fp16, dilations = input_25_dilations_0, groups = input_25_groups_0, pad = input_25_pad_0, pad_type = input_25_pad_type_0, strides = input_25_strides_0, weight = model_2_m_0_m_1_cv1_conv_weight_to_fp16_palettized, x = input_23_cast_fp16)[name = tensor<string, []>("input_25_cast_fp16")];
            tensor<fp16, [1, 32, 160, 160]> input_27_cast_fp16 = silu(x = input_25_cast_fp16)[name = tensor<string, []>("input_27_cast_fp16")];
            tensor<string, []> input_29_pad_type_0 = const()[name = tensor<string, []>("input_29_pad_type_0"), val = tensor<string, []>("custom")];
            tensor<int32, [4]> input_29_pad_0 = const()[name = tensor<string, []>("input_29_pad_0"), val = tensor<int32, [4]>([1, 1, 1, 1])];
            tensor<int32, [2]> input_29_strides_0 = const()[name = tensor<string, []>("input_29_strides_0"), val = tensor<int32, [2]>([1, 1])];
            tensor<int32, [2]> input_29_dilations_0 = const()[name = tensor<string, []>("input_29_dilations_0"), val = tensor<int32, [2]>([1, 1])];
            tensor<int32, []> input_29_groups_0 = const()[name = tensor<string, []>("input_29_groups_0"), val = tensor<int32, []>(1)];
            tensor<fp16, [32, 32, 3, 3]> model_2_m_0_m_1_cv2_conv_weight_to_fp16_palettized = constexpr_lut_to_dense()[indices = tensor<uint8, [9216]>(BLOBFILE(path = tensor<string, []>("@model_path/weights/weight.bin"), offset = tensor<uint64, []>(127424))), lut = tensor<fp16, [256]>(BLOBFILE(path = tensor<string, []>("@model_path/weights/weight.bin"), offset = tensor<uint64, []>(136704))), name = tensor<string, []>("model_2_m_0_m_1_cv2_conv_weight_to_fp16_palettized"), shape = tensor<uint32, [4]>([32, 32, 3, 3])];
            tensor<fp16, [32]> model_2_m_0_m_1_cv2_conv_bias_to_fp16 = const()[name = tensor<string, []>("model_2_m_0_m_1_cv2_conv_bias_to_fp16"), val = tensor<fp16, [32]>(BLOBFILE(path = tensor<string, []>("@model_path/weights/weight.bin"), offset = tensor<uint64, []>(137280)))];
            tensor<fp16, [1, 32, 160, 160]> input_29_cast_fp16 = conv(bias = model_2_m_0_m_1_cv2_conv_bias_to_fp16, dilations = input_29_dilations_0, groups = input_29_groups_0, pad = input_29_pad_0, pad_type = input_29_pad_type_0, strides = input_29_strides_0, weight = model_2_m_0_m_1_cv2_conv_weight_to_fp16_palettized, x = input_27_cast_fp16)[name = tensor<string, []>("input_29_cast_fp16")];
            tensor<fp16, [1, 32, 160, 160]> var_145_cast_fp16 = silu(x = input_29_cast_fp16)[name = tensor<string, []>("op_145_cast_fp16")];
            tensor<fp16, [1, 32, 160, 160]> var_146_cast_fp16 = add(x = input_23_cast_fp16, y = var_145_cast_fp16)[name = tensor<string, []>("op_146_cast_fp16")];
            tensor<string, []> input_31_pad_type_0 = const()[name = tensor<string, []>("input_31_pad_type_0"), val = tensor<string, []>("valid")];
            tensor<int32, [2]> input_31_strides_0 = const()[name = tensor<string, []>("input_31_strides_0"), val = tensor<int32, [2]>([1, 1])];
            tensor<int32, [4]> input_31_pad_0 = const()[name = tensor<string, []>("input_31_pad_0"), val = tensor<int32, [4]>([0, 0, 0, 0])];
            tensor<int32, [2]> input_31_dilations_0 = const()[name = tensor<string, []>("input_31_dilations_0"), val = tensor<int32, [2]>([1, 1])];
            tensor<int32, []> input_31_groups_0 = const()[name = tensor<string, []>("input_31_groups_0"), val = tensor<int32, []>(1)];
            tensor<fp16, [32, 64, 1, 1]> model_2_m_0_cv2_conv_weight_to_fp16_palettized = constexpr_lut_to_dense()[indices = tensor<uint8, [2048]>(BLOBFILE(path = tensor<string, []>("@model_path/weights/weight.bin"), offset = tensor<uint64, []>(137408))), lut = tensor<fp16, [256]>(BLOBFILE(path = tensor<string, []>("@model_path/weights/weight.bin"), offset = tensor<uint64, []>(139520))), name = tensor<string, []>("model_2_m_0_cv2_conv_weight_to_fp16_palettized"), shape = tensor<uint32, [4]>([32, 64, 1, 1])];
            tensor<fp16, [32]> model_2_m_0_cv2_conv_bias_to_fp16 = const()[name = tensor<string, []>("model_2_m_0_cv2_conv_bias_to_fp16"), val = tensor<fp16, [32]>(BLOBFILE(path = tensor<string, []>("@model_path/weights/weight.bin"), offset = tensor<uint64, []>(140096)))];
            tensor<fp16, [1, 32, 160, 160]> input_31_cast_fp16 = conv(bias = model_2_m_0_cv2_conv_bias_to_fp16, dilations = input_31_dilations_0, groups = input_31_groups_0, pad = input_31_pad_0, pad_type = input_31_pad_type_0, strides = input_31_strides_0, weight = model_2_m_0_cv2_conv_weight_to_fp16_palettized, x = var_87_cast_fp16_1)[name = tensor<string, []>("input_31_cast_fp16")];
            tensor<fp16, [1, 32, 160, 160]> var_155_cast_fp16 = silu(x = input_31_cast_fp16)[name = tensor<string, []>("op_155_cast_fp16")];
            tensor<bool, []> input_33_interleave_0 = const()[name = tensor<string, []>("input_33_interleave_0"), val = tensor<bool, []>(false)];
            tensor<fp16, [1, 64, 160, 160]> input_33_cast_fp16 = concat(axis = var_70, interleave = input_33_interleave_0, values = (var_146_cast_fp16, var_155_cast_fp16))[name = tensor<string, []>("input_33_cast_fp16")];
            tensor<string, []> input_35_pad_type_0 = const()[name = tensor<string, []>("input_35_pad_type_0"), val = tensor<string, []>("valid")];
            tensor<int32, [2]> input_35_strides_0 = const()[name = tensor<string, []>("input_35_strides_0"), val = tensor<int32, [2]>([1, 1])];
            tensor<int32, [4]> input_35_pad_0 = const()[name = tensor<string, []>("input_35_pad_0"), val = tensor<int32, [4]>([0, 0, 0, 0])];
            tensor<int32, [2]> input_35_dilations_0 = const()[name = tensor<string, []>("input_35_dilations_0"), val = tensor<int32, [2]>([1, 1])];
            tensor<int32, []> input_35_groups_0 = const()[name = tensor<string, []>("input_35_groups_0"), val = tensor<int32, []>(1)];
            tensor<fp16, [64, 64, 1, 1]> model_2_m_0_cv3_conv_weight_to_fp16_palettized = constexpr_lut_to_dense()[indices = tensor<uint8, [4096]>(BLOBFILE(path = tensor<string, []>("@model_path/weights/weight.bin"), offset = tensor<uint64, []>(140224))), lut = tensor<fp16, [256]>(BLOBFILE(path = tensor<string, []>("@model_path/weights/weight.bin"), offset = tensor<uint64, []>(144384))), name = tensor<string, []>("model_2_m_0_cv3_conv_weight_to_fp16_palettized"), shape = tensor<uint32, [4]>([64, 64, 1, 1])];
            tensor<fp16, [64]> model_2_m_0_cv3_conv_bias_to_fp16 = const()[name = tensor<string, []>("model_2_m_0_cv3_conv_bias_to_fp16"), val = tensor<fp16, [64]>(BLOBFILE(path = tensor<string, []>("@model_path/weights/weight.bin"), offset = tensor<uint64, []>(144960)))];
            tensor<fp16, [1, 64, 160, 160]> input_35_cast_fp16 = conv(bias = model_2_m_0_cv3_conv_bias_to_fp16, dilations = input_35_dilations_0, groups = input_35_groups_0, pad = input_35_pad_0, pad_type = input_35_pad_type_0, strides = input_35_strides_0, weight = model_2_m_0_cv3_conv_weight_to_fp16_palettized, x = input_33_cast_fp16)[name = tensor<string, []>("input_35_cast_fp16")];
            tensor<fp16, [1, 64, 160, 160]> input_37_cast_fp16 = silu(x = input_35_cast_fp16)[name = tensor<string, []>("input_37_cast_fp16")];
            tensor<string, []> input_39_pad_type_0 = const()[name = tensor<string, []>("input_39_pad_type_0"), val = tensor<string, []>("valid")];
            tensor<int32, [2]> input_39_strides_0 = const()[name = tensor<string, []>("input_39_strides_0"), val = tensor<int32, [2]>([1, 1])];
            tensor<int32, [4]> input_39_pad_0 = const()[name = tensor<string, []>("input_39_pad_0"), val = tensor<int32, [4]>([0, 0, 0, 0])];
            tensor<int32, [2]> input_39_dilations_0 = const()[name = tensor<string, []>("input_39_dilations_0"), val = tensor<int32, [2]>([1, 1])];
            tensor<int32, []> input_39_groups_0 = const()[name = tensor<string, []>("input_39_groups_0"), val = tensor<int32, []>(1)];
            tensor<fp16, [32, 64, 1, 1]> model_2_m_1_cv1_conv_weight_to_fp16_palettized = constexpr_lut_to_dense()[indices = tensor<uint8, [2048]>(BLOBFILE(path = tensor<string, []>("@model_path/weights/weight.bin"), offset = tensor<uint64, []>(145152))), lut = tensor<fp16, [256]>(BLOBFILE(path = tensor<string, []>("@model_path/weights/weight.bin"), offset = tensor<uint64, []>(147264))), name = tensor<string, []>("model_2_m_1_cv1_conv_weight_to_fp16_palettized"), shape = tensor<uint32, [4]>([32, 64, 1, 1])];
            tensor<fp16, [32]> model_2_m_1_cv1_conv_bias_to_fp16 = const()[name = tensor<string, []>("model_2_m_1_cv1_conv_bias_to_fp16"), val = tensor<fp16, [32]>(BLOBFILE(path = tensor<string, []>("@model_path/weights/weight.bin"), offset = tensor<uint64, []>(147840)))];
            tensor<fp16, [1, 32, 160, 160]> input_39_cast_fp16 = conv(bias = model_2_m_1_cv1_conv_bias_to_fp16, dilations = input_39_dilations_0, groups = input_39_groups_0, pad = input_39_pad_0, pad_type = input_39_pad_type_0, strides = input_39_strides_0, weight = model_2_m_1_cv1_conv_weight_to_fp16_palettized, x = input_37_cast_fp16)[name = tensor<string, []>("input_39_cast_fp16")];
            tensor<fp16, [1, 32, 160, 160]> input_41_cast_fp16 = silu(x = input_39_cast_fp16)[name = tensor<string, []>("input_41_cast_fp16")];
            tensor<string, []> input_43_pad_type_0 = const()[name = tensor<string, []>("input_43_pad_type_0"), val = tensor<string, []>("custom")];
            tensor<int32, [4]> input_43_pad_0 = const()[name = tensor<string, []>("input_43_pad_0"), val = tensor<int32, [4]>([1, 1, 1, 1])];
            tensor<int32, [2]> input_43_strides_0 = const()[name = tensor<string, []>("input_43_strides_0"), val = tensor<int32, [2]>([1, 1])];
            tensor<int32, [2]> input_43_dilations_0 = const()[name = tensor<string, []>("input_43_dilations_0"), val = tensor<int32, [2]>([1, 1])];
            tensor<int32, []> input_43_groups_0 = const()[name = tensor<string, []>("input_43_groups_0"), val = tensor<int32, []>(1)];
            tensor<fp16, [32, 32, 3, 3]> model_2_m_1_m_0_cv1_conv_weight_to_fp16_palettized = constexpr_lut_to_dense()[indices = tensor<uint8, [9216]>(BLOBFILE(path = tensor<string, []>("@model_path/weights/weight.bin"), offset = tensor<uint64, []>(147968))), lut = tensor<fp16, [256]>(BLOBFILE(path = tensor<string, []>("@model_path/weights/weight.bin"), offset = tensor<uint64, []>(157248))), name = tensor<string, []>("model_2_m_1_m_0_cv1_conv_weight_to_fp16_palettized"), shape = tensor<uint32, [4]>([32, 32, 3, 3])];
            tensor<fp16, [32]> model_2_m_1_m_0_cv1_conv_bias_to_fp16 = const()[name = tensor<string, []>("model_2_m_1_m_0_cv1_conv_bias_to_fp16"), val = tensor<fp16, [32]>(BLOBFILE(path = tensor<string, []>("@model_path/weights/weight.bin"), offset = tensor<uint64, []>(157824)))];
            tensor<fp16, [1, 32, 160, 160]> input_43_cast_fp16 = conv(bias = model_2_m_1_m_0_cv1_conv_bias_to_fp16, dilations = input_43_dilations_0, groups = input_43_groups_0, pad = input_43_pad_0, pad_type = input_43_pad_type_0, strides = input_43_strides_0, weight = model_2_m_1_m_0_cv1_conv_weight_to_fp16_palettized, x = input_41_cast_fp16)[name = tensor<string, []>("input_43_cast_fp16")];
            tensor<fp16, [1, 32, 160, 160]> input_45_cast_fp16 = silu(x = input_43_cast_fp16)[name = tensor<string, []>("input_45_cast_fp16")];
            tensor<string, []> input_47_pad_type_0 = const()[name = tensor<string, []>("input_47_pad_type_0"), val = tensor<string, []>("custom")];
            tensor<int32, [4]> input_47_pad_0 = const()[name = tensor<string, []>("input_47_pad_0"), val = tensor<int32, [4]>([1, 1, 1, 1])];
            tensor<int32, [2]> input_47_strides_0 = const()[name = tensor<string, []>("input_47_strides_0"), val = tensor<int32, [2]>([1, 1])];
            tensor<int32, [2]> input_47_dilations_0 = const()[name = tensor<string, []>("input_47_dilations_0"), val = tensor<int32, [2]>([1, 1])];
            tensor<int32, []> input_47_groups_0 = const()[name = tensor<string, []>("input_47_groups_0"), val = tensor<int32, []>(1)];
            tensor<fp16, [32, 32, 3, 3]> model_2_m_1_m_0_cv2_conv_weight_to_fp16_palettized = constexpr_lut_to_dense()[indices = tensor<uint8, [9216]>(BLOBFILE(path = tensor<string, []>("@model_path/weights/weight.bin"), offset = tensor<uint64, []>(157952))), lut = tensor<fp16, [256]>(BLOBFILE(path = tensor<string, []>("@model_path/weights/weight.bin"), offset = tensor<uint64, []>(167232))), name = tensor<string, []>("model_2_m_1_m_0_cv2_conv_weight_to_fp16_palettized"), shape = tensor<uint32, [4]>([32, 32, 3, 3])];
            tensor<fp16, [32]> model_2_m_1_m_0_cv2_conv_bias_to_fp16 = const()[name = tensor<string, []>("model_2_m_1_m_0_cv2_conv_bias_to_fp16"), val = tensor<fp16, [32]>(BLOBFILE(path = tensor<string, []>("@model_path/weights/weight.bin"), offset = tensor<uint64, []>(167808)))];
            tensor<fp16, [1, 32, 160, 160]> input_47_cast_fp16 = conv(bias = model_2_m_1_m_0_cv2_conv_bias_to_fp16, dilations = input_47_dilations_0, groups = input_47_groups_0, pad = input_47_pad_0, pad_type = input_47_pad_type_0, strides = input_47_strides_0, weight = model_2_m_1_m_0_cv2_conv_weight_to_fp16_palettized, x = input_45_cast_fp16)[name = tensor<string, []>("input_47_cast_fp16")];
            tensor<fp16, [1, 32, 160, 160]> var_201_cast_fp16 = silu(x = input_47_cast_fp16)[name = tensor<string, []>("op_201_cast_fp16")];
            tensor<fp16, [1, 32, 160, 160]> input_49_cast_fp16 = add(x = input_41_cast_fp16, y = var_201_cast_fp16)[name = tensor<string, []>("input_49_cast_fp16")];
            tensor<string, []> input_51_pad_type_0 = const()[name = tensor<string, []>("input_51_pad_type_0"), val = tensor<string, []>("custom")];
            tensor<int32, [4]> input_51_pad_0 = const()[name = tensor<string, []>("input_51_pad_0"), val = tensor<int32, [4]>([1, 1, 1, 1])];
            tensor<int32, [2]> input_51_strides_0 = const()[name = tensor<string, []>("input_51_strides_0"), val = tensor<int32, [2]>([1, 1])];
            tensor<int32, [2]> input_51_dilations_0 = const()[name = tensor<string, []>("input_51_dilations_0"), val = tensor<int32, [2]>([1, 1])];
            tensor<int32, []> input_51_groups_0 = const()[name = tensor<string, []>("input_51_groups_0"), val = tensor<int32, []>(1)];
            tensor<fp16, [32, 32, 3, 3]> model_2_m_1_m_1_cv1_conv_weight_to_fp16_palettized = constexpr_lut_to_dense()[indices = tensor<uint8, [9216]>(BLOBFILE(path = tensor<string, []>("@model_path/weights/weight.bin"), offset = tensor<uint64, []>(167936))), lut = tensor<fp16, [256]>(BLOBFILE(path = tensor<string, []>("@model_path/weights/weight.bin"), offset = tensor<uint64, []>(177216))), name = tensor<string, []>("model_2_m_1_m_1_cv1_conv_weight_to_fp16_palettized"), shape = tensor<uint32, [4]>([32, 32, 3, 3])];
            tensor<fp16, [32]> model_2_m_1_m_1_cv1_conv_bias_to_fp16 = const()[name = tensor<string, []>("model_2_m_1_m_1_cv1_conv_bias_to_fp16"), val = tensor<fp16, [32]>(BLOBFILE(path = tensor<string, []>("@model_path/weights/weight.bin"), offset = tensor<uint64, []>(177792)))];
            tensor<fp16, [1, 32, 160, 160]> input_51_cast_fp16 = conv(bias = model_2_m_1_m_1_cv1_conv_bias_to_fp16, dilations = input_51_dilations_0, groups = input_51_groups_0, pad = input_51_pad_0, pad_type = input_51_pad_type_0, strides = input_51_strides_0, weight = model_2_m_1_m_1_cv1_conv_weight_to_fp16_palettized, x = input_49_cast_fp16)[name = tensor<string, []>("input_51_cast_fp16")];
            tensor<fp16, [1, 32, 160, 160]> input_53_cast_fp16 = silu(x = input_51_cast_fp16)[name = tensor<string, []>("input_53_cast_fp16")];
            tensor<string, []> input_55_pad_type_0 = const()[name = tensor<string, []>("input_55_pad_type_0"), val = tensor<string, []>("custom")];
            tensor<int32, [4]> input_55_pad_0 = const()[name = tensor<string, []>("input_55_pad_0"), val = tensor<int32, [4]>([1, 1, 1, 1])];
            tensor<int32, [2]> input_55_strides_0 = const()[name = tensor<string, []>("input_55_strides_0"), val = tensor<int32, [2]>([1, 1])];
            tensor<int32, [2]> input_55_dilations_0 = const()[name = tensor<string, []>("input_55_dilations_0"), val = tensor<int32, [2]>([1, 1])];
            tensor<int32, []> input_55_groups_0 = const()[name = tensor<string, []>("input_55_groups_0"), val = tensor<int32, []>(1)];
            tensor<fp16, [32, 32, 3, 3]> model_2_m_1_m_1_cv2_conv_weight_to_fp16_palettized = constexpr_lut_to_dense()[indices = tensor<uint8, [9216]>(BLOBFILE(path = tensor<string, []>("@model_path/weights/weight.bin"), offset = tensor<uint64, []>(177920))), lut = tensor<fp16, [256]>(BLOBFILE(path = tensor<string, []>("@model_path/weights/weight.bin"), offset = tensor<uint64, []>(187200))), name = tensor<string, []>("model_2_m_1_m_1_cv2_conv_weight_to_fp16_palettized"), shape = tensor<uint32, [4]>([32, 32, 3, 3])];
            tensor<fp16, [32]> model_2_m_1_m_1_cv2_conv_bias_to_fp16 = const()[name = tensor<string, []>("model_2_m_1_m_1_cv2_conv_bias_to_fp16"), val = tensor<fp16, [32]>(BLOBFILE(path = tensor<string, []>("@model_path/weights/weight.bin"), offset = tensor<uint64, []>(187776)))];
            tensor<fp16, [1, 32, 160, 160]> input_55_cast_fp16 = conv(bias = model_2_m_1_m_1_cv2_conv_bias_to_fp16, dilations = input_55_dilations_0, groups = input_55_groups_0, pad = input_55_pad_0, pad_type = input_55_pad_type_0, strides = input_55_strides_0, weight = model_2_m_1_m_1_cv2_conv_weight_to_fp16_palettized, x = input_53_cast_fp16)[name = tensor<string, []>("input_55_cast_fp16")];
            tensor<fp16, [1, 32, 160, 160]> var_222_cast_fp16 = silu(x = input_55_cast_fp16)[name = tensor<string, []>("op_222_cast_fp16")];
            tensor<fp16, [1, 32, 160, 160]> var_223_cast_fp16 = add(x = input_49_cast_fp16, y = var_222_cast_fp16)[name = tensor<string, []>("op_223_cast_fp16")];
            tensor<string, []> input_57_pad_type_0 = const()[name = tensor<string, []>("input_57_pad_type_0"), val = tensor<string, []>("valid")];
            tensor<int32, [2]> input_57_strides_0 = const()[name = tensor<string, []>("input_57_strides_0"), val = tensor<int32, [2]>([1, 1])];
            tensor<int32, [4]> input_57_pad_0 = const()[name = tensor<string, []>("input_57_pad_0"), val = tensor<int32, [4]>([0, 0, 0, 0])];
            tensor<int32, [2]> input_57_dilations_0 = const()[name = tensor<string, []>("input_57_dilations_0"), val = tensor<int32, [2]>([1, 1])];
            tensor<int32, []> input_57_groups_0 = const()[name = tensor<string, []>("input_57_groups_0"), val = tensor<int32, []>(1)];
            tensor<fp16, [32, 64, 1, 1]> model_2_m_1_cv2_conv_weight_to_fp16_palettized = constexpr_lut_to_dense()[indices = tensor<uint8, [2048]>(BLOBFILE(path = tensor<string, []>("@model_path/weights/weight.bin"), offset = tensor<uint64, []>(187904))), lut = tensor<fp16, [256]>(BLOBFILE(path = tensor<string, []>("@model_path/weights/weight.bin"), offset = tensor<uint64, []>(190016))), name = tensor<string, []>("model_2_m_1_cv2_conv_weight_to_fp16_palettized"), shape = tensor<uint32, [4]>([32, 64, 1, 1])];
            tensor<fp16, [32]> model_2_m_1_cv2_conv_bias_to_fp16 = const()[name = tensor<string, []>("model_2_m_1_cv2_conv_bias_to_fp16"), val = tensor<fp16, [32]>(BLOBFILE(path = tensor<string, []>("@model_path/weights/weight.bin"), offset = tensor<uint64, []>(190592)))];
            tensor<fp16, [1, 32, 160, 160]> input_57_cast_fp16 = conv(bias = model_2_m_1_cv2_conv_bias_to_fp16, dilations = input_57_dilations_0, groups = input_57_groups_0, pad = input_57_pad_0, pad_type = input_57_pad_type_0, strides = input_57_strides_0, weight = model_2_m_1_cv2_conv_weight_to_fp16_palettized, x = input_37_cast_fp16)[name = tensor<string, []>("input_57_cast_fp16")];
            tensor<fp16, [1, 32, 160, 160]> var_232_cast_fp16 = silu(x = input_57_cast_fp16)[name = tensor<string, []>("op_232_cast_fp16")];
            tensor<bool, []> input_59_interleave_0 = const()[name = tensor<string, []>("input_59_interleave_0"), val = tensor<bool, []>(false)];
            tensor<fp16, [1, 64, 160, 160]> input_59_cast_fp16 = concat(axis = var_70, interleave = input_59_interleave_0, values = (var_223_cast_fp16, var_232_cast_fp16))[name = tensor<string, []>("input_59_cast_fp16")];
            tensor<string, []> input_61_pad_type_0 = const()[name = tensor<string, []>("input_61_pad_type_0"), val = tensor<string, []>("valid")];
            tensor<int32, [2]> input_61_strides_0 = const()[name = tensor<string, []>("input_61_strides_0"), val = tensor<int32, [2]>([1, 1])];
            tensor<int32, [4]> input_61_pad_0 = const()[name = tensor<string, []>("input_61_pad_0"), val = tensor<int32, [4]>([0, 0, 0, 0])];
            tensor<int32, [2]> input_61_dilations_0 = const()[name = tensor<string, []>("input_61_dilations_0"), val = tensor<int32, [2]>([1, 1])];
            tensor<int32, []> input_61_groups_0 = const()[name = tensor<string, []>("input_61_groups_0"), val = tensor<int32, []>(1)];
            tensor<fp16, [64, 64, 1, 1]> model_2_m_1_cv3_conv_weight_to_fp16_palettized = constexpr_lut_to_dense()[indices = tensor<uint8, [4096]>(BLOBFILE(path = tensor<string, []>("@model_path/weights/weight.bin"), offset = tensor<uint64, []>(190720))), lut = tensor<fp16, [256]>(BLOBFILE(path = tensor<string, []>("@model_path/weights/weight.bin"), offset = tensor<uint64, []>(194880))), name = tensor<string, []>("model_2_m_1_cv3_conv_weight_to_fp16_palettized"), shape = tensor<uint32, [4]>([64, 64, 1, 1])];
            tensor<fp16, [64]> model_2_m_1_cv3_conv_bias_to_fp16 = const()[name = tensor<string, []>("model_2_m_1_cv3_conv_bias_to_fp16"), val = tensor<fp16, [64]>(BLOBFILE(path = tensor<string, []>("@model_path/weights/weight.bin"), offset = tensor<uint64, []>(195456)))];
            tensor<fp16, [1, 64, 160, 160]> input_61_cast_fp16 = conv(bias = model_2_m_1_cv3_conv_bias_to_fp16, dilations = input_61_dilations_0, groups = input_61_groups_0, pad = input_61_pad_0, pad_type = input_61_pad_type_0, strides = input_61_strides_0, weight = model_2_m_1_cv3_conv_weight_to_fp16_palettized, x = input_59_cast_fp16)[name = tensor<string, []>("input_61_cast_fp16")];
            tensor<fp16, [1, 64, 160, 160]> var_243_cast_fp16 = silu(x = input_61_cast_fp16)[name = tensor<string, []>("op_243_cast_fp16")];
            tensor<bool, []> input_63_interleave_0 = const()[name = tensor<string, []>("input_63_interleave_0"), val = tensor<bool, []>(false)];
            tensor<fp16, [1, 256, 160, 160]> input_63_cast_fp16 = concat(axis = var_70, interleave = input_63_interleave_0, values = (var_87_cast_fp16_0, var_87_cast_fp16_1, input_37_cast_fp16, var_243_cast_fp16))[name = tensor<string, []>("input_63_cast_fp16")];
            tensor<string, []> input_65_pad_type_0 = const()[name = tensor<string, []>("input_65_pad_type_0"), val = tensor<string, []>("valid")];
            tensor<int32, [2]> input_65_strides_0 = const()[name = tensor<string, []>("input_65_strides_0"), val = tensor<int32, [2]>([1, 1])];
            tensor<int32, [4]> input_65_pad_0 = const()[name = tensor<string, []>("input_65_pad_0"), val = tensor<int32, [4]>([0, 0, 0, 0])];
            tensor<int32, [2]> input_65_dilations_0 = const()[name = tensor<string, []>("input_65_dilations_0"), val = tensor<int32, [2]>([1, 1])];
            tensor<int32, []> input_65_groups_0 = const()[name = tensor<string, []>("input_65_groups_0"), val = tensor<int32, []>(1)];
            tensor<fp16, [256, 256, 1, 1]> model_2_cv2_conv_weight_to_fp16_palettized = constexpr_lut_to_dense()[indices = tensor<uint8, [65536]>(BLOBFILE(path = tensor<string, []>("@model_path/weights/weight.bin"), offset = tensor<uint64, []>(195648))), lut = tensor<fp16, [256]>(BLOBFILE(path = tensor<string, []>("@model_path/weights/weight.bin"), offset = tensor<uint64, []>(261248))), name = tensor<string, []>("model_2_cv2_conv_weight_to_fp16_palettized"), shape = tensor<uint32, [4]>([256, 256, 1, 1])];
            tensor<fp16, [256]> model_2_cv2_conv_bias_to_fp16 = const()[name = tensor<string, []>("model_2_cv2_conv_bias_to_fp16"), val = tensor<fp16, [256]>(BLOBFILE(path = tensor<string, []>("@model_path/weights/weight.bin"), offset = tensor<uint64, []>(261824)))];
            tensor<fp16, [1, 256, 160, 160]> input_65_cast_fp16 = conv(bias = model_2_cv2_conv_bias_to_fp16, dilations = input_65_dilations_0, groups = input_65_groups_0, pad = input_65_pad_0, pad_type = input_65_pad_type_0, strides = input_65_strides_0, weight = model_2_cv2_conv_weight_to_fp16_palettized, x = input_63_cast_fp16)[name = tensor<string, []>("input_65_cast_fp16")];
            tensor<fp16, [1, 256, 160, 160]> input_67_cast_fp16 = silu(x = input_65_cast_fp16)[name = tensor<string, []>("input_67_cast_fp16")];
            tensor<string, []> input_69_pad_type_0 = const()[name = tensor<string, []>("input_69_pad_type_0"), val = tensor<string, []>("custom")];
            tensor<int32, [4]> input_69_pad_0 = const()[name = tensor<string, []>("input_69_pad_0"), val = tensor<int32, [4]>([1, 1, 1, 1])];
            tensor<int32, [2]> input_69_strides_0 = const()[name = tensor<string, []>("input_69_strides_0"), val = tensor<int32, [2]>([2, 2])];
            tensor<int32, [2]> input_69_dilations_0 = const()[name = tensor<string, []>("input_69_dilations_0"), val = tensor<int32, [2]>([1, 1])];
            tensor<int32, []> input_69_groups_0 = const()[name = tensor<string, []>("input_69_groups_0"), val = tensor<int32, []>(1)];
            tensor<fp16, [256, 256, 3, 3]> model_3_conv_weight_to_fp16_palettized = constexpr_lut_to_dense()[indices = tensor<uint8, [589824]>(BLOBFILE(path = tensor<string, []>("@model_path/weights/weight.bin"), offset = tensor<uint64, []>(262400))), lut = tensor<fp16, [256]>(BLOBFILE(path = tensor<string, []>("@model_path/weights/weight.bin"), offset = tensor<uint64, []>(852288))), name = tensor<string, []>("model_3_conv_weight_to_fp16_palettized"), shape = tensor<uint32, [4]>([256, 256, 3, 3])];
            tensor<fp16, [256]> model_3_conv_bias_to_fp16 = const()[name = tensor<string, []>("model_3_conv_bias_to_fp16"), val = tensor<fp16, [256]>(BLOBFILE(path = tensor<string, []>("@model_path/weights/weight.bin"), offset = tensor<uint64, []>(852864)))];
            tensor<fp16, [1, 256, 80, 80]> input_69_cast_fp16 = conv(bias = model_3_conv_bias_to_fp16, dilations = input_69_dilations_0, groups = input_69_groups_0, pad = input_69_pad_0, pad_type = input_69_pad_type_0, strides = input_69_strides_0, weight = model_3_conv_weight_to_fp16_palettized, x = input_67_cast_fp16)[name = tensor<string, []>("input_69_cast_fp16")];
            tensor<fp16, [1, 256, 80, 80]> input_71_cast_fp16 = silu(x = input_69_cast_fp16)[name = tensor<string, []>("input_71_cast_fp16")];
            tensor<int32, []> var_273 = const()[name = tensor<string, []>("op_273"), val = tensor<int32, []>(1)];
            tensor<string, []> input_73_pad_type_0 = const()[name = tensor<string, []>("input_73_pad_type_0"), val = tensor<string, []>("valid")];
            tensor<int32, [2]> input_73_strides_0 = const()[name = tensor<string, []>("input_73_strides_0"), val = tensor<int32, [2]>([1, 1])];
            tensor<int32, [4]> input_73_pad_0 = const()[name = tensor<string, []>("input_73_pad_0"), val = tensor<int32, [4]>([0, 0, 0, 0])];
            tensor<int32, [2]> input_73_dilations_0 = const()[name = tensor<string, []>("input_73_dilations_0"), val = tensor<int32, [2]>([1, 1])];
            tensor<int32, []> input_73_groups_0 = const()[name = tensor<string, []>("input_73_groups_0"), val = tensor<int32, []>(1)];
            tensor<fp16, [256, 256, 1, 1]> model_4_cv1_conv_weight_to_fp16_palettized = constexpr_lut_to_dense()[indices = tensor<uint8, [65536]>(BLOBFILE(path = tensor<string, []>("@model_path/weights/weight.bin"), offset = tensor<uint64, []>(853440))), lut = tensor<fp16, [256]>(BLOBFILE(path = tensor<string, []>("@model_path/weights/weight.bin"), offset = tensor<uint64, []>(919040))), name = tensor<string, []>("model_4_cv1_conv_weight_to_fp16_palettized"), shape = tensor<uint32, [4]>([256, 256, 1, 1])];
            tensor<fp16, [256]> model_4_cv1_conv_bias_to_fp16 = const()[name = tensor<string, []>("model_4_cv1_conv_bias_to_fp16"), val = tensor<fp16, [256]>(BLOBFILE(path = tensor<string, []>("@model_path/weights/weight.bin"), offset = tensor<uint64, []>(919616)))];
            tensor<fp16, [1, 256, 80, 80]> input_73_cast_fp16 = conv(bias = model_4_cv1_conv_bias_to_fp16, dilations = input_73_dilations_0, groups = input_73_groups_0, pad = input_73_pad_0, pad_type = input_73_pad_type_0, strides = input_73_strides_0, weight = model_4_cv1_conv_weight_to_fp16_palettized, x = input_71_cast_fp16)[name = tensor<string, []>("input_73_cast_fp16")];
            tensor<fp16, [1, 256, 80, 80]> var_288_cast_fp16 = silu(x = input_73_cast_fp16)[name = tensor<string, []>("op_288_cast_fp16")];
            tensor<int32, [2]> var_289 = const()[name = tensor<string, []>("op_289"), val = tensor<int32, [2]>([128, 128])];
            tensor<int32, []> var_290_axis_0 = const()[name = tensor<string, []>("op_290_axis_0"), val = tensor<int32, []>(1)];
            tensor<fp16, [1, 128, 80, 80]> var_290_cast_fp16_0, tensor<fp16, [1, 128, 80, 80]> var_290_cast_fp16_1 = split(axis = var_290_axis_0, split_sizes = var_289, x = var_288_cast_fp16)[name = tensor<string, []>("op_290_cast_fp16")];
            tensor<string, []> input_77_pad_type_0 = const()[name = tensor<string, []>("input_77_pad_type_0"), val = tensor<string, []>("valid")];
            tensor<int32, [2]> input_77_strides_0 = const()[name = tensor<string, []>("input_77_strides_0"), val = tensor<int32, [2]>([1, 1])];
            tensor<int32, [4]> input_77_pad_0 = const()[name = tensor<string, []>("input_77_pad_0"), val = tensor<int32, [4]>([0, 0, 0, 0])];
            tensor<int32, [2]> input_77_dilations_0 = const()[name = tensor<string, []>("input_77_dilations_0"), val = tensor<int32, [2]>([1, 1])];
            tensor<int32, []> input_77_groups_0 = const()[name = tensor<string, []>("input_77_groups_0"), val = tensor<int32, []>(1)];
            tensor<fp16, [64, 128, 1, 1]> model_4_m_0_cv1_conv_weight_to_fp16_palettized = constexpr_lut_to_dense()[indices = tensor<uint8, [8192]>(BLOBFILE(path = tensor<string, []>("@model_path/weights/weight.bin"), offset = tensor<uint64, []>(920192))), lut = tensor<fp16, [256]>(BLOBFILE(path = tensor<string, []>("@model_path/weights/weight.bin"), offset = tensor<uint64, []>(928448))), name = tensor<string, []>("model_4_m_0_cv1_conv_weight_to_fp16_palettized"), shape = tensor<uint32, [4]>([64, 128, 1, 1])];
            tensor<fp16, [64]> model_4_m_0_cv1_conv_bias_to_fp16 = const()[name = tensor<string, []>("model_4_m_0_cv1_conv_bias_to_fp16"), val = tensor<fp16, [64]>(BLOBFILE(path = tensor<string, []>("@model_path/weights/weight.bin"), offset = tensor<uint64, []>(929024)))];
            tensor<fp16, [1, 64, 80, 80]> input_77_cast_fp16 = conv(bias = model_4_m_0_cv1_conv_bias_to_fp16, dilations = input_77_dilations_0, groups = input_77_groups_0, pad = input_77_pad_0, pad_type = input_77_pad_type_0, strides = input_77_strides_0, weight = model_4_m_0_cv1_conv_weight_to_fp16_palettized, x = var_290_cast_fp16_1)[name = tensor<string, []>("input_77_cast_fp16")];
            tensor<fp16, [1, 64, 80, 80]> input_79_cast_fp16 = silu(x = input_77_cast_fp16)[name = tensor<string, []>("input_79_cast_fp16")];
            tensor<string, []> input_81_pad_type_0 = const()[name = tensor<string, []>("input_81_pad_type_0"), val = tensor<string, []>("custom")];
            tensor<int32, [4]> input_81_pad_0 = const()[name = tensor<string, []>("input_81_pad_0"), val = tensor<int32, [4]>([1, 1, 1, 1])];
            tensor<int32, [2]> input_81_strides_0 = const()[name = tensor<string, []>("input_81_strides_0"), val = tensor<int32, [2]>([1, 1])];
            tensor<int32, [2]> input_81_dilations_0 = const()[name = tensor<string, []>("input_81_dilations_0"), val = tensor<int32, [2]>([1, 1])];
            tensor<int32, []> input_81_groups_0 = const()[name = tensor<string, []>("input_81_groups_0"), val = tensor<int32, []>(1)];
            tensor<fp16, [64, 64, 3, 3]> model_4_m_0_m_0_cv1_conv_weight_to_fp16_palettized = constexpr_lut_to_dense()[indices = tensor<uint8, [36864]>(BLOBFILE(path = tensor<string, []>("@model_path/weights/weight.bin"), offset = tensor<uint64, []>(929216))), lut = tensor<fp16, [256]>(BLOBFILE(path = tensor<string, []>("@model_path/weights/weight.bin"), offset = tensor<uint64, []>(966144))), name = tensor<string, []>("model_4_m_0_m_0_cv1_conv_weight_to_fp16_palettized"), shape = tensor<uint32, [4]>([64, 64, 3, 3])];
            tensor<fp16, [64]> model_4_m_0_m_0_cv1_conv_bias_to_fp16 = const()[name = tensor<string, []>("model_4_m_0_m_0_cv1_conv_bias_to_fp16"), val = tensor<fp16, [64]>(BLOBFILE(path = tensor<string, []>("@model_path/weights/weight.bin"), offset = tensor<uint64, []>(966720)))];
            tensor<fp16, [1, 64, 80, 80]> input_81_cast_fp16 = conv(bias = model_4_m_0_m_0_cv1_conv_bias_to_fp16, dilations = input_81_dilations_0, groups = input_81_groups_0, pad = input_81_pad_0, pad_type = input_81_pad_type_0, strides = input_81_strides_0, weight = model_4_m_0_m_0_cv1_conv_weight_to_fp16_palettized, x = input_79_cast_fp16)[name = tensor<string, []>("input_81_cast_fp16")];
            tensor<fp16, [1, 64, 80, 80]> input_83_cast_fp16 = silu(x = input_81_cast_fp16)[name = tensor<string, []>("input_83_cast_fp16")];
            tensor<string, []> input_85_pad_type_0 = const()[name = tensor<string, []>("input_85_pad_type_0"), val = tensor<string, []>("custom")];
            tensor<int32, [4]> input_85_pad_0 = const()[name = tensor<string, []>("input_85_pad_0"), val = tensor<int32, [4]>([1, 1, 1, 1])];
            tensor<int32, [2]> input_85_strides_0 = const()[name = tensor<string, []>("input_85_strides_0"), val = tensor<int32, [2]>([1, 1])];
            tensor<int32, [2]> input_85_dilations_0 = const()[name = tensor<string, []>("input_85_dilations_0"), val = tensor<int32, [2]>([1, 1])];
            tensor<int32, []> input_85_groups_0 = const()[name = tensor<string, []>("input_85_groups_0"), val = tensor<int32, []>(1)];
            tensor<fp16, [64, 64, 3, 3]> model_4_m_0_m_0_cv2_conv_weight_to_fp16_palettized = constexpr_lut_to_dense()[indices = tensor<uint8, [36864]>(BLOBFILE(path = tensor<string, []>("@model_path/weights/weight.bin"), offset = tensor<uint64, []>(966912))), lut = tensor<fp16, [256]>(BLOBFILE(path = tensor<string, []>("@model_path/weights/weight.bin"), offset = tensor<uint64, []>(1003840))), name = tensor<string, []>("model_4_m_0_m_0_cv2_conv_weight_to_fp16_palettized"), shape = tensor<uint32, [4]>([64, 64, 3, 3])];
            tensor<fp16, [64]> model_4_m_0_m_0_cv2_conv_bias_to_fp16 = const()[name = tensor<string, []>("model_4_m_0_m_0_cv2_conv_bias_to_fp16"), val = tensor<fp16, [64]>(BLOBFILE(path = tensor<string, []>("@model_path/weights/weight.bin"), offset = tensor<uint64, []>(1004416)))];
            tensor<fp16, [1, 64, 80, 80]> input_85_cast_fp16 = conv(bias = model_4_m_0_m_0_cv2_conv_bias_to_fp16, dilations = input_85_dilations_0, groups = input_85_groups_0, pad = input_85_pad_0, pad_type = input_85_pad_type_0, strides = input_85_strides_0, weight = model_4_m_0_m_0_cv2_conv_weight_to_fp16_palettized, x = input_83_cast_fp16)[name = tensor<string, []>("input_85_cast_fp16")];
            tensor<fp16, [1, 64, 80, 80]> var_327_cast_fp16 = silu(x = input_85_cast_fp16)[name = tensor<string, []>("op_327_cast_fp16")];
            tensor<fp16, [1, 64, 80, 80]> input_87_cast_fp16 = add(x = input_79_cast_fp16, y = var_327_cast_fp16)[name = tensor<string, []>("input_87_cast_fp16")];
            tensor<string, []> input_89_pad_type_0 = const()[name = tensor<string, []>("input_89_pad_type_0"), val = tensor<string, []>("custom")];
            tensor<int32, [4]> input_89_pad_0 = const()[name = tensor<string, []>("input_89_pad_0"), val = tensor<int32, [4]>([1, 1, 1, 1])];
            tensor<int32, [2]> input_89_strides_0 = const()[name = tensor<string, []>("input_89_strides_0"), val = tensor<int32, [2]>([1, 1])];
            tensor<int32, [2]> input_89_dilations_0 = const()[name = tensor<string, []>("input_89_dilations_0"), val = tensor<int32, [2]>([1, 1])];
            tensor<int32, []> input_89_groups_0 = const()[name = tensor<string, []>("input_89_groups_0"), val = tensor<int32, []>(1)];
            tensor<fp16, [64, 64, 3, 3]> model_4_m_0_m_1_cv1_conv_weight_to_fp16_palettized = constexpr_lut_to_dense()[indices = tensor<uint8, [36864]>(BLOBFILE(path = tensor<string, []>("@model_path/weights/weight.bin"), offset = tensor<uint64, []>(1004608))), lut = tensor<fp16, [256]>(BLOBFILE(path = tensor<string, []>("@model_path/weights/weight.bin"), offset = tensor<uint64, []>(1041536))), name = tensor<string, []>("model_4_m_0_m_1_cv1_conv_weight_to_fp16_palettized"), shape = tensor<uint32, [4]>([64, 64, 3, 3])];
            tensor<fp16, [64]> model_4_m_0_m_1_cv1_conv_bias_to_fp16 = const()[name = tensor<string, []>("model_4_m_0_m_1_cv1_conv_bias_to_fp16"), val = tensor<fp16, [64]>(BLOBFILE(path = tensor<string, []>("@model_path/weights/weight.bin"), offset = tensor<uint64, []>(1042112)))];
            tensor<fp16, [1, 64, 80, 80]> input_89_cast_fp16 = conv(bias = model_4_m_0_m_1_cv1_conv_bias_to_fp16, dilations = input_89_dilations_0, groups = input_89_groups_0, pad = input_89_pad_0, pad_type = input_89_pad_type_0, strides = input_89_strides_0, weight = model_4_m_0_m_1_cv1_conv_weight_to_fp16_palettized, x = input_87_cast_fp16)[name = tensor<string, []>("input_89_cast_fp16")];
            tensor<fp16, [1, 64, 80, 80]> input_91_cast_fp16 = silu(x = input_89_cast_fp16)[name = tensor<string, []>("input_91_cast_fp16")];
            tensor<string, []> input_93_pad_type_0 = const()[name = tensor<string, []>("input_93_pad_type_0"), val = tensor<string, []>("custom")];
            tensor<int32, [4]> input_93_pad_0 = const()[name = tensor<string, []>("input_93_pad_0"), val = tensor<int32, [4]>([1, 1, 1, 1])];
            tensor<int32, [2]> input_93_strides_0 = const()[name = tensor<string, []>("input_93_strides_0"), val = tensor<int32, [2]>([1, 1])];
            tensor<int32, [2]> input_93_dilations_0 = const()[name = tensor<string, []>("input_93_dilations_0"), val = tensor<int32, [2]>([1, 1])];
            tensor<int32, []> input_93_groups_0 = const()[name = tensor<string, []>("input_93_groups_0"), val = tensor<int32, []>(1)];
            tensor<fp16, [64, 64, 3, 3]> model_4_m_0_m_1_cv2_conv_weight_to_fp16_palettized = constexpr_lut_to_dense()[indices = tensor<uint8, [36864]>(BLOBFILE(path = tensor<string, []>("@model_path/weights/weight.bin"), offset = tensor<uint64, []>(1042304))), lut = tensor<fp16, [256]>(BLOBFILE(path = tensor<string, []>("@model_path/weights/weight.bin"), offset = tensor<uint64, []>(1079232))), name = tensor<string, []>("model_4_m_0_m_1_cv2_conv_weight_to_fp16_palettized"), shape = tensor<uint32, [4]>([64, 64, 3, 3])];
            tensor<fp16, [64]> model_4_m_0_m_1_cv2_conv_bias_to_fp16 = const()[name = tensor<string, []>("model_4_m_0_m_1_cv2_conv_bias_to_fp16"), val = tensor<fp16, [64]>(BLOBFILE(path = tensor<string, []>("@model_path/weights/weight.bin"), offset = tensor<uint64, []>(1079808)))];
            tensor<fp16, [1, 64, 80, 80]> input_93_cast_fp16 = conv(bias = model_4_m_0_m_1_cv2_conv_bias_to_fp16, dilations = input_93_dilations_0, groups = input_93_groups_0, pad = input_93_pad_0, pad_type = input_93_pad_type_0, strides = input_93_strides_0, weight = model_4_m_0_m_1_cv2_conv_weight_to_fp16_palettized, x = input_91_cast_fp16)[name = tensor<string, []>("input_93_cast_fp16")];
            tensor<fp16, [1, 64, 80, 80]> var_348_cast_fp16 = silu(x = input_93_cast_fp16)[name = tensor<string, []>("op_348_cast_fp16")];
            tensor<fp16, [1, 64, 80, 80]> var_349_cast_fp16 = add(x = input_87_cast_fp16, y = var_348_cast_fp16)[name = tensor<string, []>("op_349_cast_fp16")];
            tensor<string, []> input_95_pad_type_0 = const()[name = tensor<string, []>("input_95_pad_type_0"), val = tensor<string, []>("valid")];
            tensor<int32, [2]> input_95_strides_0 = const()[name = tensor<string, []>("input_95_strides_0"), val = tensor<int32, [2]>([1, 1])];
            tensor<int32, [4]> input_95_pad_0 = const()[name = tensor<string, []>("input_95_pad_0"), val = tensor<int32, [4]>([0, 0, 0, 0])];
            tensor<int32, [2]> input_95_dilations_0 = const()[name = tensor<string, []>("input_95_dilations_0"), val = tensor<int32, [2]>([1, 1])];
            tensor<int32, []> input_95_groups_0 = const()[name = tensor<string, []>("input_95_groups_0"), val = tensor<int32, []>(1)];
            tensor<fp16, [64, 128, 1, 1]> model_4_m_0_cv2_conv_weight_to_fp16_palettized = constexpr_lut_to_dense()[indices = tensor<uint8, [8192]>(BLOBFILE(path = tensor<string, []>("@model_path/weights/weight.bin"), offset = tensor<uint64, []>(1080000))), lut = tensor<fp16, [256]>(BLOBFILE(path = tensor<string, []>("@model_path/weights/weight.bin"), offset = tensor<uint64, []>(1088256))), name = tensor<string, []>("model_4_m_0_cv2_conv_weight_to_fp16_palettized"), shape = tensor<uint32, [4]>([64, 128, 1, 1])];
            tensor<fp16, [64]> model_4_m_0_cv2_conv_bias_to_fp16 = const()[name = tensor<string, []>("model_4_m_0_cv2_conv_bias_to_fp16"), val = tensor<fp16, [64]>(BLOBFILE(path = tensor<string, []>("@model_path/weights/weight.bin"), offset = tensor<uint64, []>(1088832)))];
            tensor<fp16, [1, 64, 80, 80]> input_95_cast_fp16 = conv(bias = model_4_m_0_cv2_conv_bias_to_fp16, dilations = input_95_dilations_0, groups = input_95_groups_0, pad = input_95_pad_0, pad_type = input_95_pad_type_0, strides = input_95_strides_0, weight = model_4_m_0_cv2_conv_weight_to_fp16_palettized, x = var_290_cast_fp16_1)[name = tensor<string, []>("input_95_cast_fp16")];
            tensor<fp16, [1, 64, 80, 80]> var_358_cast_fp16 = silu(x = input_95_cast_fp16)[name = tensor<string, []>("op_358_cast_fp16")];
            tensor<bool, []> input_97_interleave_0 = const()[name = tensor<string, []>("input_97_interleave_0"), val = tensor<bool, []>(false)];
            tensor<fp16, [1, 128, 80, 80]> input_97_cast_fp16 = concat(axis = var_273, interleave = input_97_interleave_0, values = (var_349_cast_fp16, var_358_cast_fp16))[name = tensor<string, []>("input_97_cast_fp16")];
            tensor<string, []> input_99_pad_type_0 = const()[name = tensor<string, []>("input_99_pad_type_0"), val = tensor<string, []>("valid")];
            tensor<int32, [2]> input_99_strides_0 = const()[name = tensor<string, []>("input_99_strides_0"), val = tensor<int32, [2]>([1, 1])];
            tensor<int32, [4]> input_99_pad_0 = const()[name = tensor<string, []>("input_99_pad_0"), val = tensor<int32, [4]>([0, 0, 0, 0])];
            tensor<int32, [2]> input_99_dilations_0 = const()[name = tensor<string, []>("input_99_dilations_0"), val = tensor<int32, [2]>([1, 1])];
            tensor<int32, []> input_99_groups_0 = const()[name = tensor<string, []>("input_99_groups_0"), val = tensor<int32, []>(1)];
            tensor<fp16, [128, 128, 1, 1]> model_4_m_0_cv3_conv_weight_to_fp16_palettized = constexpr_lut_to_dense()[indices = tensor<uint8, [16384]>(BLOBFILE(path = tensor<string, []>("@model_path/weights/weight.bin"), offset = tensor<uint64, []>(1089024))), lut = tensor<fp16, [256]>(BLOBFILE(path = tensor<string, []>("@model_path/weights/weight.bin"), offset = tensor<uint64, []>(1105472))), name = tensor<string, []>("model_4_m_0_cv3_conv_weight_to_fp16_palettized"), shape = tensor<uint32, [4]>([128, 128, 1, 1])];
            tensor<fp16, [128]> model_4_m_0_cv3_conv_bias_to_fp16 = const()[name = tensor<string, []>("model_4_m_0_cv3_conv_bias_to_fp16"), val = tensor<fp16, [128]>(BLOBFILE(path = tensor<string, []>("@model_path/weights/weight.bin"), offset = tensor<uint64, []>(1106048)))];
            tensor<fp16, [1, 128, 80, 80]> input_99_cast_fp16 = conv(bias = model_4_m_0_cv3_conv_bias_to_fp16, dilations = input_99_dilations_0, groups = input_99_groups_0, pad = input_99_pad_0, pad_type = input_99_pad_type_0, strides = input_99_strides_0, weight = model_4_m_0_cv3_conv_weight_to_fp16_palettized, x = input_97_cast_fp16)[name = tensor<string, []>("input_99_cast_fp16")];
            tensor<fp16, [1, 128, 80, 80]> input_101_cast_fp16 = silu(x = input_99_cast_fp16)[name = tensor<string, []>("input_101_cast_fp16")];
            tensor<string, []> input_103_pad_type_0 = const()[name = tensor<string, []>("input_103_pad_type_0"), val = tensor<string, []>("valid")];
            tensor<int32, [2]> input_103_strides_0 = const()[name = tensor<string, []>("input_103_strides_0"), val = tensor<int32, [2]>([1, 1])];
            tensor<int32, [4]> input_103_pad_0 = const()[name = tensor<string, []>("input_103_pad_0"), val = tensor<int32, [4]>([0, 0, 0, 0])];
            tensor<int32, [2]> input_103_dilations_0 = const()[name = tensor<string, []>("input_103_dilations_0"), val = tensor<int32, [2]>([1, 1])];
            tensor<int32, []> input_103_groups_0 = const()[name = tensor<string, []>("input_103_groups_0"), val = tensor<int32, []>(1)];
            tensor<fp16, [64, 128, 1, 1]> model_4_m_1_cv1_conv_weight_to_fp16_palettized = constexpr_lut_to_dense()[indices = tensor<uint8, [8192]>(BLOBFILE(path = tensor<string, []>("@model_path/weights/weight.bin"), offset = tensor<uint64, []>(1106368))), lut = tensor<fp16, [256]>(BLOBFILE(path = tensor<string, []>("@model_path/weights/weight.bin"), offset = tensor<uint64, []>(1114624))), name = tensor<string, []>("model_4_m_1_cv1_conv_weight_to_fp16_palettized"), shape = tensor<uint32, [4]>([64, 128, 1, 1])];
            tensor<fp16, [64]> model_4_m_1_cv1_conv_bias_to_fp16 = const()[name = tensor<string, []>("model_4_m_1_cv1_conv_bias_to_fp16"), val = tensor<fp16, [64]>(BLOBFILE(path = tensor<string, []>("@model_path/weights/weight.bin"), offset = tensor<uint64, []>(1115200)))];
            tensor<fp16, [1, 64, 80, 80]> input_103_cast_fp16 = conv(bias = model_4_m_1_cv1_conv_bias_to_fp16, dilations = input_103_dilations_0, groups = input_103_groups_0, pad = input_103_pad_0, pad_type = input_103_pad_type_0, strides = input_103_strides_0, weight = model_4_m_1_cv1_conv_weight_to_fp16_palettized, x = input_101_cast_fp16)[name = tensor<string, []>("input_103_cast_fp16")];
            tensor<fp16, [1, 64, 80, 80]> input_105_cast_fp16 = silu(x = input_103_cast_fp16)[name = tensor<string, []>("input_105_cast_fp16")];
            tensor<string, []> input_107_pad_type_0 = const()[name = tensor<string, []>("input_107_pad_type_0"), val = tensor<string, []>("custom")];
            tensor<int32, [4]> input_107_pad_0 = const()[name = tensor<string, []>("input_107_pad_0"), val = tensor<int32, [4]>([1, 1, 1, 1])];
            tensor<int32, [2]> input_107_strides_0 = const()[name = tensor<string, []>("input_107_strides_0"), val = tensor<int32, [2]>([1, 1])];
            tensor<int32, [2]> input_107_dilations_0 = const()[name = tensor<string, []>("input_107_dilations_0"), val = tensor<int32, [2]>([1, 1])];
            tensor<int32, []> input_107_groups_0 = const()[name = tensor<string, []>("input_107_groups_0"), val = tensor<int32, []>(1)];
            tensor<fp16, [64, 64, 3, 3]> model_4_m_1_m_0_cv1_conv_weight_to_fp16_palettized = constexpr_lut_to_dense()[indices = tensor<uint8, [36864]>(BLOBFILE(path = tensor<string, []>("@model_path/weights/weight.bin"), offset = tensor<uint64, []>(1115392))), lut = tensor<fp16, [256]>(BLOBFILE(path = tensor<string, []>("@model_path/weights/weight.bin"), offset = tensor<uint64, []>(1152320))), name = tensor<string, []>("model_4_m_1_m_0_cv1_conv_weight_to_fp16_palettized"), shape = tensor<uint32, [4]>([64, 64, 3, 3])];
            tensor<fp16, [64]> model_4_m_1_m_0_cv1_conv_bias_to_fp16 = const()[name = tensor<string, []>("model_4_m_1_m_0_cv1_conv_bias_to_fp16"), val = tensor<fp16, [64]>(BLOBFILE(path = tensor<string, []>("@model_path/weights/weight.bin"), offset = tensor<uint64, []>(1152896)))];
            tensor<fp16, [1, 64, 80, 80]> input_107_cast_fp16 = conv(bias = model_4_m_1_m_0_cv1_conv_bias_to_fp16, dilations = input_107_dilations_0, groups = input_107_groups_0, pad = input_107_pad_0, pad_type = input_107_pad_type_0, strides = input_107_strides_0, weight = model_4_m_1_m_0_cv1_conv_weight_to_fp16_palettized, x = input_105_cast_fp16)[name = tensor<string, []>("input_107_cast_fp16")];
            tensor<fp16, [1, 64, 80, 80]> input_109_cast_fp16 = silu(x = input_107_cast_fp16)[name = tensor<string, []>("input_109_cast_fp16")];
            tensor<string, []> input_111_pad_type_0 = const()[name = tensor<string, []>("input_111_pad_type_0"), val = tensor<string, []>("custom")];
            tensor<int32, [4]> input_111_pad_0 = const()[name = tensor<string, []>("input_111_pad_0"), val = tensor<int32, [4]>([1, 1, 1, 1])];
            tensor<int32, [2]> input_111_strides_0 = const()[name = tensor<string, []>("input_111_strides_0"), val = tensor<int32, [2]>([1, 1])];
            tensor<int32, [2]> input_111_dilations_0 = const()[name = tensor<string, []>("input_111_dilations_0"), val = tensor<int32, [2]>([1, 1])];
            tensor<int32, []> input_111_groups_0 = const()[name = tensor<string, []>("input_111_groups_0"), val = tensor<int32, []>(1)];
            tensor<fp16, [64, 64, 3, 3]> model_4_m_1_m_0_cv2_conv_weight_to_fp16_palettized = constexpr_lut_to_dense()[indices = tensor<uint8, [36864]>(BLOBFILE(path = tensor<string, []>("@model_path/weights/weight.bin"), offset = tensor<uint64, []>(1153088))), lut = tensor<fp16, [256]>(BLOBFILE(path = tensor<string, []>("@model_path/weights/weight.bin"), offset = tensor<uint64, []>(1190016))), name = tensor<string, []>("model_4_m_1_m_0_cv2_conv_weight_to_fp16_palettized"), shape = tensor<uint32, [4]>([64, 64, 3, 3])];
            tensor<fp16, [64]> model_4_m_1_m_0_cv2_conv_bias_to_fp16 = const()[name = tensor<string, []>("model_4_m_1_m_0_cv2_conv_bias_to_fp16"), val = tensor<fp16, [64]>(BLOBFILE(path = tensor<string, []>("@model_path/weights/weight.bin"), offset = tensor<uint64, []>(1190592)))];
            tensor<fp16, [1, 64, 80, 80]> input_111_cast_fp16 = conv(bias = model_4_m_1_m_0_cv2_conv_bias_to_fp16, dilations = input_111_dilations_0, groups = input_111_groups_0, pad = input_111_pad_0, pad_type = input_111_pad_type_0, strides = input_111_strides_0, weight = model_4_m_1_m_0_cv2_conv_weight_to_fp16_palettized, x = input_109_cast_fp16)[name = tensor<string, []>("input_111_cast_fp16")];
            tensor<fp16, [1, 64, 80, 80]> var_404_cast_fp16 = silu(x = input_111_cast_fp16)[name = tensor<string, []>("op_404_cast_fp16")];
            tensor<fp16, [1, 64, 80, 80]> input_113_cast_fp16 = add(x = input_105_cast_fp16, y = var_404_cast_fp16)[name = tensor<string, []>("input_113_cast_fp16")];
            tensor<string, []> input_115_pad_type_0 = const()[name = tensor<string, []>("input_115_pad_type_0"), val = tensor<string, []>("custom")];
            tensor<int32, [4]> input_115_pad_0 = const()[name = tensor<string, []>("input_115_pad_0"), val = tensor<int32, [4]>([1, 1, 1, 1])];
            tensor<int32, [2]> input_115_strides_0 = const()[name = tensor<string, []>("input_115_strides_0"), val = tensor<int32, [2]>([1, 1])];
            tensor<int32, [2]> input_115_dilations_0 = const()[name = tensor<string, []>("input_115_dilations_0"), val = tensor<int32, [2]>([1, 1])];
            tensor<int32, []> input_115_groups_0 = const()[name = tensor<string, []>("input_115_groups_0"), val = tensor<int32, []>(1)];
            tensor<fp16, [64, 64, 3, 3]> model_4_m_1_m_1_cv1_conv_weight_to_fp16_palettized = constexpr_lut_to_dense()[indices = tensor<uint8, [36864]>(BLOBFILE(path = tensor<string, []>("@model_path/weights/weight.bin"), offset = tensor<uint64, []>(1190784))), lut = tensor<fp16, [256]>(BLOBFILE(path = tensor<string, []>("@model_path/weights/weight.bin"), offset = tensor<uint64, []>(1227712))), name = tensor<string, []>("model_4_m_1_m_1_cv1_conv_weight_to_fp16_palettized"), shape = tensor<uint32, [4]>([64, 64, 3, 3])];
            tensor<fp16, [64]> model_4_m_1_m_1_cv1_conv_bias_to_fp16 = const()[name = tensor<string, []>("model_4_m_1_m_1_cv1_conv_bias_to_fp16"), val = tensor<fp16, [64]>(BLOBFILE(path = tensor<string, []>("@model_path/weights/weight.bin"), offset = tensor<uint64, []>(1228288)))];
            tensor<fp16, [1, 64, 80, 80]> input_115_cast_fp16 = conv(bias = model_4_m_1_m_1_cv1_conv_bias_to_fp16, dilations = input_115_dilations_0, groups = input_115_groups_0, pad = input_115_pad_0, pad_type = input_115_pad_type_0, strides = input_115_strides_0, weight = model_4_m_1_m_1_cv1_conv_weight_to_fp16_palettized, x = input_113_cast_fp16)[name = tensor<string, []>("input_115_cast_fp16")];
            tensor<fp16, [1, 64, 80, 80]> input_117_cast_fp16 = silu(x = input_115_cast_fp16)[name = tensor<string, []>("input_117_cast_fp16")];
            tensor<string, []> input_119_pad_type_0 = const()[name = tensor<string, []>("input_119_pad_type_0"), val = tensor<string, []>("custom")];
            tensor<int32, [4]> input_119_pad_0 = const()[name = tensor<string, []>("input_119_pad_0"), val = tensor<int32, [4]>([1, 1, 1, 1])];
            tensor<int32, [2]> input_119_strides_0 = const()[name = tensor<string, []>("input_119_strides_0"), val = tensor<int32, [2]>([1, 1])];
            tensor<int32, [2]> input_119_dilations_0 = const()[name = tensor<string, []>("input_119_dilations_0"), val = tensor<int32, [2]>([1, 1])];
            tensor<int32, []> input_119_groups_0 = const()[name = tensor<string, []>("input_119_groups_0"), val = tensor<int32, []>(1)];
            tensor<fp16, [64, 64, 3, 3]> model_4_m_1_m_1_cv2_conv_weight_to_fp16_palettized = constexpr_lut_to_dense()[indices = tensor<uint8, [36864]>(BLOBFILE(path = tensor<string, []>("@model_path/weights/weight.bin"), offset = tensor<uint64, []>(1228480))), lut = tensor<fp16, [256]>(BLOBFILE(path = tensor<string, []>("@model_path/weights/weight.bin"), offset = tensor<uint64, []>(1265408))), name = tensor<string, []>("model_4_m_1_m_1_cv2_conv_weight_to_fp16_palettized"), shape = tensor<uint32, [4]>([64, 64, 3, 3])];
            tensor<fp16, [64]> model_4_m_1_m_1_cv2_conv_bias_to_fp16 = const()[name = tensor<string, []>("model_4_m_1_m_1_cv2_conv_bias_to_fp16"), val = tensor<fp16, [64]>(BLOBFILE(path = tensor<string, []>("@model_path/weights/weight.bin"), offset = tensor<uint64, []>(1265984)))];
            tensor<fp16, [1, 64, 80, 80]> input_119_cast_fp16 = conv(bias = model_4_m_1_m_1_cv2_conv_bias_to_fp16, dilations = input_119_dilations_0, groups = input_119_groups_0, pad = input_119_pad_0, pad_type = input_119_pad_type_0, strides = input_119_strides_0, weight = model_4_m_1_m_1_cv2_conv_weight_to_fp16_palettized, x = input_117_cast_fp16)[name = tensor<string, []>("input_119_cast_fp16")];
            tensor<fp16, [1, 64, 80, 80]> var_425_cast_fp16 = silu(x = input_119_cast_fp16)[name = tensor<string, []>("op_425_cast_fp16")];
            tensor<fp16, [1, 64, 80, 80]> var_426_cast_fp16 = add(x = input_113_cast_fp16, y = var_425_cast_fp16)[name = tensor<string, []>("op_426_cast_fp16")];
            tensor<string, []> input_121_pad_type_0 = const()[name = tensor<string, []>("input_121_pad_type_0"), val = tensor<string, []>("valid")];
            tensor<int32, [2]> input_121_strides_0 = const()[name = tensor<string, []>("input_121_strides_0"), val = tensor<int32, [2]>([1, 1])];
            tensor<int32, [4]> input_121_pad_0 = const()[name = tensor<string, []>("input_121_pad_0"), val = tensor<int32, [4]>([0, 0, 0, 0])];
            tensor<int32, [2]> input_121_dilations_0 = const()[name = tensor<string, []>("input_121_dilations_0"), val = tensor<int32, [2]>([1, 1])];
            tensor<int32, []> input_121_groups_0 = const()[name = tensor<string, []>("input_121_groups_0"), val = tensor<int32, []>(1)];
            tensor<fp16, [64, 128, 1, 1]> model_4_m_1_cv2_conv_weight_to_fp16_palettized = constexpr_lut_to_dense()[indices = tensor<uint8, [8192]>(BLOBFILE(path = tensor<string, []>("@model_path/weights/weight.bin"), offset = tensor<uint64, []>(1266176))), lut = tensor<fp16, [256]>(BLOBFILE(path = tensor<string, []>("@model_path/weights/weight.bin"), offset = tensor<uint64, []>(1274432))), name = tensor<string, []>("model_4_m_1_cv2_conv_weight_to_fp16_palettized"), shape = tensor<uint32, [4]>([64, 128, 1, 1])];
            tensor<fp16, [64]> model_4_m_1_cv2_conv_bias_to_fp16 = const()[name = tensor<string, []>("model_4_m_1_cv2_conv_bias_to_fp16"), val = tensor<fp16, [64]>(BLOBFILE(path = tensor<string, []>("@model_path/weights/weight.bin"), offset = tensor<uint64, []>(1275008)))];
            tensor<fp16, [1, 64, 80, 80]> input_121_cast_fp16 = conv(bias = model_4_m_1_cv2_conv_bias_to_fp16, dilations = input_121_dilations_0, groups = input_121_groups_0, pad = input_121_pad_0, pad_type = input_121_pad_type_0, strides = input_121_strides_0, weight = model_4_m_1_cv2_conv_weight_to_fp16_palettized, x = input_101_cast_fp16)[name = tensor<string, []>("input_121_cast_fp16")];
            tensor<fp16, [1, 64, 80, 80]> var_435_cast_fp16 = silu(x = input_121_cast_fp16)[name = tensor<string, []>("op_435_cast_fp16")];
            tensor<bool, []> input_123_interleave_0 = const()[name = tensor<string, []>("input_123_interleave_0"), val = tensor<bool, []>(false)];
            tensor<fp16, [1, 128, 80, 80]> input_123_cast_fp16 = concat(axis = var_273, interleave = input_123_interleave_0, values = (var_426_cast_fp16, var_435_cast_fp16))[name = tensor<string, []>("input_123_cast_fp16")];
            tensor<string, []> input_125_pad_type_0 = const()[name = tensor<string, []>("input_125_pad_type_0"), val = tensor<string, []>("valid")];
            tensor<int32, [2]> input_125_strides_0 = const()[name = tensor<string, []>("input_125_strides_0"), val = tensor<int32, [2]>([1, 1])];
            tensor<int32, [4]> input_125_pad_0 = const()[name = tensor<string, []>("input_125_pad_0"), val = tensor<int32, [4]>([0, 0, 0, 0])];
            tensor<int32, [2]> input_125_dilations_0 = const()[name = tensor<string, []>("input_125_dilations_0"), val = tensor<int32, [2]>([1, 1])];
            tensor<int32, []> input_125_groups_0 = const()[name = tensor<string, []>("input_125_groups_0"), val = tensor<int32, []>(1)];
            tensor<fp16, [128, 128, 1, 1]> model_4_m_1_cv3_conv_weight_to_fp16_palettized = constexpr_lut_to_dense()[indices = tensor<uint8, [16384]>(BLOBFILE(path = tensor<string, []>("@model_path/weights/weight.bin"), offset = tensor<uint64, []>(1275200))), lut = tensor<fp16, [256]>(BLOBFILE(path = tensor<string, []>("@model_path/weights/weight.bin"), offset = tensor<uint64, []>(1291648))), name = tensor<string, []>("model_4_m_1_cv3_conv_weight_to_fp16_palettized"), shape = tensor<uint32, [4]>([128, 128, 1, 1])];
            tensor<fp16, [128]> model_4_m_1_cv3_conv_bias_to_fp16 = const()[name = tensor<string, []>("model_4_m_1_cv3_conv_bias_to_fp16"), val = tensor<fp16, [128]>(BLOBFILE(path = tensor<string, []>("@model_path/weights/weight.bin"), offset = tensor<uint64, []>(1292224)))];
            tensor<fp16, [1, 128, 80, 80]> input_125_cast_fp16 = conv(bias = model_4_m_1_cv3_conv_bias_to_fp16, dilations = input_125_dilations_0, groups = input_125_groups_0, pad = input_125_pad_0, pad_type = input_125_pad_type_0, strides = input_125_strides_0, weight = model_4_m_1_cv3_conv_weight_to_fp16_palettized, x = input_123_cast_fp16)[name = tensor<string, []>("input_125_cast_fp16")];
            tensor<fp16, [1, 128, 80, 80]> var_446_cast_fp16 = silu(x = input_125_cast_fp16)[name = tensor<string, []>("op_446_cast_fp16")];
            tensor<bool, []> input_127_interleave_0 = const()[name = tensor<string, []>("input_127_interleave_0"), val = tensor<bool, []>(false)];
            tensor<fp16, [1, 512, 80, 80]> input_127_cast_fp16 = concat(axis = var_273, interleave = input_127_interleave_0, values = (var_290_cast_fp16_0, var_290_cast_fp16_1, input_101_cast_fp16, var_446_cast_fp16))[name = tensor<string, []>("input_127_cast_fp16")];
            tensor<string, []> input_129_pad_type_0 = const()[name = tensor<string, []>("input_129_pad_type_0"), val = tensor<string, []>("valid")];
            tensor<int32, [2]> input_129_strides_0 = const()[name = tensor<string, []>("input_129_strides_0"), val = tensor<int32, [2]>([1, 1])];
            tensor<int32, [4]> input_129_pad_0 = const()[name = tensor<string, []>("input_129_pad_0"), val = tensor<int32, [4]>([0, 0, 0, 0])];
            tensor<int32, [2]> input_129_dilations_0 = const()[name = tensor<string, []>("input_129_dilations_0"), val = tensor<int32, [2]>([1, 1])];
            tensor<int32, []> input_129_groups_0 = const()[name = tensor<string, []>("input_129_groups_0"), val = tensor<int32, []>(1)];
            tensor<fp16, [512, 512, 1, 1]> model_4_cv2_conv_weight_to_fp16_palettized = constexpr_lut_to_dense()[indices = tensor<uint8, [262144]>(BLOBFILE(path = tensor<string, []>("@model_path/weights/weight.bin"), offset = tensor<uint64, []>(1292544))), lut = tensor<fp16, [256]>(BLOBFILE(path = tensor<string, []>("@model_path/weights/weight.bin"), offset = tensor<uint64, []>(1554752))), name = tensor<string, []>("model_4_cv2_conv_weight_to_fp16_palettized"), shape = tensor<uint32, [4]>([512, 512, 1, 1])];
            tensor<fp16, [512]> model_4_cv2_conv_bias_to_fp16 = const()[name = tensor<string, []>("model_4_cv2_conv_bias_to_fp16"), val = tensor<fp16, [512]>(BLOBFILE(path = tensor<string, []>("@model_path/weights/weight.bin"), offset = tensor<uint64, []>(1555328)))];
            tensor<fp16, [1, 512, 80, 80]> input_129_cast_fp16 = conv(bias = model_4_cv2_conv_bias_to_fp16, dilations = input_129_dilations_0, groups = input_129_groups_0, pad = input_129_pad_0, pad_type = input_129_pad_type_0, strides = input_129_strides_0, weight = model_4_cv2_conv_weight_to_fp16_palettized, x = input_127_cast_fp16)[name = tensor<string, []>("input_129_cast_fp16")];
            tensor<fp16, [1, 512, 80, 80]> input_131_cast_fp16 = silu(x = input_129_cast_fp16)[name = tensor<string, []>("input_131_cast_fp16")];
            tensor<string, []> input_133_pad_type_0 = const()[name = tensor<string, []>("input_133_pad_type_0"), val = tensor<string, []>("custom")];
            tensor<int32, [4]> input_133_pad_0 = const()[name = tensor<string, []>("input_133_pad_0"), val = tensor<int32, [4]>([1, 1, 1, 1])];
            tensor<int32, [2]> input_133_strides_0 = const()[name = tensor<string, []>("input_133_strides_0"), val = tensor<int32, [2]>([2, 2])];
            tensor<int32, [2]> input_133_dilations_0 = const()[name = tensor<string, []>("input_133_dilations_0"), val = tensor<int32, [2]>([1, 1])];
            tensor<int32, []> input_133_groups_0 = const()[name = tensor<string, []>("input_133_groups_0"), val = tensor<int32, []>(1)];
            tensor<fp16, [512, 512, 3, 3]> model_5_conv_weight_to_fp16_palettized = constexpr_lut_to_dense()[indices = tensor<uint8, [2359296]>(BLOBFILE(path = tensor<string, []>("@model_path/weights/weight.bin"), offset = tensor<uint64, []>(1556416))), lut = tensor<fp16, [256]>(BLOBFILE(path = tensor<string, []>("@model_path/weights/weight.bin"), offset = tensor<uint64, []>(3915776))), name = tensor<string, []>("model_5_conv_weight_to_fp16_palettized"), shape = tensor<uint32, [4]>([512, 512, 3, 3])];
            tensor<fp16, [512]> model_5_conv_bias_to_fp16 = const()[name = tensor<string, []>("model_5_conv_bias_to_fp16"), val = tensor<fp16, [512]>(BLOBFILE(path = tensor<string, []>("@model_path/weights/weight.bin"), offset = tensor<uint64, []>(3916352)))];
            tensor<fp16, [1, 512, 40, 40]> input_133_cast_fp16 = conv(bias = model_5_conv_bias_to_fp16, dilations = input_133_dilations_0, groups = input_133_groups_0, pad = input_133_pad_0, pad_type = input_133_pad_type_0, strides = input_133_strides_0, weight = model_5_conv_weight_to_fp16_palettized, x = input_131_cast_fp16)[name = tensor<string, []>("input_133_cast_fp16")];
            tensor<fp16, [1, 512, 40, 40]> input_135_cast_fp16 = silu(x = input_133_cast_fp16)[name = tensor<string, []>("input_135_cast_fp16")];
            tensor<int32, []> var_476 = const()[name = tensor<string, []>("op_476"), val = tensor<int32, []>(1)];
            tensor<string, []> input_137_pad_type_0 = const()[name = tensor<string, []>("input_137_pad_type_0"), val = tensor<string, []>("valid")];
            tensor<int32, [2]> input_137_strides_0 = const()[name = tensor<string, []>("input_137_strides_0"), val = tensor<int32, [2]>([1, 1])];
            tensor<int32, [4]> input_137_pad_0 = const()[name = tensor<string, []>("input_137_pad_0"), val = tensor<int32, [4]>([0, 0, 0, 0])];
            tensor<int32, [2]> input_137_dilations_0 = const()[name = tensor<string, []>("input_137_dilations_0"), val = tensor<int32, [2]>([1, 1])];
            tensor<int32, []> input_137_groups_0 = const()[name = tensor<string, []>("input_137_groups_0"), val = tensor<int32, []>(1)];
            tensor<fp16, [512, 512, 1, 1]> model_6_cv1_conv_weight_to_fp16_palettized = constexpr_lut_to_dense()[indices = tensor<uint8, [262144]>(BLOBFILE(path = tensor<string, []>("@model_path/weights/weight.bin"), offset = tensor<uint64, []>(3917440))), lut = tensor<fp16, [256]>(BLOBFILE(path = tensor<string, []>("@model_path/weights/weight.bin"), offset = tensor<uint64, []>(4179648))), name = tensor<string, []>("model_6_cv1_conv_weight_to_fp16_palettized"), shape = tensor<uint32, [4]>([512, 512, 1, 1])];
            tensor<fp16, [512]> model_6_cv1_conv_bias_to_fp16 = const()[name = tensor<string, []>("model_6_cv1_conv_bias_to_fp16"), val = tensor<fp16, [512]>(BLOBFILE(path = tensor<string, []>("@model_path/weights/weight.bin"), offset = tensor<uint64, []>(4180224)))];
            tensor<fp16, [1, 512, 40, 40]> input_137_cast_fp16 = conv(bias = model_6_cv1_conv_bias_to_fp16, dilations = input_137_dilations_0, groups = input_137_groups_0, pad = input_137_pad_0, pad_type = input_137_pad_type_0, strides = input_137_strides_0, weight = model_6_cv1_conv_weight_to_fp16_palettized, x = input_135_cast_fp16)[name = tensor<string, []>("input_137_cast_fp16")];
            tensor<fp16, [1, 512, 40, 40]> var_491_cast_fp16 = silu(x = input_137_cast_fp16)[name = tensor<string, []>("op_491_cast_fp16")];
            tensor<int32, [2]> var_492 = const()[name = tensor<string, []>("op_492"), val = tensor<int32, [2]>([256, 256])];
            tensor<int32, []> var_493_axis_0 = const()[name = tensor<string, []>("op_493_axis_0"), val = tensor<int32, []>(1)];
            tensor<fp16, [1, 256, 40, 40]> var_493_cast_fp16_0, tensor<fp16, [1, 256, 40, 40]> var_493_cast_fp16_1 = split(axis = var_493_axis_0, split_sizes = var_492, x = var_491_cast_fp16)[name = tensor<string, []>("op_493_cast_fp16")];
            tensor<string, []> input_141_pad_type_0 = const()[name = tensor<string, []>("input_141_pad_type_0"), val = tensor<string, []>("valid")];
            tensor<int32, [2]> input_141_strides_0 = const()[name = tensor<string, []>("input_141_strides_0"), val = tensor<int32, [2]>([1, 1])];
            tensor<int32, [4]> input_141_pad_0 = const()[name = tensor<string, []>("input_141_pad_0"), val = tensor<int32, [4]>([0, 0, 0, 0])];
            tensor<int32, [2]> input_141_dilations_0 = const()[name = tensor<string, []>("input_141_dilations_0"), val = tensor<int32, [2]>([1, 1])];
            tensor<int32, []> input_141_groups_0 = const()[name = tensor<string, []>("input_141_groups_0"), val = tensor<int32, []>(1)];
            tensor<fp16, [128, 256, 1, 1]> model_6_m_0_cv1_conv_weight_to_fp16_palettized = constexpr_lut_to_dense()[indices = tensor<uint8, [32768]>(BLOBFILE(path = tensor<string, []>("@model_path/weights/weight.bin"), offset = tensor<uint64, []>(4181312))), lut = tensor<fp16, [256]>(BLOBFILE(path = tensor<string, []>("@model_path/weights/weight.bin"), offset = tensor<uint64, []>(4214144))), name = tensor<string, []>("model_6_m_0_cv1_conv_weight_to_fp16_palettized"), shape = tensor<uint32, [4]>([128, 256, 1, 1])];
            tensor<fp16, [128]> model_6_m_0_cv1_conv_bias_to_fp16 = const()[name = tensor<string, []>("model_6_m_0_cv1_conv_bias_to_fp16"), val = tensor<fp16, [128]>(BLOBFILE(path = tensor<string, []>("@model_path/weights/weight.bin"), offset = tensor<uint64, []>(4214720)))];
            tensor<fp16, [1, 128, 40, 40]> input_141_cast_fp16 = conv(bias = model_6_m_0_cv1_conv_bias_to_fp16, dilations = input_141_dilations_0, groups = input_141_groups_0, pad = input_141_pad_0, pad_type = input_141_pad_type_0, strides = input_141_strides_0, weight = model_6_m_0_cv1_conv_weight_to_fp16_palettized, x = var_493_cast_fp16_1)[name = tensor<string, []>("input_141_cast_fp16")];
            tensor<fp16, [1, 128, 40, 40]> input_143_cast_fp16 = silu(x = input_141_cast_fp16)[name = tensor<string, []>("input_143_cast_fp16")];
            tensor<string, []> input_145_pad_type_0 = const()[name = tensor<string, []>("input_145_pad_type_0"), val = tensor<string, []>("custom")];
            tensor<int32, [4]> input_145_pad_0 = const()[name = tensor<string, []>("input_145_pad_0"), val = tensor<int32, [4]>([1, 1, 1, 1])];
            tensor<int32, [2]> input_145_strides_0 = const()[name = tensor<string, []>("input_145_strides_0"), val = tensor<int32, [2]>([1, 1])];
            tensor<int32, [2]> input_145_dilations_0 = const()[name = tensor<string, []>("input_145_dilations_0"), val = tensor<int32, [2]>([1, 1])];
            tensor<int32, []> input_145_groups_0 = const()[name = tensor<string, []>("input_145_groups_0"), val = tensor<int32, []>(1)];
            tensor<fp16, [128, 128, 3, 3]> model_6_m_0_m_0_cv1_conv_weight_to_fp16_palettized = constexpr_lut_to_dense()[indices = tensor<uint8, [147456]>(BLOBFILE(path = tensor<string, []>("@model_path/weights/weight.bin"), offset = tensor<uint64, []>(4215040))), lut = tensor<fp16, [256]>(BLOBFILE(path = tensor<string, []>("@model_path/weights/weight.bin"), offset = tensor<uint64, []>(4362560))), name = tensor<string, []>("model_6_m_0_m_0_cv1_conv_weight_to_fp16_palettized"), shape = tensor<uint32, [4]>([128, 128, 3, 3])];
            tensor<fp16, [128]> model_6_m_0_m_0_cv1_conv_bias_to_fp16 = const()[name = tensor<string, []>("model_6_m_0_m_0_cv1_conv_bias_to_fp16"), val = tensor<fp16, [128]>(BLOBFILE(path = tensor<string, []>("@model_path/weights/weight.bin"), offset = tensor<uint64, []>(4363136)))];
            tensor<fp16, [1, 128, 40, 40]> input_145_cast_fp16 = conv(bias = model_6_m_0_m_0_cv1_conv_bias_to_fp16, dilations = input_145_dilations_0, groups = input_145_groups_0, pad = input_145_pad_0, pad_type = input_145_pad_type_0, strides = input_145_strides_0, weight = model_6_m_0_m_0_cv1_conv_weight_to_fp16_palettized, x = input_143_cast_fp16)[name = tensor<string, []>("input_145_cast_fp16")];
            tensor<fp16, [1, 128, 40, 40]> input_147_cast_fp16 = silu(x = input_145_cast_fp16)[name = tensor<string, []>("input_147_cast_fp16")];
            tensor<string, []> input_149_pad_type_0 = const()[name = tensor<string, []>("input_149_pad_type_0"), val = tensor<string, []>("custom")];
            tensor<int32, [4]> input_149_pad_0 = const()[name = tensor<string, []>("input_149_pad_0"), val = tensor<int32, [4]>([1, 1, 1, 1])];
            tensor<int32, [2]> input_149_strides_0 = const()[name = tensor<string, []>("input_149_strides_0"), val = tensor<int32, [2]>([1, 1])];
            tensor<int32, [2]> input_149_dilations_0 = const()[name = tensor<string, []>("input_149_dilations_0"), val = tensor<int32, [2]>([1, 1])];
            tensor<int32, []> input_149_groups_0 = const()[name = tensor<string, []>("input_149_groups_0"), val = tensor<int32, []>(1)];
            tensor<fp16, [128, 128, 3, 3]> model_6_m_0_m_0_cv2_conv_weight_to_fp16_palettized = constexpr_lut_to_dense()[indices = tensor<uint8, [147456]>(BLOBFILE(path = tensor<string, []>("@model_path/weights/weight.bin"), offset = tensor<uint64, []>(4363456))), lut = tensor<fp16, [256]>(BLOBFILE(path = tensor<string, []>("@model_path/weights/weight.bin"), offset = tensor<uint64, []>(4510976))), name = tensor<string, []>("model_6_m_0_m_0_cv2_conv_weight_to_fp16_palettized"), shape = tensor<uint32, [4]>([128, 128, 3, 3])];
            tensor<fp16, [128]> model_6_m_0_m_0_cv2_conv_bias_to_fp16 = const()[name = tensor<string, []>("model_6_m_0_m_0_cv2_conv_bias_to_fp16"), val = tensor<fp16, [128]>(BLOBFILE(path = tensor<string, []>("@model_path/weights/weight.bin"), offset = tensor<uint64, []>(4511552)))];
            tensor<fp16, [1, 128, 40, 40]> input_149_cast_fp16 = conv(bias = model_6_m_0_m_0_cv2_conv_bias_to_fp16, dilations = input_149_dilations_0, groups = input_149_groups_0, pad = input_149_pad_0, pad_type = input_149_pad_type_0, strides = input_149_strides_0, weight = model_6_m_0_m_0_cv2_conv_weight_to_fp16_palettized, x = input_147_cast_fp16)[name = tensor<string, []>("input_149_cast_fp16")];
            tensor<fp16, [1, 128, 40, 40]> var_530_cast_fp16 = silu(x = input_149_cast_fp16)[name = tensor<string, []>("op_530_cast_fp16")];
            tensor<fp16, [1, 128, 40, 40]> input_151_cast_fp16 = add(x = input_143_cast_fp16, y = var_530_cast_fp16)[name = tensor<string, []>("input_151_cast_fp16")];
            tensor<string, []> input_153_pad_type_0 = const()[name = tensor<string, []>("input_153_pad_type_0"), val = tensor<string, []>("custom")];
            tensor<int32, [4]> input_153_pad_0 = const()[name = tensor<string, []>("input_153_pad_0"), val = tensor<int32, [4]>([1, 1, 1, 1])];
            tensor<int32, [2]> input_153_strides_0 = const()[name = tensor<string, []>("input_153_strides_0"), val = tensor<int32, [2]>([1, 1])];
            tensor<int32, [2]> input_153_dilations_0 = const()[name = tensor<string, []>("input_153_dilations_0"), val = tensor<int32, [2]>([1, 1])];
            tensor<int32, []> input_153_groups_0 = const()[name = tensor<string, []>("input_153_groups_0"), val = tensor<int32, []>(1)];
            tensor<fp16, [128, 128, 3, 3]> model_6_m_0_m_1_cv1_conv_weight_to_fp16_palettized = constexpr_lut_to_dense()[indices = tensor<uint8, [147456]>(BLOBFILE(path = tensor<string, []>("@model_path/weights/weight.bin"), offset = tensor<uint64, []>(4511872))), lut = tensor<fp16, [256]>(BLOBFILE(path = tensor<string, []>("@model_path/weights/weight.bin"), offset = tensor<uint64, []>(4659392))), name = tensor<string, []>("model_6_m_0_m_1_cv1_conv_weight_to_fp16_palettized"), shape = tensor<uint32, [4]>([128, 128, 3, 3])];
            tensor<fp16, [128]> model_6_m_0_m_1_cv1_conv_bias_to_fp16 = const()[name = tensor<string, []>("model_6_m_0_m_1_cv1_conv_bias_to_fp16"), val = tensor<fp16, [128]>(BLOBFILE(path = tensor<string, []>("@model_path/weights/weight.bin"), offset = tensor<uint64, []>(4659968)))];
            tensor<fp16, [1, 128, 40, 40]> input_153_cast_fp16 = conv(bias = model_6_m_0_m_1_cv1_conv_bias_to_fp16, dilations = input_153_dilations_0, groups = input_153_groups_0, pad = input_153_pad_0, pad_type = input_153_pad_type_0, strides = input_153_strides_0, weight = model_6_m_0_m_1_cv1_conv_weight_to_fp16_palettized, x = input_151_cast_fp16)[name = tensor<string, []>("input_153_cast_fp16")];
            tensor<fp16, [1, 128, 40, 40]> input_155_cast_fp16 = silu(x = input_153_cast_fp16)[name = tensor<string, []>("input_155_cast_fp16")];
            tensor<string, []> input_157_pad_type_0 = const()[name = tensor<string, []>("input_157_pad_type_0"), val = tensor<string, []>("custom")];
            tensor<int32, [4]> input_157_pad_0 = const()[name = tensor<string, []>("input_157_pad_0"), val = tensor<int32, [4]>([1, 1, 1, 1])];
            tensor<int32, [2]> input_157_strides_0 = const()[name = tensor<string, []>("input_157_strides_0"), val = tensor<int32, [2]>([1, 1])];
            tensor<int32, [2]> input_157_dilations_0 = const()[name = tensor<string, []>("input_157_dilations_0"), val = tensor<int32, [2]>([1, 1])];
            tensor<int32, []> input_157_groups_0 = const()[name = tensor<string, []>("input_157_groups_0"), val = tensor<int32, []>(1)];
            tensor<fp16, [128, 128, 3, 3]> model_6_m_0_m_1_cv2_conv_weight_to_fp16_palettized = constexpr_lut_to_dense()[indices = tensor<uint8, [147456]>(BLOBFILE(path = tensor<string, []>("@model_path/weights/weight.bin"), offset = tensor<uint64, []>(4660288))), lut = tensor<fp16, [256]>(BLOBFILE(path = tensor<string, []>("@model_path/weights/weight.bin"), offset = tensor<uint64, []>(4807808))), name = tensor<string, []>("model_6_m_0_m_1_cv2_conv_weight_to_fp16_palettized"), shape = tensor<uint32, [4]>([128, 128, 3, 3])];
            tensor<fp16, [128]> model_6_m_0_m_1_cv2_conv_bias_to_fp16 = const()[name = tensor<string, []>("model_6_m_0_m_1_cv2_conv_bias_to_fp16"), val = tensor<fp16, [128]>(BLOBFILE(path = tensor<string, []>("@model_path/weights/weight.bin"), offset = tensor<uint64, []>(4808384)))];
            tensor<fp16, [1, 128, 40, 40]> input_157_cast_fp16 = conv(bias = model_6_m_0_m_1_cv2_conv_bias_to_fp16, dilations = input_157_dilations_0, groups = input_157_groups_0, pad = input_157_pad_0, pad_type = input_157_pad_type_0, strides = input_157_strides_0, weight = model_6_m_0_m_1_cv2_conv_weight_to_fp16_palettized, x = input_155_cast_fp16)[name = tensor<string, []>("input_157_cast_fp16")];
            tensor<fp16, [1, 128, 40, 40]> var_551_cast_fp16 = silu(x = input_157_cast_fp16)[name = tensor<string, []>("op_551_cast_fp16")];
            tensor<fp16, [1, 128, 40, 40]> var_552_cast_fp16 = add(x = input_151_cast_fp16, y = var_551_cast_fp16)[name = tensor<string, []>("op_552_cast_fp16")];
            tensor<string, []> input_159_pad_type_0 = const()[name = tensor<string, []>("input_159_pad_type_0"), val = tensor<string, []>("valid")];
            tensor<int32, [2]> input_159_strides_0 = const()[name = tensor<string, []>("input_159_strides_0"), val = tensor<int32, [2]>([1, 1])];
            tensor<int32, [4]> input_159_pad_0 = const()[name = tensor<string, []>("input_159_pad_0"), val = tensor<int32, [4]>([0, 0, 0, 0])];
            tensor<int32, [2]> input_159_dilations_0 = const()[name = tensor<string, []>("input_159_dilations_0"), val = tensor<int32, [2]>([1, 1])];
            tensor<int32, []> input_159_groups_0 = const()[name = tensor<string, []>("input_159_groups_0"), val = tensor<int32, []>(1)];
            tensor<fp16, [128, 256, 1, 1]> model_6_m_0_cv2_conv_weight_to_fp16_palettized = constexpr_lut_to_dense()[indices = tensor<uint8, [32768]>(BLOBFILE(path = tensor<string, []>("@model_path/weights/weight.bin"), offset = tensor<uint64, []>(4808704))), lut = tensor<fp16, [256]>(BLOBFILE(path = tensor<string, []>("@model_path/weights/weight.bin"), offset = tensor<uint64, []>(4841536))), name = tensor<string, []>("model_6_m_0_cv2_conv_weight_to_fp16_palettized"), shape = tensor<uint32, [4]>([128, 256, 1, 1])];
            tensor<fp16, [128]> model_6_m_0_cv2_conv_bias_to_fp16 = const()[name = tensor<string, []>("model_6_m_0_cv2_conv_bias_to_fp16"), val = tensor<fp16, [128]>(BLOBFILE(path = tensor<string, []>("@model_path/weights/weight.bin"), offset = tensor<uint64, []>(4842112)))];
            tensor<fp16, [1, 128, 40, 40]> input_159_cast_fp16 = conv(bias = model_6_m_0_cv2_conv_bias_to_fp16, dilations = input_159_dilations_0, groups = input_159_groups_0, pad = input_159_pad_0, pad_type = input_159_pad_type_0, strides = input_159_strides_0, weight = model_6_m_0_cv2_conv_weight_to_fp16_palettized, x = var_493_cast_fp16_1)[name = tensor<string, []>("input_159_cast_fp16")];
            tensor<fp16, [1, 128, 40, 40]> var_561_cast_fp16 = silu(x = input_159_cast_fp16)[name = tensor<string, []>("op_561_cast_fp16")];
            tensor<bool, []> input_161_interleave_0 = const()[name = tensor<string, []>("input_161_interleave_0"), val = tensor<bool, []>(false)];
            tensor<fp16, [1, 256, 40, 40]> input_161_cast_fp16 = concat(axis = var_476, interleave = input_161_interleave_0, values = (var_552_cast_fp16, var_561_cast_fp16))[name = tensor<string, []>("input_161_cast_fp16")];
            tensor<string, []> input_163_pad_type_0 = const()[name = tensor<string, []>("input_163_pad_type_0"), val = tensor<string, []>("valid")];
            tensor<int32, [2]> input_163_strides_0 = const()[name = tensor<string, []>("input_163_strides_0"), val = tensor<int32, [2]>([1, 1])];
            tensor<int32, [4]> input_163_pad_0 = const()[name = tensor<string, []>("input_163_pad_0"), val = tensor<int32, [4]>([0, 0, 0, 0])];
            tensor<int32, [2]> input_163_dilations_0 = const()[name = tensor<string, []>("input_163_dilations_0"), val = tensor<int32, [2]>([1, 1])];
            tensor<int32, []> input_163_groups_0 = const()[name = tensor<string, []>("input_163_groups_0"), val = tensor<int32, []>(1)];
            tensor<fp16, [256, 256, 1, 1]> model_6_m_0_cv3_conv_weight_to_fp16_palettized = constexpr_lut_to_dense()[indices = tensor<uint8, [65536]>(BLOBFILE(path = tensor<string, []>("@model_path/weights/weight.bin"), offset = tensor<uint64, []>(4842432))), lut = tensor<fp16, [256]>(BLOBFILE(path = tensor<string, []>("@model_path/weights/weight.bin"), offset = tensor<uint64, []>(4908032))), name = tensor<string, []>("model_6_m_0_cv3_conv_weight_to_fp16_palettized"), shape = tensor<uint32, [4]>([256, 256, 1, 1])];
            tensor<fp16, [256]> model_6_m_0_cv3_conv_bias_to_fp16 = const()[name = tensor<string, []>("model_6_m_0_cv3_conv_bias_to_fp16"), val = tensor<fp16, [256]>(BLOBFILE(path = tensor<string, []>("@model_path/weights/weight.bin"), offset = tensor<uint64, []>(4908608)))];
            tensor<fp16, [1, 256, 40, 40]> input_163_cast_fp16 = conv(bias = model_6_m_0_cv3_conv_bias_to_fp16, dilations = input_163_dilations_0, groups = input_163_groups_0, pad = input_163_pad_0, pad_type = input_163_pad_type_0, strides = input_163_strides_0, weight = model_6_m_0_cv3_conv_weight_to_fp16_palettized, x = input_161_cast_fp16)[name = tensor<string, []>("input_163_cast_fp16")];
            tensor<fp16, [1, 256, 40, 40]> input_165_cast_fp16 = silu(x = input_163_cast_fp16)[name = tensor<string, []>("input_165_cast_fp16")];
            tensor<string, []> input_167_pad_type_0 = const()[name = tensor<string, []>("input_167_pad_type_0"), val = tensor<string, []>("valid")];
            tensor<int32, [2]> input_167_strides_0 = const()[name = tensor<string, []>("input_167_strides_0"), val = tensor<int32, [2]>([1, 1])];
            tensor<int32, [4]> input_167_pad_0 = const()[name = tensor<string, []>("input_167_pad_0"), val = tensor<int32, [4]>([0, 0, 0, 0])];
            tensor<int32, [2]> input_167_dilations_0 = const()[name = tensor<string, []>("input_167_dilations_0"), val = tensor<int32, [2]>([1, 1])];
            tensor<int32, []> input_167_groups_0 = const()[name = tensor<string, []>("input_167_groups_0"), val = tensor<int32, []>(1)];
            tensor<fp16, [128, 256, 1, 1]> model_6_m_1_cv1_conv_weight_to_fp16_palettized = constexpr_lut_to_dense()[indices = tensor<uint8, [32768]>(BLOBFILE(path = tensor<string, []>("@model_path/weights/weight.bin"), offset = tensor<uint64, []>(4909184))), lut = tensor<fp16, [256]>(BLOBFILE(path = tensor<string, []>("@model_path/weights/weight.bin"), offset = tensor<uint64, []>(4942016))), name = tensor<string, []>("model_6_m_1_cv1_conv_weight_to_fp16_palettized"), shape = tensor<uint32, [4]>([128, 256, 1, 1])];
            tensor<fp16, [128]> model_6_m_1_cv1_conv_bias_to_fp16 = const()[name = tensor<string, []>("model_6_m_1_cv1_conv_bias_to_fp16"), val = tensor<fp16, [128]>(BLOBFILE(path = tensor<string, []>("@model_path/weights/weight.bin"), offset = tensor<uint64, []>(4942592)))];
            tensor<fp16, [1, 128, 40, 40]> input_167_cast_fp16 = conv(bias = model_6_m_1_cv1_conv_bias_to_fp16, dilations = input_167_dilations_0, groups = input_167_groups_0, pad = input_167_pad_0, pad_type = input_167_pad_type_0, strides = input_167_strides_0, weight = model_6_m_1_cv1_conv_weight_to_fp16_palettized, x = input_165_cast_fp16)[name = tensor<string, []>("input_167_cast_fp16")];
            tensor<fp16, [1, 128, 40, 40]> input_169_cast_fp16 = silu(x = input_167_cast_fp16)[name = tensor<string, []>("input_169_cast_fp16")];
            tensor<string, []> input_171_pad_type_0 = const()[name = tensor<string, []>("input_171_pad_type_0"), val = tensor<string, []>("custom")];
            tensor<int32, [4]> input_171_pad_0 = const()[name = tensor<string, []>("input_171_pad_0"), val = tensor<int32, [4]>([1, 1, 1, 1])];
            tensor<int32, [2]> input_171_strides_0 = const()[name = tensor<string, []>("input_171_strides_0"), val = tensor<int32, [2]>([1, 1])];
            tensor<int32, [2]> input_171_dilations_0 = const()[name = tensor<string, []>("input_171_dilations_0"), val = tensor<int32, [2]>([1, 1])];
            tensor<int32, []> input_171_groups_0 = const()[name = tensor<string, []>("input_171_groups_0"), val = tensor<int32, []>(1)];
            tensor<fp16, [128, 128, 3, 3]> model_6_m_1_m_0_cv1_conv_weight_to_fp16_palettized = constexpr_lut_to_dense()[indices = tensor<uint8, [147456]>(BLOBFILE(path = tensor<string, []>("@model_path/weights/weight.bin"), offset = tensor<uint64, []>(4942912))), lut = tensor<fp16, [256]>(BLOBFILE(path = tensor<string, []>("@model_path/weights/weight.bin"), offset = tensor<uint64, []>(5090432))), name = tensor<string, []>("model_6_m_1_m_0_cv1_conv_weight_to_fp16_palettized"), shape = tensor<uint32, [4]>([128, 128, 3, 3])];
            tensor<fp16, [128]> model_6_m_1_m_0_cv1_conv_bias_to_fp16 = const()[name = tensor<string, []>("model_6_m_1_m_0_cv1_conv_bias_to_fp16"), val = tensor<fp16, [128]>(BLOBFILE(path = tensor<string, []>("@model_path/weights/weight.bin"), offset = tensor<uint64, []>(5091008)))];
            tensor<fp16, [1, 128, 40, 40]> input_171_cast_fp16 = conv(bias = model_6_m_1_m_0_cv1_conv_bias_to_fp16, dilations = input_171_dilations_0, groups = input_171_groups_0, pad = input_171_pad_0, pad_type = input_171_pad_type_0, strides = input_171_strides_0, weight = model_6_m_1_m_0_cv1_conv_weight_to_fp16_palettized, x = input_169_cast_fp16)[name = tensor<string, []>("input_171_cast_fp16")];
            tensor<fp16, [1, 128, 40, 40]> input_173_cast_fp16 = silu(x = input_171_cast_fp16)[name = tensor<string, []>("input_173_cast_fp16")];
            tensor<string, []> input_175_pad_type_0 = const()[name = tensor<string, []>("input_175_pad_type_0"), val = tensor<string, []>("custom")];
            tensor<int32, [4]> input_175_pad_0 = const()[name = tensor<string, []>("input_175_pad_0"), val = tensor<int32, [4]>([1, 1, 1, 1])];
            tensor<int32, [2]> input_175_strides_0 = const()[name = tensor<string, []>("input_175_strides_0"), val = tensor<int32, [2]>([1, 1])];
            tensor<int32, [2]> input_175_dilations_0 = const()[name = tensor<string, []>("input_175_dilations_0"), val = tensor<int32, [2]>([1, 1])];
            tensor<int32, []> input_175_groups_0 = const()[name = tensor<string, []>("input_175_groups_0"), val = tensor<int32, []>(1)];
            tensor<fp16, [128, 128, 3, 3]> model_6_m_1_m_0_cv2_conv_weight_to_fp16_palettized = constexpr_lut_to_dense()[indices = tensor<uint8, [147456]>(BLOBFILE(path = tensor<string, []>("@model_path/weights/weight.bin"), offset = tensor<uint64, []>(5091328))), lut = tensor<fp16, [256]>(BLOBFILE(path = tensor<string, []>("@model_path/weights/weight.bin"), offset = tensor<uint64, []>(5238848))), name = tensor<string, []>("model_6_m_1_m_0_cv2_conv_weight_to_fp16_palettized"), shape = tensor<uint32, [4]>([128, 128, 3, 3])];
            tensor<fp16, [128]> model_6_m_1_m_0_cv2_conv_bias_to_fp16 = const()[name = tensor<string, []>("model_6_m_1_m_0_cv2_conv_bias_to_fp16"), val = tensor<fp16, [128]>(BLOBFILE(path = tensor<string, []>("@model_path/weights/weight.bin"), offset = tensor<uint64, []>(5239424)))];
            tensor<fp16, [1, 128, 40, 40]> input_175_cast_fp16 = conv(bias = model_6_m_1_m_0_cv2_conv_bias_to_fp16, dilations = input_175_dilations_0, groups = input_175_groups_0, pad = input_175_pad_0, pad_type = input_175_pad_type_0, strides = input_175_strides_0, weight = model_6_m_1_m_0_cv2_conv_weight_to_fp16_palettized, x = input_173_cast_fp16)[name = tensor<string, []>("input_175_cast_fp16")];
            tensor<fp16, [1, 128, 40, 40]> var_607_cast_fp16 = silu(x = input_175_cast_fp16)[name = tensor<string, []>("op_607_cast_fp16")];
            tensor<fp16, [1, 128, 40, 40]> input_177_cast_fp16 = add(x = input_169_cast_fp16, y = var_607_cast_fp16)[name = tensor<string, []>("input_177_cast_fp16")];
            tensor<string, []> input_179_pad_type_0 = const()[name = tensor<string, []>("input_179_pad_type_0"), val = tensor<string, []>("custom")];
            tensor<int32, [4]> input_179_pad_0 = const()[name = tensor<string, []>("input_179_pad_0"), val = tensor<int32, [4]>([1, 1, 1, 1])];
            tensor<int32, [2]> input_179_strides_0 = const()[name = tensor<string, []>("input_179_strides_0"), val = tensor<int32, [2]>([1, 1])];
            tensor<int32, [2]> input_179_dilations_0 = const()[name = tensor<string, []>("input_179_dilations_0"), val = tensor<int32, [2]>([1, 1])];
            tensor<int32, []> input_179_groups_0 = const()[name = tensor<string, []>("input_179_groups_0"), val = tensor<int32, []>(1)];
            tensor<fp16, [128, 128, 3, 3]> model_6_m_1_m_1_cv1_conv_weight_to_fp16_palettized = constexpr_lut_to_dense()[indices = tensor<uint8, [147456]>(BLOBFILE(path = tensor<string, []>("@model_path/weights/weight.bin"), offset = tensor<uint64, []>(5239744))), lut = tensor<fp16, [256]>(BLOBFILE(path = tensor<string, []>("@model_path/weights/weight.bin"), offset = tensor<uint64, []>(5387264))), name = tensor<string, []>("model_6_m_1_m_1_cv1_conv_weight_to_fp16_palettized"), shape = tensor<uint32, [4]>([128, 128, 3, 3])];
            tensor<fp16, [128]> model_6_m_1_m_1_cv1_conv_bias_to_fp16 = const()[name = tensor<string, []>("model_6_m_1_m_1_cv1_conv_bias_to_fp16"), val = tensor<fp16, [128]>(BLOBFILE(path = tensor<string, []>("@model_path/weights/weight.bin"), offset = tensor<uint64, []>(5387840)))];
            tensor<fp16, [1, 128, 40, 40]> input_179_cast_fp16 = conv(bias = model_6_m_1_m_1_cv1_conv_bias_to_fp16, dilations = input_179_dilations_0, groups = input_179_groups_0, pad = input_179_pad_0, pad_type = input_179_pad_type_0, strides = input_179_strides_0, weight = model_6_m_1_m_1_cv1_conv_weight_to_fp16_palettized, x = input_177_cast_fp16)[name = tensor<string, []>("input_179_cast_fp16")];
            tensor<fp16, [1, 128, 40, 40]> input_181_cast_fp16 = silu(x = input_179_cast_fp16)[name = tensor<string, []>("input_181_cast_fp16")];
            tensor<string, []> input_183_pad_type_0 = const()[name = tensor<string, []>("input_183_pad_type_0"), val = tensor<string, []>("custom")];
            tensor<int32, [4]> input_183_pad_0 = const()[name = tensor<string, []>("input_183_pad_0"), val = tensor<int32, [4]>([1, 1, 1, 1])];
            tensor<int32, [2]> input_183_strides_0 = const()[name = tensor<string, []>("input_183_strides_0"), val = tensor<int32, [2]>([1, 1])];
            tensor<int32, [2]> input_183_dilations_0 = const()[name = tensor<string, []>("input_183_dilations_0"), val = tensor<int32, [2]>([1, 1])];
            tensor<int32, []> input_183_groups_0 = const()[name = tensor<string, []>("input_183_groups_0"), val = tensor<int32, []>(1)];
            tensor<fp16, [128, 128, 3, 3]> model_6_m_1_m_1_cv2_conv_weight_to_fp16_palettized = constexpr_lut_to_dense()[indices = tensor<uint8, [147456]>(BLOBFILE(path = tensor<string, []>("@model_path/weights/weight.bin"), offset = tensor<uint64, []>(5388160))), lut = tensor<fp16, [256]>(BLOBFILE(path = tensor<string, []>("@model_path/weights/weight.bin"), offset = tensor<uint64, []>(5535680))), name = tensor<string, []>("model_6_m_1_m_1_cv2_conv_weight_to_fp16_palettized"), shape = tensor<uint32, [4]>([128, 128, 3, 3])];
            tensor<fp16, [128]> model_6_m_1_m_1_cv2_conv_bias_to_fp16 = const()[name = tensor<string, []>("model_6_m_1_m_1_cv2_conv_bias_to_fp16"), val = tensor<fp16, [128]>(BLOBFILE(path = tensor<string, []>("@model_path/weights/weight.bin"), offset = tensor<uint64, []>(5536256)))];
            tensor<fp16, [1, 128, 40, 40]> input_183_cast_fp16 = conv(bias = model_6_m_1_m_1_cv2_conv_bias_to_fp16, dilations = input_183_dilations_0, groups = input_183_groups_0, pad = input_183_pad_0, pad_type = input_183_pad_type_0, strides = input_183_strides_0, weight = model_6_m_1_m_1_cv2_conv_weight_to_fp16_palettized, x = input_181_cast_fp16)[name = tensor<string, []>("input_183_cast_fp16")];
            tensor<fp16, [1, 128, 40, 40]> var_628_cast_fp16 = silu(x = input_183_cast_fp16)[name = tensor<string, []>("op_628_cast_fp16")];
            tensor<fp16, [1, 128, 40, 40]> var_629_cast_fp16 = add(x = input_177_cast_fp16, y = var_628_cast_fp16)[name = tensor<string, []>("op_629_cast_fp16")];
            tensor<string, []> input_185_pad_type_0 = const()[name = tensor<string, []>("input_185_pad_type_0"), val = tensor<string, []>("valid")];
            tensor<int32, [2]> input_185_strides_0 = const()[name = tensor<string, []>("input_185_strides_0"), val = tensor<int32, [2]>([1, 1])];
            tensor<int32, [4]> input_185_pad_0 = const()[name = tensor<string, []>("input_185_pad_0"), val = tensor<int32, [4]>([0, 0, 0, 0])];
            tensor<int32, [2]> input_185_dilations_0 = const()[name = tensor<string, []>("input_185_dilations_0"), val = tensor<int32, [2]>([1, 1])];
            tensor<int32, []> input_185_groups_0 = const()[name = tensor<string, []>("input_185_groups_0"), val = tensor<int32, []>(1)];
            tensor<fp16, [128, 256, 1, 1]> model_6_m_1_cv2_conv_weight_to_fp16_palettized = constexpr_lut_to_dense()[indices = tensor<uint8, [32768]>(BLOBFILE(path = tensor<string, []>("@model_path/weights/weight.bin"), offset = tensor<uint64, []>(5536576))), lut = tensor<fp16, [256]>(BLOBFILE(path = tensor<string, []>("@model_path/weights/weight.bin"), offset = tensor<uint64, []>(5569408))), name = tensor<string, []>("model_6_m_1_cv2_conv_weight_to_fp16_palettized"), shape = tensor<uint32, [4]>([128, 256, 1, 1])];
            tensor<fp16, [128]> model_6_m_1_cv2_conv_bias_to_fp16 = const()[name = tensor<string, []>("model_6_m_1_cv2_conv_bias_to_fp16"), val = tensor<fp16, [128]>(BLOBFILE(path = tensor<string, []>("@model_path/weights/weight.bin"), offset = tensor<uint64, []>(5569984)))];
            tensor<fp16, [1, 128, 40, 40]> input_185_cast_fp16 = conv(bias = model_6_m_1_cv2_conv_bias_to_fp16, dilations = input_185_dilations_0, groups = input_185_groups_0, pad = input_185_pad_0, pad_type = input_185_pad_type_0, strides = input_185_strides_0, weight = model_6_m_1_cv2_conv_weight_to_fp16_palettized, x = input_165_cast_fp16)[name = tensor<string, []>("input_185_cast_fp16")];
            tensor<fp16, [1, 128, 40, 40]> var_638_cast_fp16 = silu(x = input_185_cast_fp16)[name = tensor<string, []>("op_638_cast_fp16")];
            tensor<bool, []> input_187_interleave_0 = const()[name = tensor<string, []>("input_187_interleave_0"), val = tensor<bool, []>(false)];
            tensor<fp16, [1, 256, 40, 40]> input_187_cast_fp16 = concat(axis = var_476, interleave = input_187_interleave_0, values = (var_629_cast_fp16, var_638_cast_fp16))[name = tensor<string, []>("input_187_cast_fp16")];
            tensor<string, []> input_189_pad_type_0 = const()[name = tensor<string, []>("input_189_pad_type_0"), val = tensor<string, []>("valid")];
            tensor<int32, [2]> input_189_strides_0 = const()[name = tensor<string, []>("input_189_strides_0"), val = tensor<int32, [2]>([1, 1])];
            tensor<int32, [4]> input_189_pad_0 = const()[name = tensor<string, []>("input_189_pad_0"), val = tensor<int32, [4]>([0, 0, 0, 0])];
            tensor<int32, [2]> input_189_dilations_0 = const()[name = tensor<string, []>("input_189_dilations_0"), val = tensor<int32, [2]>([1, 1])];
            tensor<int32, []> input_189_groups_0 = const()[name = tensor<string, []>("input_189_groups_0"), val = tensor<int32, []>(1)];
            tensor<fp16, [256, 256, 1, 1]> model_6_m_1_cv3_conv_weight_to_fp16_palettized = constexpr_lut_to_dense()[indices = tensor<uint8, [65536]>(BLOBFILE(path = tensor<string, []>("@model_path/weights/weight.bin"), offset = tensor<uint64, []>(5570304))), lut = tensor<fp16, [256]>(BLOBFILE(path = tensor<string, []>("@model_path/weights/weight.bin"), offset = tensor<uint64, []>(5635904))), name = tensor<string, []>("model_6_m_1_cv3_conv_weight_to_fp16_palettized"), shape = tensor<uint32, [4]>([256, 256, 1, 1])];
            tensor<fp16, [256]> model_6_m_1_cv3_conv_bias_to_fp16 = const()[name = tensor<string, []>("model_6_m_1_cv3_conv_bias_to_fp16"), val = tensor<fp16, [256]>(BLOBFILE(path = tensor<string, []>("@model_path/weights/weight.bin"), offset = tensor<uint64, []>(5636480)))];
            tensor<fp16, [1, 256, 40, 40]> input_189_cast_fp16 = conv(bias = model_6_m_1_cv3_conv_bias_to_fp16, dilations = input_189_dilations_0, groups = input_189_groups_0, pad = input_189_pad_0, pad_type = input_189_pad_type_0, strides = input_189_strides_0, weight = model_6_m_1_cv3_conv_weight_to_fp16_palettized, x = input_187_cast_fp16)[name = tensor<string, []>("input_189_cast_fp16")];
            tensor<fp16, [1, 256, 40, 40]> var_649_cast_fp16 = silu(x = input_189_cast_fp16)[name = tensor<string, []>("op_649_cast_fp16")];
            tensor<bool, []> input_191_interleave_0 = const()[name = tensor<string, []>("input_191_interleave_0"), val = tensor<bool, []>(false)];
            tensor<fp16, [1, 1024, 40, 40]> input_191_cast_fp16 = concat(axis = var_476, interleave = input_191_interleave_0, values = (var_493_cast_fp16_0, var_493_cast_fp16_1, input_165_cast_fp16, var_649_cast_fp16))[name = tensor<string, []>("input_191_cast_fp16")];
            tensor<string, []> input_193_pad_type_0 = const()[name = tensor<string, []>("input_193_pad_type_0"), val = tensor<string, []>("valid")];
            tensor<int32, [2]> input_193_strides_0 = const()[name = tensor<string, []>("input_193_strides_0"), val = tensor<int32, [2]>([1, 1])];
            tensor<int32, [4]> input_193_pad_0 = const()[name = tensor<string, []>("input_193_pad_0"), val = tensor<int32, [4]>([0, 0, 0, 0])];
            tensor<int32, [2]> input_193_dilations_0 = const()[name = tensor<string, []>("input_193_dilations_0"), val = tensor<int32, [2]>([1, 1])];
            tensor<int32, []> input_193_groups_0 = const()[name = tensor<string, []>("input_193_groups_0"), val = tensor<int32, []>(1)];
            tensor<fp16, [512, 1024, 1, 1]> model_6_cv2_conv_weight_to_fp16_palettized = constexpr_lut_to_dense()[indices = tensor<uint8, [524288]>(BLOBFILE(path = tensor<string, []>("@model_path/weights/weight.bin"), offset = tensor<uint64, []>(5637056))), lut = tensor<fp16, [256]>(BLOBFILE(path = tensor<string, []>("@model_path/weights/weight.bin"), offset = tensor<uint64, []>(6161408))), name = tensor<string, []>("model_6_cv2_conv_weight_to_fp16_palettized"), shape = tensor<uint32, [4]>([512, 1024, 1, 1])];
            tensor<fp16, [512]> model_6_cv2_conv_bias_to_fp16 = const()[name = tensor<string, []>("model_6_cv2_conv_bias_to_fp16"), val = tensor<fp16, [512]>(BLOBFILE(path = tensor<string, []>("@model_path/weights/weight.bin"), offset = tensor<uint64, []>(6161984)))];
            tensor<fp16, [1, 512, 40, 40]> input_193_cast_fp16 = conv(bias = model_6_cv2_conv_bias_to_fp16, dilations = input_193_dilations_0, groups = input_193_groups_0, pad = input_193_pad_0, pad_type = input_193_pad_type_0, strides = input_193_strides_0, weight = model_6_cv2_conv_weight_to_fp16_palettized, x = input_191_cast_fp16)[name = tensor<string, []>("input_193_cast_fp16")];
            tensor<fp16, [1, 512, 40, 40]> input_195_cast_fp16 = silu(x = input_193_cast_fp16)[name = tensor<string, []>("input_195_cast_fp16")];
            tensor<string, []> input_197_pad_type_0 = const()[name = tensor<string, []>("input_197_pad_type_0"), val = tensor<string, []>("custom")];
            tensor<int32, [4]> input_197_pad_0 = const()[name = tensor<string, []>("input_197_pad_0"), val = tensor<int32, [4]>([1, 1, 1, 1])];
            tensor<int32, [2]> input_197_strides_0 = const()[name = tensor<string, []>("input_197_strides_0"), val = tensor<int32, [2]>([2, 2])];
            tensor<int32, [2]> input_197_dilations_0 = const()[name = tensor<string, []>("input_197_dilations_0"), val = tensor<int32, [2]>([1, 1])];
            tensor<int32, []> input_197_groups_0 = const()[name = tensor<string, []>("input_197_groups_0"), val = tensor<int32, []>(1)];
            tensor<fp16, [512, 512, 3, 3]> model_7_conv_weight_to_fp16_palettized = constexpr_lut_to_dense()[indices = tensor<uint8, [2359296]>(BLOBFILE(path = tensor<string, []>("@model_path/weights/weight.bin"), offset = tensor<uint64, []>(6163072))), lut = tensor<fp16, [256]>(BLOBFILE(path = tensor<string, []>("@model_path/weights/weight.bin"), offset = tensor<uint64, []>(8522432))), name = tensor<string, []>("model_7_conv_weight_to_fp16_palettized"), shape = tensor<uint32, [4]>([512, 512, 3, 3])];
            tensor<fp16, [512]> model_7_conv_bias_to_fp16 = const()[name = tensor<string, []>("model_7_conv_bias_to_fp16"), val = tensor<fp16, [512]>(BLOBFILE(path = tensor<string, []>("@model_path/weights/weight.bin"), offset = tensor<uint64, []>(8523008)))];
            tensor<fp16, [1, 512, 20, 20]> input_197_cast_fp16 = conv(bias = model_7_conv_bias_to_fp16, dilations = input_197_dilations_0, groups = input_197_groups_0, pad = input_197_pad_0, pad_type = input_197_pad_type_0, strides = input_197_strides_0, weight = model_7_conv_weight_to_fp16_palettized, x = input_195_cast_fp16)[name = tensor<string, []>("input_197_cast_fp16")];
            tensor<fp16, [1, 512, 20, 20]> input_199_cast_fp16 = silu(x = input_197_cast_fp16)[name = tensor<string, []>("input_199_cast_fp16")];
            tensor<int32, []> var_679 = const()[name = tensor<string, []>("op_679"), val = tensor<int32, []>(1)];
            tensor<string, []> input_201_pad_type_0 = const()[name = tensor<string, []>("input_201_pad_type_0"), val = tensor<string, []>("valid")];
            tensor<int32, [2]> input_201_strides_0 = const()[name = tensor<string, []>("input_201_strides_0"), val = tensor<int32, [2]>([1, 1])];
            tensor<int32, [4]> input_201_pad_0 = const()[name = tensor<string, []>("input_201_pad_0"), val = tensor<int32, [4]>([0, 0, 0, 0])];
            tensor<int32, [2]> input_201_dilations_0 = const()[name = tensor<string, []>("input_201_dilations_0"), val = tensor<int32, [2]>([1, 1])];
            tensor<int32, []> input_201_groups_0 = const()[name = tensor<string, []>("input_201_groups_0"), val = tensor<int32, []>(1)];
            tensor<fp16, [512, 512, 1, 1]> model_8_cv1_conv_weight_to_fp16_palettized = constexpr_lut_to_dense()[indices = tensor<uint8, [262144]>(BLOBFILE(path = tensor<string, []>("@model_path/weights/weight.bin"), offset = tensor<uint64, []>(8524096))), lut = tensor<fp16, [256]>(BLOBFILE(path = tensor<string, []>("@model_path/weights/weight.bin"), offset = tensor<uint64, []>(8786304))), name = tensor<string, []>("model_8_cv1_conv_weight_to_fp16_palettized"), shape = tensor<uint32, [4]>([512, 512, 1, 1])];
            tensor<fp16, [512]> model_8_cv1_conv_bias_to_fp16 = const()[name = tensor<string, []>("model_8_cv1_conv_bias_to_fp16"), val = tensor<fp16, [512]>(BLOBFILE(path = tensor<string, []>("@model_path/weights/weight.bin"), offset = tensor<uint64, []>(8786880)))];
            tensor<fp16, [1, 512, 20, 20]> input_201_cast_fp16 = conv(bias = model_8_cv1_conv_bias_to_fp16, dilations = input_201_dilations_0, groups = input_201_groups_0, pad = input_201_pad_0, pad_type = input_201_pad_type_0, strides = input_201_strides_0, weight = model_8_cv1_conv_weight_to_fp16_palettized, x = input_199_cast_fp16)[name = tensor<string, []>("input_201_cast_fp16")];
            tensor<fp16, [1, 512, 20, 20]> var_694_cast_fp16 = silu(x = input_201_cast_fp16)[name = tensor<string, []>("op_694_cast_fp16")];
            tensor<int32, [2]> var_695 = const()[name = tensor<string, []>("op_695"), val = tensor<int32, [2]>([256, 256])];
            tensor<int32, []> var_696_axis_0 = const()[name = tensor<string, []>("op_696_axis_0"), val = tensor<int32, []>(1)];
            tensor<fp16, [1, 256, 20, 20]> var_696_cast_fp16_0, tensor<fp16, [1, 256, 20, 20]> var_696_cast_fp16_1 = split(axis = var_696_axis_0, split_sizes = var_695, x = var_694_cast_fp16)[name = tensor<string, []>("op_696_cast_fp16")];
            tensor<string, []> input_205_pad_type_0 = const()[name = tensor<string, []>("input_205_pad_type_0"), val = tensor<string, []>("valid")];
            tensor<int32, [2]> input_205_strides_0 = const()[name = tensor<string, []>("input_205_strides_0"), val = tensor<int32, [2]>([1, 1])];
            tensor<int32, [4]> input_205_pad_0 = const()[name = tensor<string, []>("input_205_pad_0"), val = tensor<int32, [4]>([0, 0, 0, 0])];
            tensor<int32, [2]> input_205_dilations_0 = const()[name = tensor<string, []>("input_205_dilations_0"), val = tensor<int32, [2]>([1, 1])];
            tensor<int32, []> input_205_groups_0 = const()[name = tensor<string, []>("input_205_groups_0"), val = tensor<int32, []>(1)];
            tensor<fp16, [128, 256, 1, 1]> model_8_m_0_cv1_conv_weight_to_fp16_palettized = constexpr_lut_to_dense()[indices = tensor<uint8, [32768]>(BLOBFILE(path = tensor<string, []>("@model_path/weights/weight.bin"), offset = tensor<uint64, []>(8787968))), lut = tensor<fp16, [256]>(BLOBFILE(path = tensor<string, []>("@model_path/weights/weight.bin"), offset = tensor<uint64, []>(8820800))), name = tensor<string, []>("model_8_m_0_cv1_conv_weight_to_fp16_palettized"), shape = tensor<uint32, [4]>([128, 256, 1, 1])];
            tensor<fp16, [128]> model_8_m_0_cv1_conv_bias_to_fp16 = const()[name = tensor<string, []>("model_8_m_0_cv1_conv_bias_to_fp16"), val = tensor<fp16, [128]>(BLOBFILE(path = tensor<string, []>("@model_path/weights/weight.bin"), offset = tensor<uint64, []>(8821376)))];
            tensor<fp16, [1, 128, 20, 20]> input_205_cast_fp16 = conv(bias = model_8_m_0_cv1_conv_bias_to_fp16, dilations = input_205_dilations_0, groups = input_205_groups_0, pad = input_205_pad_0, pad_type = input_205_pad_type_0, strides = input_205_strides_0, weight = model_8_m_0_cv1_conv_weight_to_fp16_palettized, x = var_696_cast_fp16_1)[name = tensor<string, []>("input_205_cast_fp16")];
            tensor<fp16, [1, 128, 20, 20]> input_207_cast_fp16 = silu(x = input_205_cast_fp16)[name = tensor<string, []>("input_207_cast_fp16")];
            tensor<string, []> input_209_pad_type_0 = const()[name = tensor<string, []>("input_209_pad_type_0"), val = tensor<string, []>("custom")];
            tensor<int32, [4]> input_209_pad_0 = const()[name = tensor<string, []>("input_209_pad_0"), val = tensor<int32, [4]>([1, 1, 1, 1])];
            tensor<int32, [2]> input_209_strides_0 = const()[name = tensor<string, []>("input_209_strides_0"), val = tensor<int32, [2]>([1, 1])];
            tensor<int32, [2]> input_209_dilations_0 = const()[name = tensor<string, []>("input_209_dilations_0"), val = tensor<int32, [2]>([1, 1])];
            tensor<int32, []> input_209_groups_0 = const()[name = tensor<string, []>("input_209_groups_0"), val = tensor<int32, []>(1)];
            tensor<fp16, [128, 128, 3, 3]> model_8_m_0_m_0_cv1_conv_weight_to_fp16_palettized = constexpr_lut_to_dense()[indices = tensor<uint8, [147456]>(BLOBFILE(path = tensor<string, []>("@model_path/weights/weight.bin"), offset = tensor<uint64, []>(8821696))), lut = tensor<fp16, [256]>(BLOBFILE(path = tensor<string, []>("@model_path/weights/weight.bin"), offset = tensor<uint64, []>(8969216))), name = tensor<string, []>("model_8_m_0_m_0_cv1_conv_weight_to_fp16_palettized"), shape = tensor<uint32, [4]>([128, 128, 3, 3])];
            tensor<fp16, [128]> model_8_m_0_m_0_cv1_conv_bias_to_fp16 = const()[name = tensor<string, []>("model_8_m_0_m_0_cv1_conv_bias_to_fp16"), val = tensor<fp16, [128]>(BLOBFILE(path = tensor<string, []>("@model_path/weights/weight.bin"), offset = tensor<uint64, []>(8969792)))];
            tensor<fp16, [1, 128, 20, 20]> input_209_cast_fp16 = conv(bias = model_8_m_0_m_0_cv1_conv_bias_to_fp16, dilations = input_209_dilations_0, groups = input_209_groups_0, pad = input_209_pad_0, pad_type = input_209_pad_type_0, strides = input_209_strides_0, weight = model_8_m_0_m_0_cv1_conv_weight_to_fp16_palettized, x = input_207_cast_fp16)[name = tensor<string, []>("input_209_cast_fp16")];
            tensor<fp16, [1, 128, 20, 20]> input_211_cast_fp16 = silu(x = input_209_cast_fp16)[name = tensor<string, []>("input_211_cast_fp16")];
            tensor<string, []> input_213_pad_type_0 = const()[name = tensor<string, []>("input_213_pad_type_0"), val = tensor<string, []>("custom")];
            tensor<int32, [4]> input_213_pad_0 = const()[name = tensor<string, []>("input_213_pad_0"), val = tensor<int32, [4]>([1, 1, 1, 1])];
            tensor<int32, [2]> input_213_strides_0 = const()[name = tensor<string, []>("input_213_strides_0"), val = tensor<int32, [2]>([1, 1])];
            tensor<int32, [2]> input_213_dilations_0 = const()[name = tensor<string, []>("input_213_dilations_0"), val = tensor<int32, [2]>([1, 1])];
            tensor<int32, []> input_213_groups_0 = const()[name = tensor<string, []>("input_213_groups_0"), val = tensor<int32, []>(1)];
            tensor<fp16, [128, 128, 3, 3]> model_8_m_0_m_0_cv2_conv_weight_to_fp16_palettized = constexpr_lut_to_dense()[indices = tensor<uint8, [147456]>(BLOBFILE(path = tensor<string, []>("@model_path/weights/weight.bin"), offset = tensor<uint64, []>(8970112))), lut = tensor<fp16, [256]>(BLOBFILE(path = tensor<string, []>("@model_path/weights/weight.bin"), offset = tensor<uint64, []>(9117632))), name = tensor<string, []>("model_8_m_0_m_0_cv2_conv_weight_to_fp16_palettized"), shape = tensor<uint32, [4]>([128, 128, 3, 3])];
            tensor<fp16, [128]> model_8_m_0_m_0_cv2_conv_bias_to_fp16 = const()[name = tensor<string, []>("model_8_m_0_m_0_cv2_conv_bias_to_fp16"), val = tensor<fp16, [128]>(BLOBFILE(path = tensor<string, []>("@model_path/weights/weight.bin"), offset = tensor<uint64, []>(9118208)))];
            tensor<fp16, [1, 128, 20, 20]> input_213_cast_fp16 = conv(bias = model_8_m_0_m_0_cv2_conv_bias_to_fp16, dilations = input_213_dilations_0, groups = input_213_groups_0, pad = input_213_pad_0, pad_type = input_213_pad_type_0, strides = input_213_strides_0, weight = model_8_m_0_m_0_cv2_conv_weight_to_fp16_palettized, x = input_211_cast_fp16)[name = tensor<string, []>("input_213_cast_fp16")];
            tensor<fp16, [1, 128, 20, 20]> var_733_cast_fp16 = silu(x = input_213_cast_fp16)[name = tensor<string, []>("op_733_cast_fp16")];
            tensor<fp16, [1, 128, 20, 20]> input_215_cast_fp16 = add(x = input_207_cast_fp16, y = var_733_cast_fp16)[name = tensor<string, []>("input_215_cast_fp16")];
            tensor<string, []> input_217_pad_type_0 = const()[name = tensor<string, []>("input_217_pad_type_0"), val = tensor<string, []>("custom")];
            tensor<int32, [4]> input_217_pad_0 = const()[name = tensor<string, []>("input_217_pad_0"), val = tensor<int32, [4]>([1, 1, 1, 1])];
            tensor<int32, [2]> input_217_strides_0 = const()[name = tensor<string, []>("input_217_strides_0"), val = tensor<int32, [2]>([1, 1])];
            tensor<int32, [2]> input_217_dilations_0 = const()[name = tensor<string, []>("input_217_dilations_0"), val = tensor<int32, [2]>([1, 1])];
            tensor<int32, []> input_217_groups_0 = const()[name = tensor<string, []>("input_217_groups_0"), val = tensor<int32, []>(1)];
            tensor<fp16, [128, 128, 3, 3]> model_8_m_0_m_1_cv1_conv_weight_to_fp16_palettized = constexpr_lut_to_dense()[indices = tensor<uint8, [147456]>(BLOBFILE(path = tensor<string, []>("@model_path/weights/weight.bin"), offset = tensor<uint64, []>(9118528))), lut = tensor<fp16, [256]>(BLOBFILE(path = tensor<string, []>("@model_path/weights/weight.bin"), offset = tensor<uint64, []>(9266048))), name = tensor<string, []>("model_8_m_0_m_1_cv1_conv_weight_to_fp16_palettized"), shape = tensor<uint32, [4]>([128, 128, 3, 3])];
            tensor<fp16, [128]> model_8_m_0_m_1_cv1_conv_bias_to_fp16 = const()[name = tensor<string, []>("model_8_m_0_m_1_cv1_conv_bias_to_fp16"), val = tensor<fp16, [128]>(BLOBFILE(path = tensor<string, []>("@model_path/weights/weight.bin"), offset = tensor<uint64, []>(9266624)))];
            tensor<fp16, [1, 128, 20, 20]> input_217_cast_fp16 = conv(bias = model_8_m_0_m_1_cv1_conv_bias_to_fp16, dilations = input_217_dilations_0, groups = input_217_groups_0, pad = input_217_pad_0, pad_type = input_217_pad_type_0, strides = input_217_strides_0, weight = model_8_m_0_m_1_cv1_conv_weight_to_fp16_palettized, x = input_215_cast_fp16)[name = tensor<string, []>("input_217_cast_fp16")];
            tensor<fp16, [1, 128, 20, 20]> input_219_cast_fp16 = silu(x = input_217_cast_fp16)[name = tensor<string, []>("input_219_cast_fp16")];
            tensor<string, []> input_221_pad_type_0 = const()[name = tensor<string, []>("input_221_pad_type_0"), val = tensor<string, []>("custom")];
            tensor<int32, [4]> input_221_pad_0 = const()[name = tensor<string, []>("input_221_pad_0"), val = tensor<int32, [4]>([1, 1, 1, 1])];
            tensor<int32, [2]> input_221_strides_0 = const()[name = tensor<string, []>("input_221_strides_0"), val = tensor<int32, [2]>([1, 1])];
            tensor<int32, [2]> input_221_dilations_0 = const()[name = tensor<string, []>("input_221_dilations_0"), val = tensor<int32, [2]>([1, 1])];
            tensor<int32, []> input_221_groups_0 = const()[name = tensor<string, []>("input_221_groups_0"), val = tensor<int32, []>(1)];
            tensor<fp16, [128, 128, 3, 3]> model_8_m_0_m_1_cv2_conv_weight_to_fp16_palettized = constexpr_lut_to_dense()[indices = tensor<uint8, [147456]>(BLOBFILE(path = tensor<string, []>("@model_path/weights/weight.bin"), offset = tensor<uint64, []>(9266944))), lut = tensor<fp16, [256]>(BLOBFILE(path = tensor<string, []>("@model_path/weights/weight.bin"), offset = tensor<uint64, []>(9414464))), name = tensor<string, []>("model_8_m_0_m_1_cv2_conv_weight_to_fp16_palettized"), shape = tensor<uint32, [4]>([128, 128, 3, 3])];
            tensor<fp16, [128]> model_8_m_0_m_1_cv2_conv_bias_to_fp16 = const()[name = tensor<string, []>("model_8_m_0_m_1_cv2_conv_bias_to_fp16"), val = tensor<fp16, [128]>(BLOBFILE(path = tensor<string, []>("@model_path/weights/weight.bin"), offset = tensor<uint64, []>(9415040)))];
            tensor<fp16, [1, 128, 20, 20]> input_221_cast_fp16 = conv(bias = model_8_m_0_m_1_cv2_conv_bias_to_fp16, dilations = input_221_dilations_0, groups = input_221_groups_0, pad = input_221_pad_0, pad_type = input_221_pad_type_0, strides = input_221_strides_0, weight = model_8_m_0_m_1_cv2_conv_weight_to_fp16_palettized, x = input_219_cast_fp16)[name = tensor<string, []>("input_221_cast_fp16")];
            tensor<fp16, [1, 128, 20, 20]> var_754_cast_fp16 = silu(x = input_221_cast_fp16)[name = tensor<string, []>("op_754_cast_fp16")];
            tensor<fp16, [1, 128, 20, 20]> var_755_cast_fp16 = add(x = input_215_cast_fp16, y = var_754_cast_fp16)[name = tensor<string, []>("op_755_cast_fp16")];
            tensor<string, []> input_223_pad_type_0 = const()[name = tensor<string, []>("input_223_pad_type_0"), val = tensor<string, []>("valid")];
            tensor<int32, [2]> input_223_strides_0 = const()[name = tensor<string, []>("input_223_strides_0"), val = tensor<int32, [2]>([1, 1])];
            tensor<int32, [4]> input_223_pad_0 = const()[name = tensor<string, []>("input_223_pad_0"), val = tensor<int32, [4]>([0, 0, 0, 0])];
            tensor<int32, [2]> input_223_dilations_0 = const()[name = tensor<string, []>("input_223_dilations_0"), val = tensor<int32, [2]>([1, 1])];
            tensor<int32, []> input_223_groups_0 = const()[name = tensor<string, []>("input_223_groups_0"), val = tensor<int32, []>(1)];
            tensor<fp16, [128, 256, 1, 1]> model_8_m_0_cv2_conv_weight_to_fp16_palettized = constexpr_lut_to_dense()[indices = tensor<uint8, [32768]>(BLOBFILE(path = tensor<string, []>("@model_path/weights/weight.bin"), offset = tensor<uint64, []>(9415360))), lut = tensor<fp16, [256]>(BLOBFILE(path = tensor<string, []>("@model_path/weights/weight.bin"), offset = tensor<uint64, []>(9448192))), name = tensor<string, []>("model_8_m_0_cv2_conv_weight_to_fp16_palettized"), shape = tensor<uint32, [4]>([128, 256, 1, 1])];
            tensor<fp16, [128]> model_8_m_0_cv2_conv_bias_to_fp16 = const()[name = tensor<string, []>("model_8_m_0_cv2_conv_bias_to_fp16"), val = tensor<fp16, [128]>(BLOBFILE(path = tensor<string, []>("@model_path/weights/weight.bin"), offset = tensor<uint64, []>(9448768)))];
            tensor<fp16, [1, 128, 20, 20]> input_223_cast_fp16 = conv(bias = model_8_m_0_cv2_conv_bias_to_fp16, dilations = input_223_dilations_0, groups = input_223_groups_0, pad = input_223_pad_0, pad_type = input_223_pad_type_0, strides = input_223_strides_0, weight = model_8_m_0_cv2_conv_weight_to_fp16_palettized, x = var_696_cast_fp16_1)[name = tensor<string, []>("input_223_cast_fp16")];
            tensor<fp16, [1, 128, 20, 20]> var_764_cast_fp16 = silu(x = input_223_cast_fp16)[name = tensor<string, []>("op_764_cast_fp16")];
            tensor<bool, []> input_225_interleave_0 = const()[name = tensor<string, []>("input_225_interleave_0"), val = tensor<bool, []>(false)];
            tensor<fp16, [1, 256, 20, 20]> input_225_cast_fp16 = concat(axis = var_679, interleave = input_225_interleave_0, values = (var_755_cast_fp16, var_764_cast_fp16))[name = tensor<string, []>("input_225_cast_fp16")];
            tensor<string, []> input_227_pad_type_0 = const()[name = tensor<string, []>("input_227_pad_type_0"), val = tensor<string, []>("valid")];
            tensor<int32, [2]> input_227_strides_0 = const()[name = tensor<string, []>("input_227_strides_0"), val = tensor<int32, [2]>([1, 1])];
            tensor<int32, [4]> input_227_pad_0 = const()[name = tensor<string, []>("input_227_pad_0"), val = tensor<int32, [4]>([0, 0, 0, 0])];
            tensor<int32, [2]> input_227_dilations_0 = const()[name = tensor<string, []>("input_227_dilations_0"), val = tensor<int32, [2]>([1, 1])];
            tensor<int32, []> input_227_groups_0 = const()[name = tensor<string, []>("input_227_groups_0"), val = tensor<int32, []>(1)];
            tensor<fp16, [256, 256, 1, 1]> model_8_m_0_cv3_conv_weight_to_fp16_palettized = constexpr_lut_to_dense()[indices = tensor<uint8, [65536]>(BLOBFILE(path = tensor<string, []>("@model_path/weights/weight.bin"), offset = tensor<uint64, []>(9449088))), lut = tensor<fp16, [256]>(BLOBFILE(path = tensor<string, []>("@model_path/weights/weight.bin"), offset = tensor<uint64, []>(9514688))), name = tensor<string, []>("model_8_m_0_cv3_conv_weight_to_fp16_palettized"), shape = tensor<uint32, [4]>([256, 256, 1, 1])];
            tensor<fp16, [256]> model_8_m_0_cv3_conv_bias_to_fp16 = const()[name = tensor<string, []>("model_8_m_0_cv3_conv_bias_to_fp16"), val = tensor<fp16, [256]>(BLOBFILE(path = tensor<string, []>("@model_path/weights/weight.bin"), offset = tensor<uint64, []>(9515264)))];
            tensor<fp16, [1, 256, 20, 20]> input_227_cast_fp16 = conv(bias = model_8_m_0_cv3_conv_bias_to_fp16, dilations = input_227_dilations_0, groups = input_227_groups_0, pad = input_227_pad_0, pad_type = input_227_pad_type_0, strides = input_227_strides_0, weight = model_8_m_0_cv3_conv_weight_to_fp16_palettized, x = input_225_cast_fp16)[name = tensor<string, []>("input_227_cast_fp16")];
            tensor<fp16, [1, 256, 20, 20]> input_229_cast_fp16 = silu(x = input_227_cast_fp16)[name = tensor<string, []>("input_229_cast_fp16")];
            tensor<string, []> input_231_pad_type_0 = const()[name = tensor<string, []>("input_231_pad_type_0"), val = tensor<string, []>("valid")];
            tensor<int32, [2]> input_231_strides_0 = const()[name = tensor<string, []>("input_231_strides_0"), val = tensor<int32, [2]>([1, 1])];
            tensor<int32, [4]> input_231_pad_0 = const()[name = tensor<string, []>("input_231_pad_0"), val = tensor<int32, [4]>([0, 0, 0, 0])];
            tensor<int32, [2]> input_231_dilations_0 = const()[name = tensor<string, []>("input_231_dilations_0"), val = tensor<int32, [2]>([1, 1])];
            tensor<int32, []> input_231_groups_0 = const()[name = tensor<string, []>("input_231_groups_0"), val = tensor<int32, []>(1)];
            tensor<fp16, [128, 256, 1, 1]> model_8_m_1_cv1_conv_weight_to_fp16_palettized = constexpr_lut_to_dense()[indices = tensor<uint8, [32768]>(BLOBFILE(path = tensor<string, []>("@model_path/weights/weight.bin"), offset = tensor<uint64, []>(9515840))), lut = tensor<fp16, [256]>(BLOBFILE(path = tensor<string, []>("@model_path/weights/weight.bin"), offset = tensor<uint64, []>(9548672))), name = tensor<string, []>("model_8_m_1_cv1_conv_weight_to_fp16_palettized"), shape = tensor<uint32, [4]>([128, 256, 1, 1])];
            tensor<fp16, [128]> model_8_m_1_cv1_conv_bias_to_fp16 = const()[name = tensor<string, []>("model_8_m_1_cv1_conv_bias_to_fp16"), val = tensor<fp16, [128]>(BLOBFILE(path = tensor<string, []>("@model_path/weights/weight.bin"), offset = tensor<uint64, []>(9549248)))];
            tensor<fp16, [1, 128, 20, 20]> input_231_cast_fp16 = conv(bias = model_8_m_1_cv1_conv_bias_to_fp16, dilations = input_231_dilations_0, groups = input_231_groups_0, pad = input_231_pad_0, pad_type = input_231_pad_type_0, strides = input_231_strides_0, weight = model_8_m_1_cv1_conv_weight_to_fp16_palettized, x = input_229_cast_fp16)[name = tensor<string, []>("input_231_cast_fp16")];
            tensor<fp16, [1, 128, 20, 20]> input_233_cast_fp16 = silu(x = input_231_cast_fp16)[name = tensor<string, []>("input_233_cast_fp16")];
            tensor<string, []> input_235_pad_type_0 = const()[name = tensor<string, []>("input_235_pad_type_0"), val = tensor<string, []>("custom")];
            tensor<int32, [4]> input_235_pad_0 = const()[name = tensor<string, []>("input_235_pad_0"), val = tensor<int32, [4]>([1, 1, 1, 1])];
            tensor<int32, [2]> input_235_strides_0 = const()[name = tensor<string, []>("input_235_strides_0"), val = tensor<int32, [2]>([1, 1])];
            tensor<int32, [2]> input_235_dilations_0 = const()[name = tensor<string, []>("input_235_dilations_0"), val = tensor<int32, [2]>([1, 1])];
            tensor<int32, []> input_235_groups_0 = const()[name = tensor<string, []>("input_235_groups_0"), val = tensor<int32, []>(1)];
            tensor<fp16, [128, 128, 3, 3]> model_8_m_1_m_0_cv1_conv_weight_to_fp16_palettized = constexpr_lut_to_dense()[indices = tensor<uint8, [147456]>(BLOBFILE(path = tensor<string, []>("@model_path/weights/weight.bin"), offset = tensor<uint64, []>(9549568))), lut = tensor<fp16, [256]>(BLOBFILE(path = tensor<string, []>("@model_path/weights/weight.bin"), offset = tensor<uint64, []>(9697088))), name = tensor<string, []>("model_8_m_1_m_0_cv1_conv_weight_to_fp16_palettized"), shape = tensor<uint32, [4]>([128, 128, 3, 3])];
            tensor<fp16, [128]> model_8_m_1_m_0_cv1_conv_bias_to_fp16 = const()[name = tensor<string, []>("model_8_m_1_m_0_cv1_conv_bias_to_fp16"), val = tensor<fp16, [128]>(BLOBFILE(path = tensor<string, []>("@model_path/weights/weight.bin"), offset = tensor<uint64, []>(9697664)))];
            tensor<fp16, [1, 128, 20, 20]> input_235_cast_fp16 = conv(bias = model_8_m_1_m_0_cv1_conv_bias_to_fp16, dilations = input_235_dilations_0, groups = input_235_groups_0, pad = input_235_pad_0, pad_type = input_235_pad_type_0, strides = input_235_strides_0, weight = model_8_m_1_m_0_cv1_conv_weight_to_fp16_palettized, x = input_233_cast_fp16)[name = tensor<string, []>("input_235_cast_fp16")];
            tensor<fp16, [1, 128, 20, 20]> input_237_cast_fp16 = silu(x = input_235_cast_fp16)[name = tensor<string, []>("input_237_cast_fp16")];
            tensor<string, []> input_239_pad_type_0 = const()[name = tensor<string, []>("input_239_pad_type_0"), val = tensor<string, []>("custom")];
            tensor<int32, [4]> input_239_pad_0 = const()[name = tensor<string, []>("input_239_pad_0"), val = tensor<int32, [4]>([1, 1, 1, 1])];
            tensor<int32, [2]> input_239_strides_0 = const()[name = tensor<string, []>("input_239_strides_0"), val = tensor<int32, [2]>([1, 1])];
            tensor<int32, [2]> input_239_dilations_0 = const()[name = tensor<string, []>("input_239_dilations_0"), val = tensor<int32, [2]>([1, 1])];
            tensor<int32, []> input_239_groups_0 = const()[name = tensor<string, []>("input_239_groups_0"), val = tensor<int32, []>(1)];
            tensor<fp16, [128, 128, 3, 3]> model_8_m_1_m_0_cv2_conv_weight_to_fp16_palettized = constexpr_lut_to_dense()[indices = tensor<uint8, [147456]>(BLOBFILE(path = tensor<string, []>("@model_path/weights/weight.bin"), offset = tensor<uint64, []>(9697984))), lut = tensor<fp16, [256]>(BLOBFILE(path = tensor<string, []>("@model_path/weights/weight.bin"), offset = tensor<uint64, []>(9845504))), name = tensor<string, []>("model_8_m_1_m_0_cv2_conv_weight_to_fp16_palettized"), shape = tensor<uint32, [4]>([128, 128, 3, 3])];
            tensor<fp16, [128]> model_8_m_1_m_0_cv2_conv_bias_to_fp16 = const()[name = tensor<string, []>("model_8_m_1_m_0_cv2_conv_bias_to_fp16"), val = tensor<fp16, [128]>(BLOBFILE(path = tensor<string, []>("@model_path/weights/weight.bin"), offset = tensor<uint64, []>(9846080)))];
            tensor<fp16, [1, 128, 20, 20]> input_239_cast_fp16 = conv(bias = model_8_m_1_m_0_cv2_conv_bias_to_fp16, dilations = input_239_dilations_0, groups = input_239_groups_0, pad = input_239_pad_0, pad_type = input_239_pad_type_0, strides = input_239_strides_0, weight = model_8_m_1_m_0_cv2_conv_weight_to_fp16_palettized, x = input_237_cast_fp16)[name = tensor<string, []>("input_239_cast_fp16")];
            tensor<fp16, [1, 128, 20, 20]> var_810_cast_fp16 = silu(x = input_239_cast_fp16)[name = tensor<string, []>("op_810_cast_fp16")];
            tensor<fp16, [1, 128, 20, 20]> input_241_cast_fp16 = add(x = input_233_cast_fp16, y = var_810_cast_fp16)[name = tensor<string, []>("input_241_cast_fp16")];
            tensor<string, []> input_243_pad_type_0 = const()[name = tensor<string, []>("input_243_pad_type_0"), val = tensor<string, []>("custom")];
            tensor<int32, [4]> input_243_pad_0 = const()[name = tensor<string, []>("input_243_pad_0"), val = tensor<int32, [4]>([1, 1, 1, 1])];
            tensor<int32, [2]> input_243_strides_0 = const()[name = tensor<string, []>("input_243_strides_0"), val = tensor<int32, [2]>([1, 1])];
            tensor<int32, [2]> input_243_dilations_0 = const()[name = tensor<string, []>("input_243_dilations_0"), val = tensor<int32, [2]>([1, 1])];
            tensor<int32, []> input_243_groups_0 = const()[name = tensor<string, []>("input_243_groups_0"), val = tensor<int32, []>(1)];
            tensor<fp16, [128, 128, 3, 3]> model_8_m_1_m_1_cv1_conv_weight_to_fp16_palettized = constexpr_lut_to_dense()[indices = tensor<uint8, [147456]>(BLOBFILE(path = tensor<string, []>("@model_path/weights/weight.bin"), offset = tensor<uint64, []>(9846400))), lut = tensor<fp16, [256]>(BLOBFILE(path = tensor<string, []>("@model_path/weights/weight.bin"), offset = tensor<uint64, []>(9993920))), name = tensor<string, []>("model_8_m_1_m_1_cv1_conv_weight_to_fp16_palettized"), shape = tensor<uint32, [4]>([128, 128, 3, 3])];
            tensor<fp16, [128]> model_8_m_1_m_1_cv1_conv_bias_to_fp16 = const()[name = tensor<string, []>("model_8_m_1_m_1_cv1_conv_bias_to_fp16"), val = tensor<fp16, [128]>(BLOBFILE(path = tensor<string, []>("@model_path/weights/weight.bin"), offset = tensor<uint64, []>(9994496)))];
            tensor<fp16, [1, 128, 20, 20]> input_243_cast_fp16 = conv(bias = model_8_m_1_m_1_cv1_conv_bias_to_fp16, dilations = input_243_dilations_0, groups = input_243_groups_0, pad = input_243_pad_0, pad_type = input_243_pad_type_0, strides = input_243_strides_0, weight = model_8_m_1_m_1_cv1_conv_weight_to_fp16_palettized, x = input_241_cast_fp16)[name = tensor<string, []>("input_243_cast_fp16")];
            tensor<fp16, [1, 128, 20, 20]> input_245_cast_fp16 = silu(x = input_243_cast_fp16)[name = tensor<string, []>("input_245_cast_fp16")];
            tensor<string, []> input_247_pad_type_0 = const()[name = tensor<string, []>("input_247_pad_type_0"), val = tensor<string, []>("custom")];
            tensor<int32, [4]> input_247_pad_0 = const()[name = tensor<string, []>("input_247_pad_0"), val = tensor<int32, [4]>([1, 1, 1, 1])];
            tensor<int32, [2]> input_247_strides_0 = const()[name = tensor<string, []>("input_247_strides_0"), val = tensor<int32, [2]>([1, 1])];
            tensor<int32, [2]> input_247_dilations_0 = const()[name = tensor<string, []>("input_247_dilations_0"), val = tensor<int32, [2]>([1, 1])];
            tensor<int32, []> input_247_groups_0 = const()[name = tensor<string, []>("input_247_groups_0"), val = tensor<int32, []>(1)];
            tensor<fp16, [128, 128, 3, 3]> model_8_m_1_m_1_cv2_conv_weight_to_fp16_palettized = constexpr_lut_to_dense()[indices = tensor<uint8, [147456]>(BLOBFILE(path = tensor<string, []>("@model_path/weights/weight.bin"), offset = tensor<uint64, []>(9994816))), lut = tensor<fp16, [256]>(BLOBFILE(path = tensor<string, []>("@model_path/weights/weight.bin"), offset = tensor<uint64, []>(10142336))), name = tensor<string, []>("model_8_m_1_m_1_cv2_conv_weight_to_fp16_palettized"), shape = tensor<uint32, [4]>([128, 128, 3, 3])];
            tensor<fp16, [128]> model_8_m_1_m_1_cv2_conv_bias_to_fp16 = const()[name = tensor<string, []>("model_8_m_1_m_1_cv2_conv_bias_to_fp16"), val = tensor<fp16, [128]>(BLOBFILE(path = tensor<string, []>("@model_path/weights/weight.bin"), offset = tensor<uint64, []>(10142912)))];
            tensor<fp16, [1, 128, 20, 20]> input_247_cast_fp16 = conv(bias = model_8_m_1_m_1_cv2_conv_bias_to_fp16, dilations = input_247_dilations_0, groups = input_247_groups_0, pad = input_247_pad_0, pad_type = input_247_pad_type_0, strides = input_247_strides_0, weight = model_8_m_1_m_1_cv2_conv_weight_to_fp16_palettized, x = input_245_cast_fp16)[name = tensor<string, []>("input_247_cast_fp16")];
            tensor<fp16, [1, 128, 20, 20]> var_831_cast_fp16 = silu(x = input_247_cast_fp16)[name = tensor<string, []>("op_831_cast_fp16")];
            tensor<fp16, [1, 128, 20, 20]> var_832_cast_fp16 = add(x = input_241_cast_fp16, y = var_831_cast_fp16)[name = tensor<string, []>("op_832_cast_fp16")];
            tensor<string, []> input_249_pad_type_0 = const()[name = tensor<string, []>("input_249_pad_type_0"), val = tensor<string, []>("valid")];
            tensor<int32, [2]> input_249_strides_0 = const()[name = tensor<string, []>("input_249_strides_0"), val = tensor<int32, [2]>([1, 1])];
            tensor<int32, [4]> input_249_pad_0 = const()[name = tensor<string, []>("input_249_pad_0"), val = tensor<int32, [4]>([0, 0, 0, 0])];
            tensor<int32, [2]> input_249_dilations_0 = const()[name = tensor<string, []>("input_249_dilations_0"), val = tensor<int32, [2]>([1, 1])];
            tensor<int32, []> input_249_groups_0 = const()[name = tensor<string, []>("input_249_groups_0"), val = tensor<int32, []>(1)];
            tensor<fp16, [128, 256, 1, 1]> model_8_m_1_cv2_conv_weight_to_fp16_palettized = constexpr_lut_to_dense()[indices = tensor<uint8, [32768]>(BLOBFILE(path = tensor<string, []>("@model_path/weights/weight.bin"), offset = tensor<uint64, []>(10143232))), lut = tensor<fp16, [256]>(BLOBFILE(path = tensor<string, []>("@model_path/weights/weight.bin"), offset = tensor<uint64, []>(10176064))), name = tensor<string, []>("model_8_m_1_cv2_conv_weight_to_fp16_palettized"), shape = tensor<uint32, [4]>([128, 256, 1, 1])];
            tensor<fp16, [128]> model_8_m_1_cv2_conv_bias_to_fp16 = const()[name = tensor<string, []>("model_8_m_1_cv2_conv_bias_to_fp16"), val = tensor<fp16, [128]>(BLOBFILE(path = tensor<string, []>("@model_path/weights/weight.bin"), offset = tensor<uint64, []>(10176640)))];
            tensor<fp16, [1, 128, 20, 20]> input_249_cast_fp16 = conv(bias = model_8_m_1_cv2_conv_bias_to_fp16, dilations = input_249_dilations_0, groups = input_249_groups_0, pad = input_249_pad_0, pad_type = input_249_pad_type_0, strides = input_249_strides_0, weight = model_8_m_1_cv2_conv_weight_to_fp16_palettized, x = input_229_cast_fp16)[name = tensor<string, []>("input_249_cast_fp16")];
            tensor<fp16, [1, 128, 20, 20]> var_841_cast_fp16 = silu(x = input_249_cast_fp16)[name = tensor<string, []>("op_841_cast_fp16")];
            tensor<bool, []> input_251_interleave_0 = const()[name = tensor<string, []>("input_251_interleave_0"), val = tensor<bool, []>(false)];
            tensor<fp16, [1, 256, 20, 20]> input_251_cast_fp16 = concat(axis = var_679, interleave = input_251_interleave_0, values = (var_832_cast_fp16, var_841_cast_fp16))[name = tensor<string, []>("input_251_cast_fp16")];
            tensor<string, []> input_253_pad_type_0 = const()[name = tensor<string, []>("input_253_pad_type_0"), val = tensor<string, []>("valid")];
            tensor<int32, [2]> input_253_strides_0 = const()[name = tensor<string, []>("input_253_strides_0"), val = tensor<int32, [2]>([1, 1])];
            tensor<int32, [4]> input_253_pad_0 = const()[name = tensor<string, []>("input_253_pad_0"), val = tensor<int32, [4]>([0, 0, 0, 0])];
            tensor<int32, [2]> input_253_dilations_0 = const()[name = tensor<string, []>("input_253_dilations_0"), val = tensor<int32, [2]>([1, 1])];
            tensor<int32, []> input_253_groups_0 = const()[name = tensor<string, []>("input_253_groups_0"), val = tensor<int32, []>(1)];
            tensor<fp16, [256, 256, 1, 1]> model_8_m_1_cv3_conv_weight_to_fp16_palettized = constexpr_lut_to_dense()[indices = tensor<uint8, [65536]>(BLOBFILE(path = tensor<string, []>("@model_path/weights/weight.bin"), offset = tensor<uint64, []>(10176960))), lut = tensor<fp16, [256]>(BLOBFILE(path = tensor<string, []>("@model_path/weights/weight.bin"), offset = tensor<uint64, []>(10242560))), name = tensor<string, []>("model_8_m_1_cv3_conv_weight_to_fp16_palettized"), shape = tensor<uint32, [4]>([256, 256, 1, 1])];
            tensor<fp16, [256]> model_8_m_1_cv3_conv_bias_to_fp16 = const()[name = tensor<string, []>("model_8_m_1_cv3_conv_bias_to_fp16"), val = tensor<fp16, [256]>(BLOBFILE(path = tensor<string, []>("@model_path/weights/weight.bin"), offset = tensor<uint64, []>(10243136)))];
            tensor<fp16, [1, 256, 20, 20]> input_253_cast_fp16 = conv(bias = model_8_m_1_cv3_conv_bias_to_fp16, dilations = input_253_dilations_0, groups = input_253_groups_0, pad = input_253_pad_0, pad_type = input_253_pad_type_0, strides = input_253_strides_0, weight = model_8_m_1_cv3_conv_weight_to_fp16_palettized, x = input_251_cast_fp16)[name = tensor<string, []>("input_253_cast_fp16")];
            tensor<fp16, [1, 256, 20, 20]> var_852_cast_fp16 = silu(x = input_253_cast_fp16)[name = tensor<string, []>("op_852_cast_fp16")];
…
ight_to_fp16_palettized, x = input_425_cast_fp16)[name = tensor<string, []>("input_599_cast_fp16")];
            tensor<fp16, [1, 256, 80, 80]> input_601_cast_fp16 = silu(x = input_599_cast_fp16)[name = tensor<string, []>("input_601_cast_fp16")];
            tensor<string, []> input_603_pad_type_0 = const()[name = tensor<string, []>("input_603_pad_type_0"), val = tensor<string, []>("valid")];
            tensor<int32, [2]> input_603_strides_0 = const()[name = tensor<string, []>("input_603_strides_0"), val = tensor<int32, [2]>([1, 1])];
            tensor<int32, [4]> input_603_pad_0 = const()[name = tensor<string, []>("input_603_pad_0"), val = tensor<int32, [4]>([0, 0, 0, 0])];
            tensor<int32, [2]> input_603_dilations_0 = const()[name = tensor<string, []>("input_603_dilations_0"), val = tensor<int32, [2]>([1, 1])];
            tensor<int32, []> input_603_groups_0 = const()[name = tensor<string, []>("input_603_groups_0"), val = tensor<int32, []>(1)];
            tensor<fp16, [256, 256, 1, 1]> model_23_cv3_0_0_1_conv_weight_to_fp16_palettized = constexpr_lut_to_dense()[indices = tensor<uint8, [65536]>(BLOBFILE(path = tensor<string, []>("@model_path/weights/weight.bin"), offset = tensor<uint64, []>(26514560))), lut = tensor<fp16, [256]>(BLOBFILE(path = tensor<string, []>("@model_path/weights/weight.bin"), offset = tensor<uint64, []>(26580160))), name = tensor<string, []>("model_23_cv3_0_0_1_conv_weight_to_fp16_palettized"), shape = tensor<uint32, [4]>([256, 256, 1, 1])];
            tensor<fp16, [256]> model_23_cv3_0_0_1_conv_bias_to_fp16 = const()[name = tensor<string, []>("model_23_cv3_0_0_1_conv_bias_to_fp16"), val = tensor<fp16, [256]>(BLOBFILE(path = tensor<string, []>("@model_path/weights/weight.bin"), offset = tensor<uint64, []>(26580736)))];
            tensor<fp16, [1, 256, 80, 80]> input_603_cast_fp16 = conv(bias = model_23_cv3_0_0_1_conv_bias_to_fp16, dilations = input_603_dilations_0, groups = input_603_groups_0, pad = input_603_pad_0, pad_type = input_603_pad_type_0, strides = input_603_strides_0, weight = model_23_cv3_0_0_1_conv_weight_to_fp16_palettized, x = input_601_cast_fp16)[name = tensor<string, []>("input_603_cast_fp16")];
            tensor<fp16, [1, 256, 80, 80]> input_605_cast_fp16 = silu(x = input_603_cast_fp16)[name = tensor<string, []>("input_605_cast_fp16")];
            tensor<string, []> input_607_pad_type_0 = const()[name = tensor<string, []>("input_607_pad_type_0"), val = tensor<string, []>("custom")];
            tensor<int32, [4]> input_607_pad_0 = const()[name = tensor<string, []>("input_607_pad_0"), val = tensor<int32, [4]>([1, 1, 1, 1])];
            tensor<int32, []> input_607_groups_0 = const()[name = tensor<string, []>("input_607_groups_0"), val = tensor<int32, []>(256)];
            tensor<int32, [2]> input_607_strides_0 = const()[name = tensor<string, []>("input_607_strides_0"), val = tensor<int32, [2]>([1, 1])];
            tensor<int32, [2]> input_607_dilations_0 = const()[name = tensor<string, []>("input_607_dilations_0"), val = tensor<int32, [2]>([1, 1])];
            tensor<fp16, [256, 1, 3, 3]> model_23_cv3_0_1_0_conv_weight_to_fp16_palettized = constexpr_lut_to_dense()[indices = tensor<uint8, [2304]>(BLOBFILE(path = tensor<string, []>("@model_path/weights/weight.bin"), offset = tensor<uint64, []>(26581312))), lut = tensor<fp16, [256]>(BLOBFILE(path = tensor<string, []>("@model_path/weights/weight.bin"), offset = tensor<uint64, []>(26583680))), name = tensor<string, []>("model_23_cv3_0_1_0_conv_weight_to_fp16_palettized"), shape = tensor<uint32, [4]>([256, 1, 3, 3])];
            tensor<fp16, [256]> model_23_cv3_0_1_0_conv_bias_to_fp16 = const()[name = tensor<string, []>("model_23_cv3_0_1_0_conv_bias_to_fp16"), val = tensor<fp16, [256]>(BLOBFILE(path = tensor<string, []>("@model_path/weights/weight.bin"), offset = tensor<uint64, []>(26584256)))];
            tensor<fp16, [1, 256, 80, 80]> input_607_cast_fp16 = conv(bias = model_23_cv3_0_1_0_conv_bias_to_fp16, dilations = input_607_dilations_0, groups = input_607_groups_0, pad = input_607_pad_0, pad_type = input_607_pad_type_0, strides = input_607_strides_0, weight = model_23_cv3_0_1_0_conv_weight_to_fp16_palettized, x = input_605_cast_fp16)[name = tensor<string, []>("input_607_cast_fp16")];
            tensor<fp16, [1, 256, 80, 80]> input_609_cast_fp16 = silu(x = input_607_cast_fp16)[name = tensor<string, []>("input_609_cast_fp16")];
            tensor<string, []> input_611_pad_type_0 = const()[name = tensor<string, []>("input_611_pad_type_0"), val = tensor<string, []>("valid")];
            tensor<int32, [2]> input_611_strides_0 = const()[name = tensor<string, []>("input_611_strides_0"), val = tensor<int32, [2]>([1, 1])];
            tensor<int32, [4]> input_611_pad_0 = const()[name = tensor<string, []>("input_611_pad_0"), val = tensor<int32, [4]>([0, 0, 0, 0])];
            tensor<int32, [2]> input_611_dilations_0 = const()[name = tensor<string, []>("input_611_dilations_0"), val = tensor<int32, [2]>([1, 1])];
            tensor<int32, []> input_611_groups_0 = const()[name = tensor<string, []>("input_611_groups_0"), val = tensor<int32, []>(1)];
            tensor<fp16, [256, 256, 1, 1]> model_23_cv3_0_1_1_conv_weight_to_fp16_palettized = constexpr_lut_to_dense()[indices = tensor<uint8, [65536]>(BLOBFILE(path = tensor<string, []>("@model_path/weights/weight.bin"), offset = tensor<uint64, []>(26584832))), lut = tensor<fp16, [256]>(BLOBFILE(path = tensor<string, []>("@model_path/weights/weight.bin"), offset = tensor<uint64, []>(26650432))), name = tensor<string, []>("model_23_cv3_0_1_1_conv_weight_to_fp16_palettized"), shape = tensor<uint32, [4]>([256, 256, 1, 1])];
            tensor<fp16, [256]> model_23_cv3_0_1_1_conv_bias_to_fp16 = const()[name = tensor<string, []>("model_23_cv3_0_1_1_conv_bias_to_fp16"), val = tensor<fp16, [256]>(BLOBFILE(path = tensor<string, []>("@model_path/weights/weight.bin"), offset = tensor<uint64, []>(26651008)))];
            tensor<fp16, [1, 256, 80, 80]> input_611_cast_fp16 = conv(bias = model_23_cv3_0_1_1_conv_bias_to_fp16, dilations = input_611_dilations_0, groups = input_611_groups_0, pad = input_611_pad_0, pad_type = input_611_pad_type_0, strides = input_611_strides_0, weight = model_23_cv3_0_1_1_conv_weight_to_fp16_palettized, x = input_609_cast_fp16)[name = tensor<string, []>("input_611_cast_fp16")];
            tensor<fp16, [1, 256, 80, 80]> input_613_cast_fp16 = silu(x = input_611_cast_fp16)[name = tensor<string, []>("input_613_cast_fp16")];
            tensor<string, []> var_2153_pad_type_0 = const()[name = tensor<string, []>("op_2153_pad_type_0"), val = tensor<string, []>("valid")];
            tensor<int32, [2]> var_2153_strides_0 = const()[name = tensor<string, []>("op_2153_strides_0"), val = tensor<int32, [2]>([1, 1])];
            tensor<int32, [4]> var_2153_pad_0 = const()[name = tensor<string, []>("op_2153_pad_0"), val = tensor<int32, [4]>([0, 0, 0, 0])];
            tensor<int32, [2]> var_2153_dilations_0 = const()[name = tensor<string, []>("op_2153_dilations_0"), val = tensor<int32, [2]>([1, 1])];
            tensor<int32, []> var_2153_groups_0 = const()[name = tensor<string, []>("op_2153_groups_0"), val = tensor<int32, []>(1)];
            tensor<fp16, [80, 256, 1, 1]> model_23_cv3_0_2_weight_to_fp16_palettized = constexpr_lut_to_dense()[indices = tensor<uint8, [20480]>(BLOBFILE(path = tensor<string, []>("@model_path/weights/weight.bin"), offset = tensor<uint64, []>(26651584))), lut = tensor<fp16, [256]>(BLOBFILE(path = tensor<string, []>("@model_path/weights/weight.bin"), offset = tensor<uint64, []>(26672128))), name = tensor<string, []>("model_23_cv3_0_2_weight_to_fp16_palettized"), shape = tensor<uint32, [4]>([80, 256, 1, 1])];
            tensor<fp16, [80]> model_23_cv3_0_2_bias_to_fp16 = const()[name = tensor<string, []>("model_23_cv3_0_2_bias_to_fp16"), val = tensor<fp16, [80]>(BLOBFILE(path = tensor<string, []>("@model_path/weights/weight.bin"), offset = tensor<uint64, []>(26672704)))];
            tensor<fp16, [1, 80, 80, 80]> var_2153_cast_fp16 = conv(bias = model_23_cv3_0_2_bias_to_fp16, dilations = var_2153_dilations_0, groups = var_2153_groups_0, pad = var_2153_pad_0, pad_type = var_2153_pad_type_0, strides = var_2153_strides_0, weight = model_23_cv3_0_2_weight_to_fp16_palettized, x = input_613_cast_fp16)[name = tensor<string, []>("op_2153_cast_fp16")];
            tensor<bool, []> xi_1_interleave_0 = const()[name = tensor<string, []>("xi_1_interleave_0"), val = tensor<bool, []>(false)];
            tensor<fp16, [1, 144, 80, 80]> xi_1_cast_fp16 = concat(axis = var_1920, interleave = xi_1_interleave_0, values = (var_2103_cast_fp16, var_2153_cast_fp16))[name = tensor<string, []>("xi_1_cast_fp16")];
            tensor<string, []> input_615_pad_type_0 = const()[name = tensor<string, []>("input_615_pad_type_0"), val = tensor<string, []>("custom")];
            tensor<int32, [4]> input_615_pad_0 = const()[name = tensor<string, []>("input_615_pad_0"), val = tensor<int32, [4]>([1, 1, 1, 1])];
            tensor<int32, [2]> input_615_strides_0 = const()[name = tensor<string, []>("input_615_strides_0"), val = tensor<int32, [2]>([1, 1])];
            tensor<int32, [2]> input_615_dilations_0 = const()[name = tensor<string, []>("input_615_dilations_0"), val = tensor<int32, [2]>([1, 1])];
            tensor<int32, []> input_615_groups_0 = const()[name = tensor<string, []>("input_615_groups_0"), val = tensor<int32, []>(1)];
            tensor<fp16, [64, 512, 3, 3]> model_23_cv2_1_0_conv_weight_to_fp16_palettized = constexpr_lut_to_dense()[indices = tensor<uint8, [294912]>(BLOBFILE(path = tensor<string, []>("@model_path/weights/weight.bin"), offset = tensor<uint64, []>(26672960))), lut = tensor<fp16, [256]>(BLOBFILE(path = tensor<string, []>("@model_path/weights/weight.bin"), offset = tensor<uint64, []>(26967936))), name = tensor<string, []>("model_23_cv2_1_0_conv_weight_to_fp16_palettized"), shape = tensor<uint32, [4]>([64, 512, 3, 3])];
            tensor<fp16, [64]> model_23_cv2_1_0_conv_bias_to_fp16 = const()[name = tensor<string, []>("model_23_cv2_1_0_conv_bias_to_fp16"), val = tensor<fp16, [64]>(BLOBFILE(path = tensor<string, []>("@model_path/weights/weight.bin"), offset = tensor<uint64, []>(26968512)))];
            tensor<fp16, [1, 64, 40, 40]> input_615_cast_fp16 = conv(bias = model_23_cv2_1_0_conv_bias_to_fp16, dilations = input_615_dilations_0, groups = input_615_groups_0, pad = input_615_pad_0, pad_type = input_615_pad_type_0, strides = input_615_strides_0, weight = model_23_cv2_1_0_conv_weight_to_fp16_palettized, x = input_489_cast_fp16)[name = tensor<string, []>("input_615_cast_fp16")];
            tensor<fp16, [1, 64, 40, 40]> input_617_cast_fp16 = silu(x = input_615_cast_fp16)[name = tensor<string, []>("input_617_cast_fp16")];
            tensor<string, []> input_619_pad_type_0 = const()[name = tensor<string, []>("input_619_pad_type_0"), val = tensor<string, []>("custom")];
            tensor<int32, [4]> input_619_pad_0 = const()[name = tensor<string, []>("input_619_pad_0"), val = tensor<int32, [4]>([1, 1, 1, 1])];
            tensor<int32, [2]> input_619_strides_0 = const()[name = tensor<string, []>("input_619_strides_0"), val = tensor<int32, [2]>([1, 1])];
            tensor<int32, [2]> input_619_dilations_0 = const()[name = tensor<string, []>("input_619_dilations_0"), val = tensor<int32, [2]>([1, 1])];
            tensor<int32, []> input_619_groups_0 = const()[name = tensor<string, []>("input_619_groups_0"), val = tensor<int32, []>(1)];
            tensor<fp16, [64, 64, 3, 3]> model_23_cv2_1_1_conv_weight_to_fp16_palettized = constexpr_lut_to_dense()[indices = tensor<uint8, [36864]>(BLOBFILE(path = tensor<string, []>("@model_path/weights/weight.bin"), offset = tensor<uint64, []>(26968704))), lut = tensor<fp16, [256]>(BLOBFILE(path = tensor<string, []>("@model_path/weights/weight.bin"), offset = tensor<uint64, []>(27005632))), name = tensor<string, []>("model_23_cv2_1_1_conv_weight_to_fp16_palettized"), shape = tensor<uint32, [4]>([64, 64, 3, 3])];
            tensor<fp16, [64]> model_23_cv2_1_1_conv_bias_to_fp16 = const()[name = tensor<string, []>("model_23_cv2_1_1_conv_bias_to_fp16"), val = tensor<fp16, [64]>(BLOBFILE(path = tensor<string, []>("@model_path/weights/weight.bin"), offset = tensor<uint64, []>(27006208)))];
            tensor<fp16, [1, 64, 40, 40]> input_619_cast_fp16 = conv(bias = model_23_cv2_1_1_conv_bias_to_fp16, dilations = input_619_dilations_0, groups = input_619_groups_0, pad = input_619_pad_0, pad_type = input_619_pad_type_0, strides = input_619_strides_0, weight = model_23_cv2_1_1_conv_weight_to_fp16_palettized, x = input_617_cast_fp16)[name = tensor<string, []>("input_619_cast_fp16")];
            tensor<fp16, [1, 64, 40, 40]> input_621_cast_fp16 = silu(x = input_619_cast_fp16)[name = tensor<string, []>("input_621_cast_fp16")];
            tensor<string, []> var_2183_pad_type_0 = const()[name = tensor<string, []>("op_2183_pad_type_0"), val = tensor<string, []>("valid")];
            tensor<int32, [2]> var_2183_strides_0 = const()[name = tensor<string, []>("op_2183_strides_0"), val = tensor<int32, [2]>([1, 1])];
            tensor<int32, [4]> var_2183_pad_0 = const()[name = tensor<string, []>("op_2183_pad_0"), val = tensor<int32, [4]>([0, 0, 0, 0])];
            tensor<int32, [2]> var_2183_dilations_0 = const()[name = tensor<string, []>("op_2183_dilations_0"), val = tensor<int32, [2]>([1, 1])];
            tensor<int32, []> var_2183_groups_0 = const()[name = tensor<string, []>("op_2183_groups_0"), val = tensor<int32, []>(1)];
            tensor<fp16, [64, 64, 1, 1]> model_23_cv2_1_2_weight_to_fp16_palettized = constexpr_lut_to_dense()[indices = tensor<uint8, [4096]>(BLOBFILE(path = tensor<string, []>("@model_path/weights/weight.bin"), offset = tensor<uint64, []>(27006400))), lut = tensor<fp16, [256]>(BLOBFILE(path = tensor<string, []>("@model_path/weights/weight.bin"), offset = tensor<uint64, []>(27010560))), name = tensor<string, []>("model_23_cv2_1_2_weight_to_fp16_palettized"), shape = tensor<uint32, [4]>([64, 64, 1, 1])];
            tensor<fp16, [64]> model_23_cv2_1_2_bias_to_fp16 = const()[name = tensor<string, []>("model_23_cv2_1_2_bias_to_fp16"), val = tensor<fp16, [64]>(BLOBFILE(path = tensor<string, []>("@model_path/weights/weight.bin"), offset = tensor<uint64, []>(27011136)))];
            tensor<fp16, [1, 64, 40, 40]> var_2183_cast_fp16 = conv(bias = model_23_cv2_1_2_bias_to_fp16, dilations = var_2183_dilations_0, groups = var_2183_groups_0, pad = var_2183_pad_0, pad_type = var_2183_pad_type_0, strides = var_2183_strides_0, weight = model_23_cv2_1_2_weight_to_fp16_palettized, x = input_621_cast_fp16)[name = tensor<string, []>("op_2183_cast_fp16")];
            tensor<string, []> input_623_pad_type_0 = const()[name = tensor<string, []>("input_623_pad_type_0"), val = tensor<string, []>("custom")];
            tensor<int32, [4]> input_623_pad_0 = const()[name = tensor<string, []>("input_623_pad_0"), val = tensor<int32, [4]>([1, 1, 1, 1])];
            tensor<int32, []> input_623_groups_0 = const()[name = tensor<string, []>("input_623_groups_0"), val = tensor<int32, []>(512)];
            tensor<int32, [2]> input_623_strides_0 = const()[name = tensor<string, []>("input_623_strides_0"), val = tensor<int32, [2]>([1, 1])];
            tensor<int32, [2]> input_623_dilations_0 = const()[name = tensor<string, []>("input_623_dilations_0"), val = tensor<int32, [2]>([1, 1])];
            tensor<fp16, [512, 1, 3, 3]> model_23_cv3_1_0_0_conv_weight_to_fp16_palettized = constexpr_lut_to_dense()[indices = tensor<uint8, [4608]>(BLOBFILE(path = tensor<string, []>("@model_path/weights/weight.bin"), offset = tensor<uint64, []>(27011328))), lut = tensor<fp16, [256]>(BLOBFILE(path = tensor<string, []>("@model_path/weights/weight.bin"), offset = tensor<uint64, []>(27016000))), name = tensor<string, []>("model_23_cv3_1_0_0_conv_weight_to_fp16_palettized"), shape = tensor<uint32, [4]>([512, 1, 3, 3])];
            tensor<fp16, [512]> model_23_cv3_1_0_0_conv_bias_to_fp16 = const()[name = tensor<string, []>("model_23_cv3_1_0_0_conv_bias_to_fp16"), val = tensor<fp16, [512]>(BLOBFILE(path = tensor<string, []>("@model_path/weights/weight.bin"), offset = tensor<uint64, []>(27016576)))];
            tensor<fp16, [1, 512, 40, 40]> input_623_cast_fp16 = conv(bias = model_23_cv3_1_0_0_conv_bias_to_fp16, dilations = input_623_dilations_0, groups = input_623_groups_0, pad = input_623_pad_0, pad_type = input_623_pad_type_0, strides = input_623_strides_0, weight = model_23_cv3_1_0_0_conv_weight_to_fp16_palettized, x = input_489_cast_fp16)[name = tensor<string, []>("input_623_cast_fp16")];
            tensor<fp16, [1, 512, 40, 40]> input_625_cast_fp16 = silu(x = input_623_cast_fp16)[name = tensor<string, []>("input_625_cast_fp16")];
            tensor<string, []> input_627_pad_type_0 = const()[name = tensor<string, []>("input_627_pad_type_0"), val = tensor<string, []>("valid")];
            tensor<int32, [2]> input_627_strides_0 = const()[name = tensor<string, []>("input_627_strides_0"), val = tensor<int32, [2]>([1, 1])];
            tensor<int32, [4]> input_627_pad_0 = const()[name = tensor<string, []>("input_627_pad_0"), val = tensor<int32, [4]>([0, 0, 0, 0])];
            tensor<int32, [2]> input_627_dilations_0 = const()[name = tensor<string, []>("input_627_dilations_0"), val = tensor<int32, [2]>([1, 1])];
            tensor<int32, []> input_627_groups_0 = const()[name = tensor<string, []>("input_627_groups_0"), val = tensor<int32, []>(1)];
            tensor<fp16, [256, 512, 1, 1]> model_23_cv3_1_0_1_conv_weight_to_fp16_palettized = constexpr_lut_to_dense()[indices = tensor<uint8, [131072]>(BLOBFILE(path = tensor<string, []>("@model_path/weights/weight.bin"), offset = tensor<uint64, []>(27017664))), lut = tensor<fp16, [256]>(BLOBFILE(path = tensor<string, []>("@model_path/weights/weight.bin"), offset = tensor<uint64, []>(27148800))), name = tensor<string, []>("model_23_cv3_1_0_1_conv_weight_to_fp16_palettized"), shape = tensor<uint32, [4]>([256, 512, 1, 1])];
            tensor<fp16, [256]> model_23_cv3_1_0_1_conv_bias_to_fp16 = const()[name = tensor<string, []>("model_23_cv3_1_0_1_conv_bias_to_fp16"), val = tensor<fp16, [256]>(BLOBFILE(path = tensor<string, []>("@model_path/weights/weight.bin"), offset = tensor<uint64, []>(27149376)))];
            tensor<fp16, [1, 256, 40, 40]> input_627_cast_fp16 = conv(bias = model_23_cv3_1_0_1_conv_bias_to_fp16, dilations = input_627_dilations_0, groups = input_627_groups_0, pad = input_627_pad_0, pad_type = input_627_pad_type_0, strides = input_627_strides_0, weight = model_23_cv3_1_0_1_conv_weight_to_fp16_palettized, x = input_625_cast_fp16)[name = tensor<string, []>("input_627_cast_fp16")];
            tensor<fp16, [1, 256, 40, 40]> input_629_cast_fp16 = silu(x = input_627_cast_fp16)[name = tensor<string, []>("input_629_cast_fp16")];
            tensor<string, []> input_631_pad_type_0 = const()[name = tensor<string, []>("input_631_pad_type_0"), val = tensor<string, []>("custom")];
            tensor<int32, [4]> input_631_pad_0 = const()[name = tensor<string, []>("input_631_pad_0"), val = tensor<int32, [4]>([1, 1, 1, 1])];
            tensor<int32, []> input_631_groups_0 = const()[name = tensor<string, []>("input_631_groups_0"), val = tensor<int32, []>(256)];
            tensor<int32, [2]> input_631_strides_0 = const()[name = tensor<string, []>("input_631_strides_0"), val = tensor<int32, [2]>([1, 1])];
            tensor<int32, [2]> input_631_dilations_0 = const()[name = tensor<string, []>("input_631_dilations_0"), val = tensor<int32, [2]>([1, 1])];
            tensor<fp16, [256, 1, 3, 3]> model_23_cv3_1_1_0_conv_weight_to_fp16_palettized = constexpr_lut_to_dense()[indices = tensor<uint8, [2304]>(BLOBFILE(path = tensor<string, []>("@model_path/weights/weight.bin"), offset = tensor<uint64, []>(27149952))), lut = tensor<fp16, [256]>(BLOBFILE(path = tensor<string, []>("@model_path/weights/weight.bin"), offset = tensor<uint64, []>(27152320))), name = tensor<string, []>("model_23_cv3_1_1_0_conv_weight_to_fp16_palettized"), shape = tensor<uint32, [4]>([256, 1, 3, 3])];
            tensor<fp16, [256]> model_23_cv3_1_1_0_conv_bias_to_fp16 = const()[name = tensor<string, []>("model_23_cv3_1_1_0_conv_bias_to_fp16"), val = tensor<fp16, [256]>(BLOBFILE(path = tensor<string, []>("@model_path/weights/weight.bin"), offset = tensor<uint64, []>(27152896)))];
            tensor<fp16, [1, 256, 40, 40]> input_631_cast_fp16 = conv(bias = model_23_cv3_1_1_0_conv_bias_to_fp16, dilations = input_631_dilations_0, groups = input_631_groups_0, pad = input_631_pad_0, pad_type = input_631_pad_type_0, strides = input_631_strides_0, weight = model_23_cv3_1_1_0_conv_weight_to_fp16_palettized, x = input_629_cast_fp16)[name = tensor<string, []>("input_631_cast_fp16")];
            tensor<fp16, [1, 256, 40, 40]> input_633_cast_fp16 = silu(x = input_631_cast_fp16)[name = tensor<string, []>("input_633_cast_fp16")];
            tensor<string, []> input_635_pad_type_0 = const()[name = tensor<string, []>("input_635_pad_type_0"), val = tensor<string, []>("valid")];
            tensor<int32, [2]> input_635_strides_0 = const()[name = tensor<string, []>("input_635_strides_0"), val = tensor<int32, [2]>([1, 1])];
            tensor<int32, [4]> input_635_pad_0 = const()[name = tensor<string, []>("input_635_pad_0"), val = tensor<int32, [4]>([0, 0, 0, 0])];
            tensor<int32, [2]> input_635_dilations_0 = const()[name = tensor<string, []>("input_635_dilations_0"), val = tensor<int32, [2]>([1, 1])];
            tensor<int32, []> input_635_groups_0 = const()[name = tensor<string, []>("input_635_groups_0"), val = tensor<int32, []>(1)];
            tensor<fp16, [256, 256, 1, 1]> model_23_cv3_1_1_1_conv_weight_to_fp16_palettized = constexpr_lut_to_dense()[indices = tensor<uint8, [65536]>(BLOBFILE(path = tensor<string, []>("@model_path/weights/weight.bin"), offset = tensor<uint64, []>(27153472))), lut = tensor<fp16, [256]>(BLOBFILE(path = tensor<string, []>("@model_path/weights/weight.bin"), offset = tensor<uint64, []>(27219072))), name = tensor<string, []>("model_23_cv3_1_1_1_conv_weight_to_fp16_palettized"), shape = tensor<uint32, [4]>([256, 256, 1, 1])];
            tensor<fp16, [256]> model_23_cv3_1_1_1_conv_bias_to_fp16 = const()[name = tensor<string, []>("model_23_cv3_1_1_1_conv_bias_to_fp16"), val = tensor<fp16, [256]>(BLOBFILE(path = tensor<string, []>("@model_path/weights/weight.bin"), offset = tensor<uint64, []>(27219648)))];
            tensor<fp16, [1, 256, 40, 40]> input_635_cast_fp16 = conv(bias = model_23_cv3_1_1_1_conv_bias_to_fp16, dilations = input_635_dilations_0, groups = input_635_groups_0, pad = input_635_pad_0, pad_type = input_635_pad_type_0, strides = input_635_strides_0, weight = model_23_cv3_1_1_1_conv_weight_to_fp16_palettized, x = input_633_cast_fp16)[name = tensor<string, []>("input_635_cast_fp16")];
            tensor<fp16, [1, 256, 40, 40]> input_637_cast_fp16 = silu(x = input_635_cast_fp16)[name = tensor<string, []>("input_637_cast_fp16")];
            tensor<string, []> var_2233_pad_type_0 = const()[name = tensor<string, []>("op_2233_pad_type_0"), val = tensor<string, []>("valid")];
            tensor<int32, [2]> var_2233_strides_0 = const()[name = tensor<string, []>("op_2233_strides_0"), val = tensor<int32, [2]>([1, 1])];
            tensor<int32, [4]> var_2233_pad_0 = const()[name = tensor<string, []>("op_2233_pad_0"), val = tensor<int32, [4]>([0, 0, 0, 0])];
            tensor<int32, [2]> var_2233_dilations_0 = const()[name = tensor<string, []>("op_2233_dilations_0"), val = tensor<int32, [2]>([1, 1])];
            tensor<int32, []> var_2233_groups_0 = const()[name = tensor<string, []>("op_2233_groups_0"), val = tensor<int32, []>(1)];
            tensor<fp16, [80, 256, 1, 1]> model_23_cv3_1_2_weight_to_fp16_palettized = constexpr_lut_to_dense()[indices = tensor<uint8, [20480]>(BLOBFILE(path = tensor<string, []>("@model_path/weights/weight.bin"), offset = tensor<uint64, []>(27220224))), lut = tensor<fp16, [256]>(BLOBFILE(path = tensor<string, []>("@model_path/weights/weight.bin"), offset = tensor<uint64, []>(27240768))), name = tensor<string, []>("model_23_cv3_1_2_weight_to_fp16_palettized"), shape = tensor<uint32, [4]>([80, 256, 1, 1])];
            tensor<fp16, [80]> model_23_cv3_1_2_bias_to_fp16 = const()[name = tensor<string, []>("model_23_cv3_1_2_bias_to_fp16"), val = tensor<fp16, [80]>(BLOBFILE(path = tensor<string, []>("@model_path/weights/weight.bin"), offset = tensor<uint64, []>(27241344)))];
            tensor<fp16, [1, 80, 40, 40]> var_2233_cast_fp16 = conv(bias = model_23_cv3_1_2_bias_to_fp16, dilations = var_2233_dilations_0, groups = var_2233_groups_0, pad = var_2233_pad_0, pad_type = var_2233_pad_type_0, strides = var_2233_strides_0, weight = model_23_cv3_1_2_weight_to_fp16_palettized, x = input_637_cast_fp16)[name = tensor<string, []>("op_2233_cast_fp16")];
            tensor<bool, []> xi_3_interleave_0 = const()[name = tensor<string, []>("xi_3_interleave_0"), val = tensor<bool, []>(false)];
            tensor<fp16, [1, 144, 40, 40]> xi_3_cast_fp16 = concat(axis = var_1920, interleave = xi_3_interleave_0, values = (var_2183_cast_fp16, var_2233_cast_fp16))[name = tensor<string, []>("xi_3_cast_fp16")];
            tensor<string, []> input_639_pad_type_0 = const()[name = tensor<string, []>("input_639_pad_type_0"), val = tensor<string, []>("custom")];
            tensor<int32, [4]> input_639_pad_0 = const()[name = tensor<string, []>("input_639_pad_0"), val = tensor<int32, [4]>([1, 1, 1, 1])];
            tensor<int32, [2]> input_639_strides_0 = const()[name = tensor<string, []>("input_639_strides_0"), val = tensor<int32, [2]>([1, 1])];
            tensor<int32, [2]> input_639_dilations_0 = const()[name = tensor<string, []>("input_639_dilations_0"), val = tensor<int32, [2]>([1, 1])];
            tensor<int32, []> input_639_groups_0 = const()[name = tensor<string, []>("input_639_groups_0"), val = tensor<int32, []>(1)];
            tensor<fp16, [64, 512, 3, 3]> model_23_cv2_2_0_conv_weight_to_fp16_palettized = constexpr_lut_to_dense()[indices = tensor<uint8, [294912]>(BLOBFILE(path = tensor<string, []>("@model_path/weights/weight.bin"), offset = tensor<uint64, []>(27241600))), lut = tensor<fp16, [256]>(BLOBFILE(path = tensor<string, []>("@model_path/weights/weight.bin"), offset = tensor<uint64, []>(27536576))), name = tensor<string, []>("model_23_cv2_2_0_conv_weight_to_fp16_palettized"), shape = tensor<uint32, [4]>([64, 512, 3, 3])];
            tensor<fp16, [64]> model_23_cv2_2_0_conv_bias_to_fp16 = const()[name = tensor<string, []>("model_23_cv2_2_0_conv_bias_to_fp16"), val = tensor<fp16, [64]>(BLOBFILE(path = tensor<string, []>("@model_path/weights/weight.bin"), offset = tensor<uint64, []>(27537152)))];
            tensor<fp16, [1, 64, 20, 20]> input_639_cast_fp16 = conv(bias = model_23_cv2_2_0_conv_bias_to_fp16, dilations = input_639_dilations_0, groups = input_639_groups_0, pad = input_639_pad_0, pad_type = input_639_pad_type_0, strides = input_639_strides_0, weight = model_23_cv2_2_0_conv_weight_to_fp16_palettized, x = input_581_cast_fp16)[name = tensor<string, []>("input_639_cast_fp16")];
            tensor<fp16, [1, 64, 20, 20]> input_641_cast_fp16 = silu(x = input_639_cast_fp16)[name = tensor<string, []>("input_641_cast_fp16")];
            tensor<string, []> input_643_pad_type_0 = const()[name = tensor<string, []>("input_643_pad_type_0"), val = tensor<string, []>("custom")];
            tensor<int32, [4]> input_643_pad_0 = const()[name = tensor<string, []>("input_643_pad_0"), val = tensor<int32, [4]>([1, 1, 1, 1])];
            tensor<int32, [2]> input_643_strides_0 = const()[name = tensor<string, []>("input_643_strides_0"), val = tensor<int32, [2]>([1, 1])];
            tensor<int32, [2]> input_643_dilations_0 = const()[name = tensor<string, []>("input_643_dilations_0"), val = tensor<int32, [2]>([1, 1])];
            tensor<int32, []> input_643_groups_0 = const()[name = tensor<string, []>("input_643_groups_0"), val = tensor<int32, []>(1)];
            tensor<fp16, [64, 64, 3, 3]> model_23_cv2_2_1_conv_weight_to_fp16_palettized = constexpr_lut_to_dense()[indices = tensor<uint8, [36864]>(BLOBFILE(path = tensor<string, []>("@model_path/weights/weight.bin"), offset = tensor<uint64, []>(27537344))), lut = tensor<fp16, [256]>(BLOBFILE(path = tensor<string, []>("@model_path/weights/weight.bin"), offset = tensor<uint64, []>(27574272))), name = tensor<string, []>("model_23_cv2_2_1_conv_weight_to_fp16_palettized"), shape = tensor<uint32, [4]>([64, 64, 3, 3])];
            tensor<fp16, [64]> model_23_cv2_2_1_conv_bias_to_fp16 = const()[name = tensor<string, []>("model_23_cv2_2_1_conv_bias_to_fp16"), val = tensor<fp16, [64]>(BLOBFILE(path = tensor<string, []>("@model_path/weights/weight.bin"), offset = tensor<uint64, []>(27574848)))];
            tensor<fp16, [1, 64, 20, 20]> input_643_cast_fp16 = conv(bias = model_23_cv2_2_1_conv_bias_to_fp16, dilations = input_643_dilations_0, groups = input_643_groups_0, pad = input_643_pad_0, pad_type = input_643_pad_type_0, strides = input_643_strides_0, weight = model_23_cv2_2_1_conv_weight_to_fp16_palettized, x = input_641_cast_fp16)[name = tensor<string, []>("input_643_cast_fp16")];
            tensor<fp16, [1, 64, 20, 20]> input_645_cast_fp16 = silu(x = input_643_cast_fp16)[name = tensor<string, []>("input_645_cast_fp16")];
            tensor<string, []> var_2263_pad_type_0 = const()[name = tensor<string, []>("op_2263_pad_type_0"), val = tensor<string, []>("valid")];
            tensor<int32, [2]> var_2263_strides_0 = const()[name = tensor<string, []>("op_2263_strides_0"), val = tensor<int32, [2]>([1, 1])];
            tensor<int32, [4]> var_2263_pad_0 = const()[name = tensor<string, []>("op_2263_pad_0"), val = tensor<int32, [4]>([0, 0, 0, 0])];
            tensor<int32, [2]> var_2263_dilations_0 = const()[name = tensor<string, []>("op_2263_dilations_0"), val = tensor<int32, [2]>([1, 1])];
            tensor<int32, []> var_2263_groups_0 = const()[name = tensor<string, []>("op_2263_groups_0"), val = tensor<int32, []>(1)];
            tensor<fp16, [64, 64, 1, 1]> model_23_cv2_2_2_weight_to_fp16_palettized = constexpr_lut_to_dense()[indices = tensor<uint8, [4096]>(BLOBFILE(path = tensor<string, []>("@model_path/weights/weight.bin"), offset = tensor<uint64, []>(27575040))), lut = tensor<fp16, [256]>(BLOBFILE(path = tensor<string, []>("@model_path/weights/weight.bin"), offset = tensor<uint64, []>(27579200))), name = tensor<string, []>("model_23_cv2_2_2_weight_to_fp16_palettized"), shape = tensor<uint32, [4]>([64, 64, 1, 1])];
            tensor<fp16, [64]> model_23_cv2_2_2_bias_to_fp16 = const()[name = tensor<string, []>("model_23_cv2_2_2_bias_to_fp16"), val = tensor<fp16, [64]>(BLOBFILE(path = tensor<string, []>("@model_path/weights/weight.bin"), offset = tensor<uint64, []>(27579776)))];
            tensor<fp16, [1, 64, 20, 20]> var_2263_cast_fp16 = conv(bias = model_23_cv2_2_2_bias_to_fp16, dilations = var_2263_dilations_0, groups = var_2263_groups_0, pad = var_2263_pad_0, pad_type = var_2263_pad_type_0, strides = var_2263_strides_0, weight = model_23_cv2_2_2_weight_to_fp16_palettized, x = input_645_cast_fp16)[name = tensor<string, []>("op_2263_cast_fp16")];
            tensor<string, []> input_647_pad_type_0 = const()[name = tensor<string, []>("input_647_pad_type_0"), val = tensor<string, []>("custom")];
            tensor<int32, [4]> input_647_pad_0 = const()[name = tensor<string, []>("input_647_pad_0"), val = tensor<int32, [4]>([1, 1, 1, 1])];
            tensor<int32, []> input_647_groups_0 = const()[name = tensor<string, []>("input_647_groups_0"), val = tensor<int32, []>(512)];
            tensor<int32, [2]> input_647_strides_0 = const()[name = tensor<string, []>("input_647_strides_0"), val = tensor<int32, [2]>([1, 1])];
            tensor<int32, [2]> input_647_dilations_0 = const()[name = tensor<string, []>("input_647_dilations_0"), val = tensor<int32, [2]>([1, 1])];
            tensor<fp16, [512, 1, 3, 3]> model_23_cv3_2_0_0_conv_weight_to_fp16_palettized = constexpr_lut_to_dense()[indices = tensor<uint8, [4608]>(BLOBFILE(path = tensor<string, []>("@model_path/weights/weight.bin"), offset = tensor<uint64, []>(27579968))), lut = tensor<fp16, [256]>(BLOBFILE(path = tensor<string, []>("@model_path/weights/weight.bin"), offset = tensor<uint64, []>(27584640))), name = tensor<string, []>("model_23_cv3_2_0_0_conv_weight_to_fp16_palettized"), shape = tensor<uint32, [4]>([512, 1, 3, 3])];
            tensor<fp16, [512]> model_23_cv3_2_0_0_conv_bias_to_fp16 = const()[name = tensor<string, []>("model_23_cv3_2_0_0_conv_bias_to_fp16"), val = tensor<fp16, [512]>(BLOBFILE(path = tensor<string, []>("@model_path/weights/weight.bin"), offset = tensor<uint64, []>(27585216)))];
            tensor<fp16, [1, 512, 20, 20]> input_647_cast_fp16 = conv(bias = model_23_cv3_2_0_0_conv_bias_to_fp16, dilations = input_647_dilations_0, groups = input_647_groups_0, pad = input_647_pad_0, pad_type = input_647_pad_type_0, strides = input_647_strides_0, weight = model_23_cv3_2_0_0_conv_weight_to_fp16_palettized, x = input_581_cast_fp16)[name = tensor<string, []>("input_647_cast_fp16")];
            tensor<fp16, [1, 512, 20, 20]> input_649_cast_fp16 = silu(x = input_647_cast_fp16)[name = tensor<string, []>("input_649_cast_fp16")];
            tensor<string, []> input_651_pad_type_0 = const()[name = tensor<string, []>("input_651_pad_type_0"), val = tensor<string, []>("valid")];
            tensor<int32, [2]> input_651_strides_0 = const()[name = tensor<string, []>("input_651_strides_0"), val = tensor<int32, [2]>([1, 1])];
            tensor<int32, [4]> input_651_pad_0 = const()[name = tensor<string, []>("input_651_pad_0"), val = tensor<int32, [4]>([0, 0, 0, 0])];
            tensor<int32, [2]> input_651_dilations_0 = const()[name = tensor<string, []>("input_651_dilations_0"), val = tensor<int32, [2]>([1, 1])];
            tensor<int32, []> input_651_groups_0 = const()[name = tensor<string, []>("input_651_groups_0"), val = tensor<int32, []>(1)];
            tensor<fp16, [256, 512, 1, 1]> model_23_cv3_2_0_1_conv_weight_to_fp16_palettized = constexpr_lut_to_dense()[indices = tensor<uint8, [131072]>(BLOBFILE(path = tensor<string, []>("@model_path/weights/weight.bin"), offset = tensor<uint64, []>(27586304))), lut = tensor<fp16, [256]>(BLOBFILE(path = tensor<string, []>("@model_path/weights/weight.bin"), offset = tensor<uint64, []>(27717440))), name = tensor<string, []>("model_23_cv3_2_0_1_conv_weight_to_fp16_palettized"), shape = tensor<uint32, [4]>([256, 512, 1, 1])];
            tensor<fp16, [256]> model_23_cv3_2_0_1_conv_bias_to_fp16 = const()[name = tensor<string, []>("model_23_cv3_2_0_1_conv_bias_to_fp16"), val = tensor<fp16, [256]>(BLOBFILE(path = tensor<string, []>("@model_path/weights/weight.bin"), offset = tensor<uint64, []>(27718016)))];
            tensor<fp16, [1, 256, 20, 20]> input_651_cast_fp16 = conv(bias = model_23_cv3_2_0_1_conv_bias_to_fp16, dilations = input_651_dilations_0, groups = input_651_groups_0, pad = input_651_pad_0, pad_type = input_651_pad_type_0, strides = input_651_strides_0, weight = model_23_cv3_2_0_1_conv_weight_to_fp16_palettized, x = input_649_cast_fp16)[name = tensor<string, []>("input_651_cast_fp16")];
            tensor<fp16, [1, 256, 20, 20]> input_653_cast_fp16 = silu(x = input_651_cast_fp16)[name = tensor<string, []>("input_653_cast_fp16")];
            tensor<string, []> input_655_pad_type_0 = const()[name = tensor<string, []>("input_655_pad_type_0"), val = tensor<string, []>("custom")];
            tensor<int32, [4]> input_655_pad_0 = const()[name = tensor<string, []>("input_655_pad_0"), val = tensor<int32, [4]>([1, 1, 1, 1])];
            tensor<int32, []> input_655_groups_0 = const()[name = tensor<string, []>("input_655_groups_0"), val = tensor<int32, []>(256)];
            tensor<int32, [2]> input_655_strides_0 = const()[name = tensor<string, []>("input_655_strides_0"), val = tensor<int32, [2]>([1, 1])];
            tensor<int32, [2]> input_655_dilations_0 = const()[name = tensor<string, []>("input_655_dilations_0"), val = tensor<int32, [2]>([1, 1])];
            tensor<fp16, [256, 1, 3, 3]> model_23_cv3_2_1_0_conv_weight_to_fp16_palettized = constexpr_lut_to_dense()[indices = tensor<uint8, [2304]>(BLOBFILE(path = tensor<string, []>("@model_path/weights/weight.bin"), offset = tensor<uint64, []>(27718592))), lut = tensor<fp16, [256]>(BLOBFILE(path = tensor<string, []>("@model_path/weights/weight.bin"), offset = tensor<uint64, []>(27720960))), name = tensor<string, []>("model_23_cv3_2_1_0_conv_weight_to_fp16_palettized"), shape = tensor<uint32, [4]>([256, 1, 3, 3])];
            tensor<fp16, [256]> model_23_cv3_2_1_0_conv_bias_to_fp16 = const()[name = tensor<string, []>("model_23_cv3_2_1_0_conv_bias_to_fp16"), val = tensor<fp16, [256]>(BLOBFILE(path = tensor<string, []>("@model_path/weights/weight.bin"), offset = tensor<uint64, []>(27721536)))];
            tensor<fp16, [1, 256, 20, 20]> input_655_cast_fp16 = conv(bias = model_23_cv3_2_1_0_conv_bias_to_fp16, dilations = input_655_dilations_0, groups = input_655_groups_0, pad = input_655_pad_0, pad_type = input_655_pad_type_0, strides = input_655_strides_0, weight = model_23_cv3_2_1_0_conv_weight_to_fp16_palettized, x = input_653_cast_fp16)[name = tensor<string, []>("input_655_cast_fp16")];
            tensor<fp16, [1, 256, 20, 20]> input_657_cast_fp16 = silu(x = input_655_cast_fp16)[name = tensor<string, []>("input_657_cast_fp16")];
            tensor<string, []> input_659_pad_type_0 = const()[name = tensor<string, []>("input_659_pad_type_0"), val = tensor<string, []>("valid")];
            tensor<int32, [2]> input_659_strides_0 = const()[name = tensor<string, []>("input_659_strides_0"), val = tensor<int32, [2]>([1, 1])];
            tensor<int32, [4]> input_659_pad_0 = const()[name = tensor<string, []>("input_659_pad_0"), val = tensor<int32, [4]>([0, 0, 0, 0])];
            tensor<int32, [2]> input_659_dilations_0 = const()[name = tensor<string, []>("input_659_dilations_0"), val = tensor<int32, [2]>([1, 1])];
            tensor<int32, []> input_659_groups_0 = const()[name = tensor<string, []>("input_659_groups_0"), val = tensor<int32, []>(1)];
            tensor<fp16, [256, 256, 1, 1]> model_23_cv3_2_1_1_conv_weight_to_fp16_palettized = constexpr_lut_to_dense()[indices = tensor<uint8, [65536]>(BLOBFILE(path = tensor<string, []>("@model_path/weights/weight.bin"), offset = tensor<uint64, []>(27722112))), lut = tensor<fp16, [256]>(BLOBFILE(path = tensor<string, []>("@model_path/weights/weight.bin"), offset = tensor<uint64, []>(27787712))), name = tensor<string, []>("model_23_cv3_2_1_1_conv_weight_to_fp16_palettized"), shape = tensor<uint32, [4]>([256, 256, 1, 1])];
            tensor<fp16, [256]> model_23_cv3_2_1_1_conv_bias_to_fp16 = const()[name = tensor<string, []>("model_23_cv3_2_1_1_conv_bias_to_fp16"), val = tensor<fp16, [256]>(BLOBFILE(path = tensor<string, []>("@model_path/weights/weight.bin"), offset = tensor<uint64, []>(27788288)))];
            tensor<fp16, [1, 256, 20, 20]> input_659_cast_fp16 = conv(bias = model_23_cv3_2_1_1_conv_bias_to_fp16, dilations = input_659_dilations_0, groups = input_659_groups_0, pad = input_659_pad_0, pad_type = input_659_pad_type_0, strides = input_659_strides_0, weight = model_23_cv3_2_1_1_conv_weight_to_fp16_palettized, x = input_657_cast_fp16)[name = tensor<string, []>("input_659_cast_fp16")];
            tensor<fp16, [1, 256, 20, 20]> input_661_cast_fp16 = silu(x = input_659_cast_fp16)[name = tensor<string, []>("input_661_cast_fp16")];
            tensor<string, []> var_2313_pad_type_0 = const()[name = tensor<string, []>("op_2313_pad_type_0"), val = tensor<string, []>("valid")];
            tensor<int32, [2]> var_2313_strides_0 = const()[name = tensor<string, []>("op_2313_strides_0"), val = tensor<int32, [2]>([1, 1])];
            tensor<int32, [4]> var_2313_pad_0 = const()[name = tensor<string, []>("op_2313_pad_0"), val = tensor<int32, [4]>([0, 0, 0, 0])];
            tensor<int32, [2]> var_2313_dilations_0 = const()[name = tensor<string, []>("op_2313_dilations_0"), val = tensor<int32, [2]>([1, 1])];
            tensor<int32, []> var_2313_groups_0 = const()[name = tensor<string, []>("op_2313_groups_0"), val = tensor<int32, []>(1)];
            tensor<fp16, [80, 256, 1, 1]> model_23_cv3_2_2_weight_to_fp16_palettized = constexpr_lut_to_dense()[indices = tensor<uint8, [20480]>(BLOBFILE(path = tensor<string, []>("@model_path/weights/weight.bin"), offset = tensor<uint64, []>(27788864))), lut = tensor<fp16, [256]>(BLOBFILE(path = tensor<string, []>("@model_path/weights/weight.bin"), offset = tensor<uint64, []>(27809408))), name = tensor<string, []>("model_23_cv3_2_2_weight_to_fp16_palettized"), shape = tensor<uint32, [4]>([80, 256, 1, 1])];
            tensor<fp16, [80]> model_23_cv3_2_2_bias_to_fp16 = const()[name = tensor<string, []>("model_23_cv3_2_2_bias_to_fp16"), val = tensor<fp16, [80]>(BLOBFILE(path = tensor<string, []>("@model_path/weights/weight.bin"), offset = tensor<uint64, []>(27809984)))];
            tensor<fp16, [1, 80, 20, 20]> var_2313_cast_fp16 = conv(bias = model_23_cv3_2_2_bias_to_fp16, dilations = var_2313_dilations_0, groups = var_2313_groups_0, pad = var_2313_pad_0, pad_type = var_2313_pad_type_0, strides = var_2313_strides_0, weight = model_23_cv3_2_2_weight_to_fp16_palettized, x = input_661_cast_fp16)[name = tensor<string, []>("op_2313_cast_fp16")];
            tensor<bool, []> xi_interleave_0 = const()[name = tensor<string, []>("xi_interleave_0"), val = tensor<bool, []>(false)];
            tensor<fp16, [1, 144, 20, 20]> xi_cast_fp16 = concat(axis = var_1920, interleave = xi_interleave_0, values = (var_2263_cast_fp16, var_2313_cast_fp16))[name = tensor<string, []>("xi_cast_fp16")];
            tensor<int32, [3]> var_2317 = const()[name = tensor<string, []>("op_2317"), val = tensor<int32, [3]>([1, 144, -1])];
            tensor<fp16, [1, 144, 6400]> var_2318_cast_fp16 = reshape(shape = var_2317, x = xi_1_cast_fp16)[name = tensor<string, []>("op_2318_cast_fp16")];
            tensor<int32, [3]> var_2319 = const()[name = tensor<string, []>("op_2319"), val = tensor<int32, [3]>([1, 144, -1])];
            tensor<fp16, [1, 144, 1600]> var_2320_cast_fp16 = reshape(shape = var_2319, x = xi_3_cast_fp16)[name = tensor<string, []>("op_2320_cast_fp16")];
            tensor<int32, [3]> var_2321 = const()[name = tensor<string, []>("op_2321"), val = tensor<int32, [3]>([1, 144, -1])];
            tensor<fp16, [1, 144, 400]> var_2322_cast_fp16 = reshape(shape = var_2321, x = xi_cast_fp16)[name = tensor<string, []>("op_2322_cast_fp16")];
            tensor<bool, []> var_2324_interleave_0 = const()[name = tensor<string, []>("op_2324_interleave_0"), val = tensor<bool, []>(false)];
            tensor<fp16, [1, 144, 8400]> var_2324_cast_fp16 = concat(axis = var_1924, interleave = var_2324_interleave_0, values = (var_2318_cast_fp16, var_2320_cast_fp16, var_2322_cast_fp16))[name = tensor<string, []>("op_2324_cast_fp16")];
            tensor<int32, [2]> var_2325 = const()[name = tensor<string, []>("op_2325"), val = tensor<int32, [2]>([64, 80])];
            tensor<int32, []> var_2326_axis_0 = const()[name = tensor<string, []>("op_2326_axis_0"), val = tensor<int32, []>(1)];
            tensor<fp16, [1, 64, 8400]> var_2326_cast_fp16_0, tensor<fp16, [1, 80, 8400]> var_2326_cast_fp16_1 = split(axis = var_2326_axis_0, split_sizes = var_2325, x = var_2324_cast_fp16)[name = tensor<string, []>("op_2326_cast_fp16")];
            tensor<int32, [4]> var_2332 = const()[name = tensor<string, []>("op_2332"), val = tensor<int32, [4]>([1, 4, 16, 8400])];
            tensor<fp16, [1, 4, 16, 8400]> var_2333_cast_fp16 = reshape(shape = var_2332, x = var_2326_cast_fp16_0)[name = tensor<string, []>("op_2333_cast_fp16")];
            tensor<int32, [4]> var_2334_perm_0 = const()[name = tensor<string, []>("op_2334_perm_0"), val = tensor<int32, [4]>([0, 2, 1, 3])];
            tensor<fp16, [1, 16, 4, 8400]> var_2334_cast_fp16 = transpose(perm = var_2334_perm_0, x = var_2333_cast_fp16)[name = tensor<string, []>("transpose_0")];
            tensor<fp16, [1, 16, 4, 8400]> input_cast_fp16 = softmax(axis = var_1920, x = var_2334_cast_fp16)[name = tensor<string, []>("input_cast_fp16")];
            tensor<string, []> var_2341_pad_type_0 = const()[name = tensor<string, []>("op_2341_pad_type_0"), val = tensor<string, []>("valid")];
            tensor<int32, [2]> var_2341_strides_0 = const()[name = tensor<string, []>("op_2341_strides_0"), val = tensor<int32, [2]>([1, 1])];
            tensor<int32, [4]> var_2341_pad_0 = const()[name = tensor<string, []>("op_2341_pad_0"), val = tensor<int32, [4]>([0, 0, 0, 0])];
            tensor<int32, [2]> var_2341_dilations_0 = const()[name = tensor<string, []>("op_2341_dilations_0"), val = tensor<int32, [2]>([1, 1])];
            tensor<int32, []> var_2341_groups_0 = const()[name = tensor<string, []>("op_2341_groups_0"), val = tensor<int32, []>(1)];
            tensor<fp16, [1, 16, 1, 1]> model_23_dfl_conv_weight_to_fp16 = const()[name = tensor<string, []>("model_23_dfl_conv_weight_to_fp16"), val = tensor<fp16, [1, 16, 1, 1]>(BLOBFILE(path = tensor<string, []>("@model_path/weights/weight.bin"), offset = tensor<uint64, []>(27810240)))];
            tensor<fp16, [1, 1, 4, 8400]> var_2341_cast_fp16 = conv(dilations = var_2341_dilations_0, groups = var_2341_groups_0, pad = var_2341_pad_0, pad_type = var_2341_pad_type_0, strides = var_2341_strides_0, weight = model_23_dfl_conv_weight_to_fp16, x = input_cast_fp16)[name = tensor<string, []>("op_2341_cast_fp16")];
            tensor<int32, [3]> var_2342 = const()[name = tensor<string, []>("op_2342"), val = tensor<int32, [3]>([1, 4, 8400])];
            tensor<fp16, [1, 4, 8400]> distance_cast_fp16 = reshape(shape = var_2342, x = var_2341_cast_fp16)[name = tensor<string, []>("distance_cast_fp16")];
            tensor<int32, [2]> var_2345_split_sizes_0 = const()[name = tensor<string, []>("op_2345_split_sizes_0"), val = tensor<int32, [2]>([2, 2])];
            tensor<int32, []> var_2345_axis_0 = const()[name = tensor<string, []>("op_2345_axis_0"), val = tensor<int32, []>(1)];
            tensor<fp16, [1, 2, 8400]> var_2345_cast_fp16_0, tensor<fp16, [1, 2, 8400]> var_2345_cast_fp16_1 = split(axis = var_2345_axis_0, split_sizes = var_2345_split_sizes_0, x = distance_cast_fp16)[name = tensor<string, []>("op_2345_cast_fp16")];
            tensor<fp16, [1, 2, 8400]> anchor_points_to_fp16_palettized = constexpr_lut_to_dense()[indices = tensor<uint8, [16800]>(BLOBFILE(path = tensor<string, []>("@model_path/weights/weight.bin"), offset = tensor<uint64, []>(27810368))), lut = tensor<fp16, [256]>(BLOBFILE(path = tensor<string, []>("@model_path/weights/weight.bin"), offset = tensor<uint64, []>(27827264))), name = tensor<string, []>("anchor_points_to_fp16_palettized"), shape = tensor<uint32, [3]>([1, 2, 8400])];
            tensor<fp16, [1, 2, 8400]> x1y1_cast_fp16 = sub(x = anchor_points_to_fp16_palettized, y = var_2345_cast_fp16_0)[name = tensor<string, []>("x1y1_cast_fp16")];
            tensor<fp16, [1, 2, 8400]> x2y2_cast_fp16 = add(x = anchor_points_to_fp16_palettized, y = var_2345_cast_fp16_1)[name = tensor<string, []>("x2y2_cast_fp16")];
            tensor<fp16, [1, 2, 8400]> var_2349_cast_fp16 = add(x = x1y1_cast_fp16, y = x2y2_cast_fp16)[name = tensor<string, []>("op_2349_cast_fp16")];
            tensor<fp16, []> _inversed_c_xy_y_0_to_fp16 = const()[name = tensor<string, []>("_inversed_c_xy_y_0_to_fp16"), val = tensor<fp16, []>(0x1p-1)];
            tensor<fp16, [1, 2, 8400]> _inversed_c_xy_cast_fp16 = mul(x = var_2349_cast_fp16, y = _inversed_c_xy_y_0_to_fp16)[name = tensor<string, []>("_inversed_c_xy_cast_fp16")];
            tensor<fp16, [1, 2, 8400]> wh_cast_fp16 = sub(x = x2y2_cast_fp16, y = x1y1_cast_fp16)[name = tensor<string, []>("wh_cast_fp16")];
            tensor<bool, []> var_2354_interleave_0 = const()[name = tensor<string, []>("op_2354_interleave_0"), val = tensor<bool, []>(false)];
            tensor<fp16, [1, 4, 8400]> var_2354_cast_fp16 = concat(axis = var_1920, interleave = var_2354_interleave_0, values = (_inversed_c_xy_cast_fp16, wh_cast_fp16))[name = tensor<string, []>("op_2354_cast_fp16")];
            tensor<fp16, [1, 8400]> op_1908_to_fp16_palettized = constexpr_lut_to_dense()[indices = tensor<uint8, [8400]>(BLOBFILE(path = tensor<string, []>("@model_path/weights/weight.bin"), offset = tensor<uint64, []>(27827840))), lut = tensor<fp16, [256]>(BLOBFILE(path = tensor<string, []>("@model_path/weights/weight.bin"), offset = tensor<uint64, []>(27836352))), name = tensor<string, []>("op_1908_to_fp16_palettized"), shape = tensor<uint32, [2]>([1, 8400])];
            tensor<fp16, [1, 4, 8400]> dbox_cast_fp16 = mul(x = var_2354_cast_fp16, y = op_1908_to_fp16_palettized)[name = tensor<string, []>("dbox_cast_fp16")];
            tensor<fp16, [1, 80, 8400]> var_2356_cast_fp16 = sigmoid(x = var_2326_cast_fp16_1)[name = tensor<string, []>("op_2356_cast_fp16")];
            tensor<bool, []> var_2358_interleave_0 = const()[name = tensor<string, []>("op_2358_interleave_0"), val = tensor<bool, []>(false)];
            tensor<fp16, [1, 116, 8400]> var_2358_cast_fp16 = concat(axis = var_1920, interleave = var_2358_interleave_0, values = (dbox_cast_fp16, var_2356_cast_fp16, mc_cast_fp16))[name = tensor<string, []>("op_2358_cast_fp16")];
            tensor<string, []> var_2358_cast_fp16_to_fp32_dtype_0 = const()[name = tensor<string, []>("op_2358_cast_fp16_to_fp32_dtype_0"), val = tensor<string, []>("fp32")];
            tensor<fp32, [1, 32, 160, 160]> p = cast(dtype = p_cast_fp16_to_fp32_dtype_0, x = p_cast_fp16)[name = tensor<string, []>("cast_0")];
            tensor<fp32, [1, 116, 8400]> var_2358 = cast(dtype = var_2358_cast_fp16_to_fp32_dtype_0, x = var_2358_cast_fp16)[name = tensor<string, []>("cast_1")];
        } -> (var_2358, p);
}